notebooks/data/processed/mfccs/00fdaa7b-d050-43b0-b606-155be40ac80f.npy (npy, 20288 bytes, 1 tensors)

array f4 [40, 126]
00000000: 3d3b 12c4 3d3b 12c4 3d3b 12c4 3d3b 12c4
00000010: 3d3b 12c4 3d3b 12c4 3d3b 12c4 3d3b 12c4
00000020: 3d3b 12c4 3d3b 12c4 3d3b 12c4 3d3b 12c4
00000030: 3d3b 12c4 3d3b 12c4 3d3b 12c4 3d3b 12c4
00000040: 3d3b 12c4 3d3b 12c4 3d3b 12c4 0424 0ac4
00000050: e727 01c4 2369 b0c3 db75 8cc3 d9e3 9ec3
00000060: 74d8 e9c3 c6ff 0dc4 8ed9 0dc4 2f19 0fc4
00000070: 545a a1c3 fa37 23c3 376d 12c3 d7ed 44c3
00000080: e31d 6fc3 080a 86c3 778b 94c3 4c68 b5c3
00000090: 3a5c e2c3 5545 00c4 dbd9 02c4 f0e1 f9c3
000000a0: 205f f0c3 5525 ebc3 85e8 e7c3 e289 e6c3
000000b0: 0c84 e2c3 1f64 ddc3 2f37 d8c3 3577 d7c3
000000c0: d7b2 d8c3 8652 c5c3 4ad1 a6c3 bbc1 93c3
000000d0: 6e08 95c3 43a1 a9c3 e196 bbc3 cb61 c1c3
000000e0: 51f4 cec3 7972 99c3 6a59 57c2 b9cd 8e41
000000f0: fba0 6cc1 806c d4c2 08af f6c2 8c8d 02c3
00000100: dd54 1bc3 e07a 1bc3 ea9e 08c3 5308 45c3
00000110: 10ff bfc3 2f17 fec3 8e13 08c4 e7e0 08c4
00000120: 826f 09c4 76b3 0cc4 9826 0fc4 af6c 12c3
00000130: c4c1 54c0 0ed0 2541 95d8 89c2 4c88 fbc2
00000140: cc7a fbc2 a0e5 05c3 7230 3dc3 17d3 8fc3
00000150: d638 c3c3 7d7c d9c3 050f edc3 306b 00c4
00000160: a740 04c4 920a 06c4 2960 06c4 4dd7 05c4
00000170: ee4f 08c4 5b70 09c4 5431 0ac4 182b 08c4
00000180: 26ad 04c4 6555 06c4 f580 09c4 2813 0bc4
00000190: 8a64 05c4 5d32 f3c3 964d e5c3 e1fa e0c3
000001a0: 05e4 e3c3 ac24 e9c3 661a ecc3 ec9f efc3
000001b0: 2b18 efc3 d554 ebc3 86f4 d9c3 d978 c5c3
000001c0: 28af c5c3 1d1a bbc3 149c bac3 768a ccc3
000001d0: 2ab9 d8c3 0347 d8c3 9f45 d8c3 d332 ddc3
000001e0: f78f e3c3 fca3 edc3 d043 ebc3 3a77 ccc3
000001f0: d0fb b3c3 d81a bec3 0000 0000 0000 0000
00000200: 0000 0000 0000 0000 0000 0000 0000 0000
00000210: 0000 0000 0000 0000 0000 0000 0000 0000
00000220: 0000 0000 0000 0000 0000 0000 0000 0000
00000230: 0000 0000 0000 0000 0000 0000 0000 0000
00000240: 0000 0000 7a8e c041 a5a6 5042 5194 2143
00000250: 422c 2b43 be1b 2143 642e bc42 51e8 ac41
00000260: c8f5 b541 6a6e 8641 fc1d 0143 dc8a 0f43
00000270: 7549 1243 7158 fc42 5df0 a442 a845 6642
00000280: 7af5 9842 8a7f ad42 b6ad 9142 9d99 5642
00000290: 778d 4642 d6bf 6942 e2ca 7542 c0c1 6842
000002a0: 04f1 5b42 ba92 5642 265d 4442 7451 4a42
000002b0: ca9f 5e42 0278 4f42 2103 4042 dd96 3042
000002c0: dc49 3042 d283 5842 2e76 8842 aa8e b442
000002d0: 346a bc42 867c ac42 2c86 a142 d006 a942
000002e0: 365e 9142 b0aa 9042 023c 9c42 d887 9442
000002f0: c680 8842 42d8 8242 7a8f a742 12be 0d43
00000300: f3b1 0f43 1dd6 0043 e141 c742 8f32 8e42
00000310: 778a 2f42 4f79 2c42 2be7 2542 9c7e dd41
00000320: 3de6 7641 f83e 5d42 5a72 7942 bc5b 8c42
00000330: dead a942 1853 af42 4a3d a542 2879 be42
00000340: 16bc c542 415e c342 9796 9942 aad3 9c42
00000350: 7a3e 9242 1a86 5842 14b8 2e42 612c 0742
00000360: 322a de41 4a78 0142 a9be fe41 291c 1542
00000370: 7e6b 1042 446a fb41 005b f741 60ea 1442
00000380: ea3e 0c42 5e23 e041 74b8 2942 e749 7842
00000390: 6a06 8642 f440 9842 1ffc ad42 9292 a642
000003a0: 673c 9942 4e24 8d42 3ecb 6f42 fa26 7a42
000003b0: 6e74 1642 9856 0242 7dc0 3d42 12b1 0d42
000003c0: 27bb 0c42 3041 8242 043f 9742 1a1f 9642
000003d0: c4db 9142 7de4 9542 7030 9542 9afd 8342
000003e0: 03ae 9842 ab5f e042 0f20 e642 ff20 d942
000003f0: 0000 0000 0000 0000 0000 0000 0000 0000
-584.9256 -584.9256 -584.9256 -584.9256 -584.9256 -584.9256 -584.9256 -584.9256
-584.9256 -584.9256 -584.9256 -584.9256 -584.9256 -584.9256 -584.9256 -584.9256
-584.9256 -584.9256 -584.9256 -552.56274 -516.6235 -352.82138 -280.92075 -317.78006
-467.69104 -567.99646 -567.3993 -572.3935 -322.7057 -163.21866 -146.42662 -196.92906
-239.11674 -268.07837 -297.08957 -362.81482 -452.72052 -513.0833 -523.404 -499.76514
-480.74316 -470.29166 -463.81656 -461.0772 -453.03162 -442.7822 -432.43112 -430.9313
-433.3972 -394.6447 -333.63507 -295.51352 -298.06586 -339.25986 -375.17874 -386.764
-413.90872 -306.89432 -53.83732 17.85045 -14.789302 -106.211914 -123.34186 -130.55292
-155.3315 -155.47998 -136.62076 -197.03252 -383.99268 -508.18112 -544.30554 -547.5141
-549.7423 -562.8041 -572.603 -146.42455 -3.3243265 10.363295 -68.92301 -125.766205
-125.73984 -133.89697 -189.18924 -287.64914 -390.44403 -434.97256 -474.11734 -513.6748
-529.0102 -536.16516 -537.5025 -535.3641 -545.2489 -549.75555 -552.77075 -544.67334
-530.70544 -537.3343 -550.01495 -556.2993 -533.5709 -486.39346 -458.60614 -449.96
-455.7814 -466.2865 -472.20624 -479.2494 -478.1888 -470.66275 -435.91034 -394.94412
-395.3684 -374.204 -373.21936 -409.08173 -433.4466 -432.55478 -432.5439 -442.39706
-455.12473 -475.28113 -470.5298 -408.93146 -359.9673 -380.20972 0.0 0.0
0.0 0.0 0.0 0.0 0.0 0.0 0.0 0.0
0.0 0.0 0.0 0.0 0.0 0.0 0.0 0.0
0.0 24.069569 52.16274 161.57936 171.17288 161.10837 94.09061 21.613436
22.74501 16.803913 129.11713 143.54242 146.28694 126.17274 82.46946 57.568024
76.47945 86.7491 72.83928 53.650013 49.63815 58.43734 61.448128 58.18921
54.985367 53.643288 49.090965 50.579544 55.656044 51.867195 48.003056 44.147327
44.07213 54.12873 68.23082 90.27864 94.20743 86.24321 80.762054 84.513306
72.684006 72.333374 78.1172 74.26532 68.25151 65.42238 83.78023 141.74246
143.69511 128.83638 99.62867 71.09875 43.88522 43.118465 41.47575 27.686821
15.4312105 55.311493 62.36167 70.17917 84.839584 87.66229 82.619705 95.23663
98.867355 97.68409 76.79412 78.41341 73.122025 54.13096 43.679764 33.79334
27.770603 32.36747 31.843096 37.2775 36.104973 31.426888 30.919434 37.22888
35.06144 28.01727 42.43013 62.07217 67.01253 76.12686 86.992424 83.28627
76.61797 70.57091 59.94848 62.538063 37.6137 32.584564 47.437977 35.42292
35.182766 65.12732 75.62308 75.060745 72.92923 74.946266 74.594604 65.995316
76.33987 112.18685 115.062614 108.564445 0.0 0.0 0.0 0.0
