notebooks/data/processed/mfccs/01e68cda-2d0f-4327-b3d2-3c58f47192ec.npy (npy, 20288 bytes, 1 tensors)

array f4 [40, 126]
-577.9664 -577.9664 -577.9664 -577.9664 -577.9664 -577.9664 -577.9664 -577.9664
-577.9664 -577.9664 -577.9664 -577.9664 -577.9664 -577.9664 -577.9664 -577.9664
-577.8238 -577.5778 -564.7277 -535.74384 -550.4776 -574.24133 -570.1331 -560.7493
-538.4097 -529.02844 -525.8326 -510.00162 -484.57327 -468.9005 -436.07224 -405.83154
-382.03195 -362.01718 -344.06366 -336.22354 -328.347 -304.15192 -272.84048 -260.64532
-254.3733 -261.30743 -284.72122 -308.9307 -345.76862 -419.68124 -531.9603 -577.91315
-577.9664 -577.9664 -577.9664 -577.9664 -577.9664 -577.9664 -577.9664 -577.9664
-396.323 -58.56234 34.433205 59.259552 59.090145 58.685955 59.31225 53.905254
56.49052 49.194973 6.415435 -85.19659 -178.98297 -299.12067 -382.72745 -468.99228
-543.1724 -576.9716 -176.71301 -10.594235 43.567963 35.8312 27.39726 9.135627
-8.812092 -30.457533 -104.28595 -264.4137 -420.92618 -492.71463 -554.85675 -289.15646
-72.91923 -10.112435 -20.51515 -36.339596 -49.71824 -59.01044 -43.89945 -85.04497
-229.61665 -421.07452 -523.3978 -576.71826 -413.53177 -110.7895 -30.579409 -47.52173
-79.49756 -86.55201 -112.098755 -146.43115 -174.86778 -159.8803 -113.76783 -112.88903
-165.62251 -261.90244 -379.31403 -478.94858 -553.52655 -573.4468 -577.9664 -577.9664
-577.9664 -577.9664 -577.9664 -577.9664 -577.9664 -577.9664 0.0 0.0
0.0 0.0 0.0 0.0 0.0 0.0 0.0 0.0
0.0 0.0 0.0 0.0 0.0 0.0 0.20154151 0.5494534
-11.460126 -36.768127 -24.313107 -1.8452544 0.055921413 0.8482753 -3.3080797 1.4543183
13.1961975 20.514591 32.981056 32.419716 32.29472 33.99794 32.629654 28.806923
26.79543 28.925716 28.070728 33.9959 28.015108 22.791817 25.837872 27.291393
25.034885 24.405083 37.379868 44.124 38.14395 0.0753017 0.0 0.0
0.0 0.0 0.0 0.0 0.0 0.0 49.9664 40.309185
37.421234 29.764809 16.99723 10.080375 15.437376 20.750275 35.4967 56.8222
70.59549 58.964725 54.93576 86.9793 95.98642 65.15988 29.100521 1.2517049
16.43047 23.745495 36.84939 48.917187 51.486115 55.740517 80.02269 84.60106
75.00825 69.19017 90.76468 65.569405 24.047739 23.96302 26.302744 26.47474
28.606415 29.58733 35.30844 74.28096 89.7845 77.01929 54.246033 81.60916
46.96986 1.5299988 32.97944 17.574116 20.599613 23.831594 20.101162 17.779465
15.859085 27.879154 60.62391 120.99072 140.64923 153.71713 163.0297 160.43944
145.43195 106.73518 32.07463 6.2186785 0.0 0.0 0.0 0.0
0.0 0.0 0.0 0.0 0.0 0.0 0.0 0.0
00000000: d97d 10c4 d97d 10c4 d97d 10c4 d97d 10c4
00000010: d97d 10c4 d97d 10c4 d97d 10c4 d97d 10c4
00000020: d97d 10c4 d97d 10c4 d97d 10c4 d97d 10c4
00000030: d97d 10c4 d97d 10c4 d97d 10c4 d97d 10c4
00000040: b974 10c4 fb64 10c4 932e 0dc4 9bef 05c4
00000050: 919e 09c4 728f 0fc4 8588 0ec4 f52f 0cc4
00000060: 399a 06c4 d241 04c4 4975 03c4 3500 ffc3
00000070: 6149 f2c3 4473 eac3 3f09 dac3 70ea cac3
00000080: 1704 bfc3 3302 b5c3 2608 acc3 9d1c a8c3
00000090: 6a2c a4c3 7213 98c3 956b 88c3 9a52 82c3
000000a0: 915f 7ec3 5aa7 82c3 515c 8ec3 2177 9ac3
000000b0: 62e2 acc3 33d7 d1c3 76fd 04c4 717a 10c4
000000c0: d97d 10c4 d97d 10c4 d97d 10c4 d97d 10c4
000000d0: d97d 10c4 d97d 10c4 d97d 10c4 d97d 10c4
000000e0: 5829 c6c3 d63f 6ac2 9abb 0942 c809 6d42
000000f0: 4f5c 6c42 6bbe 6a42 be3f 6d42 fb9e 5742
00000100: 4bf6 6142 a7c7 4442 3e4b cd40 a764 aac2
00000110: a4fb 32c3 728f 95c3 1d5d bfc3 037f eac3
00000120: 09cb 07c4 2f3e 10c4 88b6 30c3 fd81 29c1
00000130: 9845 2e42 2653 0f42 972d db41 872b 1241
00000140: 54fe 0cc1 07a9 f3c1 6892 d0c2 f434 84c3
00000150: 8d76 d2c3 795b f6c3 d5b6 0ac4 0794 90c3
00000160: a5d6 91c2 89cc 21c1 071f a4c1 bf5b 11c2
00000170: 7adf 46c2 b10a 6cc2 0999 2fc2 0617 aac2
00000180: dd9d 65c3 8a89 d2c3 76d9 02c4 f82d 10c4
00000190: 11c4 cec3 3994 ddc2 a1a2 f4c1 4016 3ec2
000001a0: c0fe 9ec2 a11a adc2 9032 e0c2 606e 12c3
000001b0: 27de 2ec3 5be1 1fc3 2189 e3c2 2fc7 e1c2
000001c0: 5d9f 25c3 83f3 82c3 32a8 bdc3 6b79 efc3
000001d0: b361 0ac4 985c 0fc4 d97d 10c4 d97d 10c4
000001e0: d97d 10c4 d97d 10c4 d97d 10c4 d97d 10c4
000001f0: d97d 10c4 d97d 10c4 0000 0000 0000 0000
00000200: 0000 0000 0000 0000 0000 0000 0000 0000
00000210: 0000 0000 0000 0000 0000 0000 0000 0000
00000220: 0000 0000 0000 0000 0000 0000 0000 0000
00000230: 0000 0000 0000 0000 e660 4e3e faa8 0c3f
00000240: ad5c 37c1 9012 13c2 3e81 c2c1 4c31 ecbf
00000250: da0d 653d 9228 593f 94b7 53c0 1a27 ba3f
00000260: a023 5341 e21d a441 9aec 0342 caad 0142
00000270: cb2d 0142 e4fd 0742 c484 0242 9474 e641
00000280: 0a5d d641 de67 e741 da90 e041 cdfb 0742
00000290: f11e e041 a455 b641 f6b3 ce41 c654 da41
000002a0: 7247 c841 9c3d c341 fc84 1542 fa7e 3042
000002b0: 6893 1842 c737 9a3d 0000 0000 0000 0000
000002c0: 0000 0000 0000 0000 0000 0000 0000 0000
000002d0: 0000 0000 0000 0000 98dd 4742 9b3c 2142
000002e0: 58af 1542 541e ee41 54fa 8741 3749 2141
000002f0: 7eff 7641 9000 a641 9ffc 0d42 ef49 6342
00000300: e430 8d42 e1db 6b42 38be 5b42 67f5 ad42
00000310: 0cf9 bf42 dc51 8242 decd e841 de37 a03f
00000320: 9a71 8341 c6f6 bd41 c665 1342 33ab 4342
00000330: c8f1 4d42 4af6 5e42 9e0b a042 be33 a942
00000340: 3904 9642 5e61 8a42 8487 b542 8923 8342
00000350: c561 c041 44b4 bf41 056c d241 44cc d341
00000360: f0d9 e441 dab2 ec41 d83b 0d42 da8f 9442
00000370: aa91 b342 e009 9a42 f0fb 5842 e437 a342
00000380: 23e1 3b42 00d7 c33f f2ea 0342 ca97 8c41
00000390: 02cc a441 1ba7 be41 2ecf a041 583c 8e41
000003a0: d0be 7d41 8208 df41 e27e 7242 40fb f142
000003b0: 34a6 0c43 96b7 1943 9a07 2343 7f70 2043
000003c0: 946e 1143 6a78 d542 6c4c 0042 6aff c640
000003d0: 0000 0000 0000 0000 0000 0000 0000 0000
000003e0: 0000 0000 0000 0000 0000 0000 0000 0000
000003f0: 0000 0000 0000 0000 0000 0000 0000 0000
