notebooks/data/processed/mfccs/05a98293-2ff3-4d00-b79f-ad49ba5b64f1.npy (npy, 20288 bytes, 1 tensors)

array f4 [40, 126]
-1131.3708 -1131.3708 -1131.3708 -1131.3708 -1131.3708 -1131.3708 -1131.3708 -1131.3708
-1131.3708 -1131.3708 -1131.3708 -1131.3708 -1131.3708 -1131.3708 -1131.3708 -1131.3708
-1131.3708 -1131.3708 -1131.3708 -1131.3708 -702.21246 -563.2851 -526.6776 -522.1362
-522.13776 -528.12146 -527.63916 -527.47095 -530.03015 -527.5765 -525.3582 -532.1837
-536.39557 -533.4854 -527.2278 -532.64246 -530.3103 -531.1975 -533.4241 -529.50024
-530.06793 -537.86334 -536.6106 -532.7717 -535.1878 -533.9886 -533.10187 -531.8744
-529.5386 -528.92737 -525.0501 -525.96375 -531.31915 -531.39374 -531.6821 -528.9194
-529.66364 -527.75574 -531.44293 -534.43365 -537.1387 -541.3796 -533.1144 -527.2779
-523.8519 -526.6522 -525.8701 -524.9649 -523.3566 -527.3555 -532.0941 -530.3048
-529.55786 -527.6388 -529.2858 -532.5559 -532.17 -530.08997 -534.50476 -532.6879
-530.5897 -533.85016 -534.1693 -535.17786 -534.97144 -538.69116 -545.56244 -542.09546
-536.78723 -543.0909 -540.2505 -537.0481 -538.96436 -535.0943 -535.9499 -542.3259
-542.3193 -538.02893 -534.92004 -535.1141 -536.93207 -536.6108 -534.3801 -534.9319
-535.9413 -536.80695 -533.3774 -536.604 -536.59503 -537.806 -542.3348 -547.5583
-540.99054 -540.9569 -541.48206 -540.98816 -539.917 -538.71106 -540.228 -540.5735
-538.1176 -535.05945 -536.39856 -536.2245 -538.46606 -573.53064 0.0 0.0
0.0 0.0 0.0 0.0 0.0 0.0 0.0 0.0
0.0 0.0 0.0 0.0 0.0 0.0 0.0 0.0
0.0 0.0 52.85739 46.39786 40.900066 41.510616 45.000923 41.589706
40.45981 42.278137 43.163612 44.94834 44.613884 39.658722 40.943474 42.914314
44.10553 44.869606 45.12776 45.50162 44.06264 46.561554 43.63233 42.598915
43.506733 46.01853 44.94176 44.687126 44.34203 43.84198 42.620064 43.90938
47.67022 45.145298 43.903263 40.56623 43.156784 47.100407 48.14261 49.255817
46.87052 39.753525 39.57051 41.575695 44.335594 45.23611 45.14568 44.233295
44.841682 44.67817 43.22705 42.8811 49.13581 49.32556 42.64599 44.560867
42.95348 43.49977 44.762527 43.977795 40.577797 41.8767 43.36512 41.88672
42.27188 43.44429 42.769142 41.522766 41.06576 37.892212 44.187874 42.06682
41.055244 42.356537 43.62423 47.800343 44.27823 43.25812 44.223244 45.429253
47.910835 44.891285 41.498104 39.832783 45.9147 46.3584 44.640427 44.349495
45.359833 47.450626 47.509995 42.499077 43.25641 42.784462 46.50346 42.239357
33.412483 37.512016 41.65309 46.33392 50.54902 42.70482 38.281704 40.739662
41.80191 41.293083 39.20343 38.05558 0.0 0.0 0.0 0.0
00000000: de6b 8dc4 de6b 8dc4 de6b 8dc4 de6b 8dc4
00000010: de6b 8dc4 de6b 8dc4 de6b 8dc4 de6b 8dc4
00000020: de6b 8dc4 de6b 8dc4 de6b 8dc4 de6b 8dc4
00000030: de6b 8dc4 de6b 8dc4 de6b 8dc4 de6b 8dc4
00000040: de6b 8dc4 de6b 8dc4 de6b 8dc4 de6b 8dc4
00000050: 998d 2fc4 3fd2 0cc4 5eab 03c4 b888 02c4
00000060: d188 02c4 c607 04c4 e8e8 03c4 24de 03c4
00000070: ee81 04c4 e5e4 03c4 ed56 03c4 c20b 05c4
00000080: 5119 06c4 115f 05c4 94ce 03c4 1e29 05c4
00000090: dc93 04c4 a4cc 04c4 245b 05c4 0460 04c4
000000a0: 5984 04c4 4177 06c4 1427 06c4 6431 05c4
000000b0: 05cc 05c4 457f 05c4 8546 05c4 f6f7 04c4
000000c0: 7862 04c4 5a3b 04c4 3543 03c4 ae7d 03c4
000000d0: 6dd4 04c4 33d9 04c4 a8eb 04c4 d73a 04c4
000000e0: 796a 04c4 5ef0 03c4 59dc 04c4 c19b 05c4
000000f0: e048 06c4 4b58 07c4 5247 05c4 c9d1 03c4
00000100: 86f6 02c4 bea9 03c4 b077 03c4 c13d 03c4
00000110: d3d6 02c4 c1d6 03c4 0606 05c4 8293 04c4
00000120: b463 04c4 e2e8 03c4 4b52 04c4 9423 05c4
00000130: e10a 05c4 c285 04c4 4ea0 05c4 072c 05c4
00000140: bea5 04c4 6976 05c4 d68a 05c4 62cb 05c4
00000150: 2cbe 05c4 3cac 06c4 ff63 08c4 1c86 07c4
00000160: 6232 06c4 d1c5 07c4 0810 07c4 1443 06c4
00000170: b8bd 06c4 09c6 05c4 cbfc 05c4 dc94 07c4
00000180: 6f94 07c4 da81 06c4 e2ba 05c4 4dc7 05c4
00000190: a73b 06c4 1727 06c4 5498 05c4 a4bb 05c4
000001a0: 3efc 05c4 a533 06c4 2758 05c4 a826 06c4
000001b0: 1526 06c4 9673 06c4 6d95 07c4 bbe3 08c4
000001c0: 653f 07c4 3e3d 07c4 da5e 07c4 3e3f 07c4
000001d0: b0fa 06c4 82ad 06c4 980e 07c4 b424 07c4
000001e0: 8787 06c4 cec3 05c4 8219 06c4 5e0e 06c4
000001f0: d49d 06c4 f661 0fc4 0000 0000 0000 0000
00000200: 0000 0000 0000 0000 0000 0000 0000 0000
00000210: 0000 0000 0000 0000 0000 0000 0000 0000
00000220: 0000 0000 0000 0000 0000 0000 0000 0000
00000230: 0000 0000 0000 0000 0000 0000 0000 0000
00000240: 0000 0000 0000 0000 f86d 5342 6997 3942
00000250: ab99 2342 df0a 2642 f200 3442 dc5b 2642
00000260: d8d6 2142 d01c 2942 8aa7 2c42 1acb 3342
00000270: 9e74 3242 88a2 1e42 1ec6 2342 42a8 2b42
00000280: 106c 3042 7a7a 3342 d482 3442 a901 3642
00000290: 2540 3042 083f 3a42 8287 2e42 4a65 2a42
000002a0: e506 2e42 fa12 3842 5dc4 3342 9ebf 3242
000002b0: 3d5e 3142 305e 2f42 f27a 2a42 35a3 2f42
000002c0: 4eae 3e42 c994 3442 f19c 2f42 d243 2242
000002d0: 8ca0 2c42 d166 3c42 0892 4042 f505 4542
000002e0: 6a7b 3b42 9c03 1f42 3448 1e42 834d 2642
000002f0: a657 3142 c7f1 3442 2d95 3442 e5ee 3042
00000300: e25d 3342 72b6 3242 80e8 2c42 3f86 2b42
00000310: 128b 4442 604d 4542 7e95 2a42 543e 3242
00000320: 5dd0 2b42 c4ff 2d42 d40c 3342 43e9 2f42
00000330: aa4f 2242 be81 2742 e275 2d42 008c 2742
00000340: 6816 2942 f4c6 2d42 9a13 2b42 5017 2642
00000350: 5743 2442 a091 1742 62c0 3042 6c44 2842
00000360: 9238 2442 186d 2942 367f 2e42 8d33 3f42
00000370: e81c 3142 5108 2d42 9ae4 3042 8eb7 3542
00000380: b2a4 3f42 ad90 3342 0ffe 2542 c554 1f42
00000390: a7a8 3742 006f 3942 cc8f 3242 e265 3142
000003a0: 7870 3542 71cd 3d42 3c0a 3e42 0eff 2942
000003b0: 9006 2d42 4a23 2b42 8b03 3a42 1af5 2842
000003c0: 62a6 0542 4e0c 1642 c49c 2642 ef55 3942
000003d0: 3232 4a42 bcd1 2a42 7720 1942 6af5 2242
000003e0: 2835 2742 1e2c 2542 50d0 1c42 ea38 1842
000003f0: 0000 0000 0000 0000 0000 0000 0000 0000
