notebooks/data/processed/mfccs/0ad7e901-cd16-4d45-b193-43f09d20650f.npy (npy, 20288 bytes, 1 tensors)

array f4 [40, 126]
00000000: 0ec8 0bc4 0ec8 0bc4 0ec8 0bc4 7747 0ac4
00000010: 1d01 fdc3 c30b f5c3 b3b8 f7c3 438c fcc3
00000020: 1ac9 00c4 4809 02c4 b9f0 02c4 a533 04c4
00000030: ffa3 06c4 2c4f 06c4 0899 fdc3 723b d6c3
00000040: 4b11 b9c3 0a71 afc3 047b bcc3 ae68 dac3
00000050: efbf e8c3 8e5b e2c3 ca38 dbc3 3bbb d7c3
00000060: 8cf7 d4c3 0886 d4c3 7182 d0c3 b238 c6c3
00000070: 1a68 c1c3 750d c8c3 5e89 d2c3 fa3d ddc3
00000080: a288 e9c3 8d25 fdc3 4eb5 05c4 cff1 08c4
00000090: 2e9e 09c4 4507 0ac4 0c00 0bc4 656a 0bc4
000000a0: 2b76 0bc4 947e 0bc4 8067 0bc4 6e79 0bc4
000000b0: 0ca6 0bc4 68ac 0bc4 c3aa 0bc4 d2b3 b6c3
000000c0: f6bc afc2 b890 d940 beb3 4dc1 75a7 95c2
000000d0: 815a 93c2 e22f 8bc2 81bc 81c2 596d 8ec2
000000e0: 2fcf a8c2 6c94 b8c2 36b1 9fc2 df82 e9c1
000000f0: 26fa 72c1 b02b 28c2 1581 3ec2 4a26 abc2
00000100: cc75 09c3 cc61 36c3 884c 0dc3 0d0a e2c1
00000110: 8098 c43d 02f4 2bc2 f9c5 89c2 406e 96c2
00000120: 63af d2c2 12be 12c3 0d29 3bc3 8df1 2ac3
00000130: 8a91 b2c2 bebd 64c2 d414 7fc2 7bcb b7c2
00000140: 1ce9 02c3 e05c 4ac3 6492 85c3 799a 9cc3
00000150: cc37 adc3 d747 b1c3 dd01 aac3 658b a2c3
00000160: ed9b 98c3 4a40 8cc3 955c 84c3 c130 80c3
00000170: 64d5 77c3 b07b 71c3 ed74 6ec3 9521 70c3
00000180: a8df 78c3 2f84 81c3 89b0 85c3 394a 8dc3
00000190: 1e8d 9ec3 b0f9 b4c3 4a92 cdc3 d058 eec3
000001a0: 3ca9 fec3 76eb e6c3 b45a dec3 b059 e8c3
000001b0: 772a fac3 be03 fac3 eac0 bec3 3267 d9c2
000001c0: 3925 f240 a499 2842 f32e 0042 f7a4 b241
000001d0: 3973 2841 06e3 de40 95dc ecbf 083f 85c1
000001e0: 0da5 f6c1 c85e 14c2 1239 18c2 041b 24c2
000001f0: f3aa b5c1 c3c4 4ac2 0000 0000 0000 0000
00000200: 0000 0000 14e1 9d40 fe79 0842 d688 1c42
00000210: f8a4 0142 a667 dd41 ea75 bb41 26ef 9641
00000220: 13b0 6041 6efa 2241 5ad7 f040 224d a23f
00000230: 3e81 49c1 962b 9840 24e9 2642 ec58 ae42
00000240: f3c0 ca42 57a8 a342 7c5c 8742 42b7 8a42
00000250: ab1f 7b42 cce0 4242 cc49 3f42 251b 4642
00000260: bef5 7442 6e23 9e42 9195 aa42 bb41 8d42
00000270: 280a 6d42 c35a 6142 2c84 4142 4859 0842
00000280: 0a0c ab41 46b5 2541 daee 0b41 4e37 e340
00000290: 2285 4240 a6cb 533f 4fac 503f 84f9 553f
000002a0: f6e3 833f 3559 6c3f ea01 d73e 6067 b83e
000002b0: bc04 ad3e 381c 1542 a836 7042 ae89 8342
000002c0: 50b0 6f42 22d7 2542 54ed 2442 ba9a 1742
000002d0: a668 1142 bc36 0342 8201 0942 7622 3e42
000002e0: d07f a842 889e df42 b8bc d142 a458 ab42
000002f0: 3621 c342 5dd3 d342 3b1e e242 e6a1 fc42
00000300: bbd9 b942 50d0 a042 5828 b042 7d57 9e42
00000310: 6c25 8042 edeb 7e42 d638 8d42 c205 9342
00000320: f2c1 9242 e861 db42 dd1a fe42 f3ed 0843
00000330: 26a3 1c43 daa1 2943 1809 2643 fc30 2243
00000340: 477a 2f43 6674 2a43 effa 2043 4805 0f43
00000350: 20cc e942 9445 8442 1e7b 1342 6dab 9241
00000360: 1bff c140 5831 6040 007f d4bb 5c5b 0cc1
00000370: eb24 3ec1 fe97 17c1 4870 a9c0 9cb8 9ebf
00000380: 1bfa e0bf b60f 92bf afb9 1fc0 5ca0 01c1
00000390: f87c e4bf f190 8d40 8b9c 2342 f2ba cb42
000003a0: 69c8 ea42 4a33 c142 5f89 7942 3084 5842
000003b0: dea0 9442 0ad8 ac42 a633 9b42 2978 3f42
000003c0: e4f8 a141 d619 eb41 e963 e741 38ba d641
000003d0: d712 e841 90fe d341 d4d8 d641 b3d5 ec41
000003e0: 94d2 0642 9c69 2c42 a61c b942 62c8 eb42
000003f0: 0000 0000 0000 0000 0000 0000 b827 eabf
-559.12585 -559.12585 -559.12585 -553.11664 -506.0087 -490.0919 -495.44296 -505.0958
-515.1422 -520.145 -523.7613 -528.80695 -538.56244 -537.23706 -507.19556 -428.46442
-370.1351 -350.88312 -376.96106 -436.8178 -465.49948 -452.71527 -438.44366 -431.46274
-425.93396 -425.04712 -417.01907 -396.44293 -386.8133 -400.10513 -421.07318 -442.4842
-467.06744 -506.29337 -534.8329 -547.77826 -550.47156 -552.1136 -556.00073 -557.6624
-557.8464 -557.9778 -557.6172 -557.89734 -558.5945 -558.69385 -558.66815 -365.40485
-87.869064 6.798916 -12.856382 -74.827065 -73.676765 -69.59352 -64.86817 -71.21357
-84.404655 -92.28989 -79.846115 -29.188902 -15.186071 -42.042664 -47.626057 -85.57478
-137.46014 -182.38202 -141.29895 -28.254908 0.095993996 -42.98829 -68.886665 -75.21533
-105.34255 -146.74246 -187.16035 -170.94356 -89.284256 -57.185295 -63.77034 -91.89742
-130.91058 -202.3628 -267.14368 -313.20682 -346.4359 -354.56125 -340.01456 -325.08902
-305.21817 -280.50226 -264.7233 -256.3809 -247.83356 -241.48315 -238.45674 -240.13118
-248.87366 -259.03268 -267.37918 -282.57986 -317.10248 -361.95068 -411.14288 -476.69385
-509.32214 -461.83954 -444.70862 -464.70068 -500.33176 -500.02924 -381.50714 -108.70155
7.567044 42.15004 32.04585 22.33055 10.528131 6.965213 -1.8504816 -16.655777
-30.830591 -37.09256 -38.055733 -41.026382 -22.708471 -50.69215 0.0 0.0
0.0 4.9337254 34.119133 39.13363 32.411102 27.67561 23.432575 18.866772
14.042987 10.18614 7.526288 1.2679789 -12.594053 4.7553205 41.727676 87.173676
101.376854 81.82879 67.68063 69.357925 62.780926 48.71953 47.822067 49.52651
61.239983 79.0692 85.29212 70.62838 59.25992 56.338634 48.379074 34.08719
21.380878 10.356756 8.745813 7.100501 3.0393758 0.8273262 0.8151292 0.83583856
1.0303943 0.9232362 0.41993648 0.3601637 0.33792675 37.277557 60.053375 65.768906
59.92218 41.46009 41.231766 37.9011 36.352196 32.80345 34.251472 47.533653
84.24963 111.80963 104.86859 85.67313 97.564865 105.91282 113.059044 126.31621
92.925255 80.40686 88.0788 79.170876 64.07309 63.730396 70.61101 73.511246
73.3788 109.69122 127.05247 136.92949 156.6373 169.63223 166.03552 162.19135
175.47765 170.45468 160.98021 143.02063 116.89868 66.135895 36.87023 18.333704
6.062391 3.5030117 -0.006484866 -8.772305 -11.884013 -9.474607 -5.294956 -1.2400088
-1.7576326 -1.1411045 -2.4957082 -8.10165 -1.7850637 4.423943 40.902874 101.86513
117.391426 96.600174 62.38415 54.12909 74.31419 86.42195 77.600876 47.867344
20.246529 29.387615 28.923784 26.840927 29.0092 26.499298 26.855873 29.604345
33.705643 43.103134 92.555954 117.89137 0.0 0.0 0.0 -1.8293371
