notebooks/data/processed/mfccs/24a91f1e-ae77-4d2e-877f-b9195bf38e3b.npy (npy, 20288 bytes, 1 tensors)

array f4 [40, 126]
00000000: ae33 1ac4 ae33 1ac4 ae33 1ac4 ae33 1ac4
00000010: ae33 1ac4 ae33 1ac4 7a82 08c4 5ccf ddc3
00000020: 618f d4c3 f7d6 dcc3 88c4 e3c3 9e1d f4c3
00000030: b544 ffc3 3149 f2c3 a03c 74c3 8824 2cc3
00000040: 53ff 0bc3 2b43 98c1 06da 1242 f195 0f42
00000050: 3e05 2442 0e97 4a42 bb2a 6442 500b 5442
00000060: 8b60 b541 d5e3 5a41 ce33 c740 ae42 e5c0
00000070: 8b15 8ec2 be71 47c3 17af ebc3 df6b 10c4
00000080: bfe3 3ac3 3a0d 3ec1 778a 9d41 672c f1c1
00000090: 0aa2 cec2 7340 47c3 1d38 8bc3 d12b acc3
000000a0: 2dcf c4c3 7d50 f2c3 4cf7 13c4 cdea 19c4
000000b0: 22f5 19c4 8741 b7c3 810e 29c3 9367 12c3
000000c0: 280e 6fc3 2702 d6c3 ed3d fec3 4076 0fc4
000000d0: 0972 13c4 e2e8 17c4 da0e 1ac4 0c33 1ac4
000000e0: 2332 1ac4 712a 1ac4 ae33 1ac4 ae33 1ac4
000000f0: ae33 1ac4 ae33 1ac4 1d30 1ac4 13f6 19c4
00000100: b780 18c4 2f5e 17c4 1793 16c4 ea75 13c4
00000110: 1e4f 0dc4 f763 0ac4 9cdf 0ac4 0788 0cc4
00000120: a37a 0dc4 942a 0ec4 18fa 0dc4 2df0 0cc4
00000130: 1ef0 0cc4 d5d8 0dc4 5b7e 0fc4 09a2 10c4
00000140: e6c9 11c4 ab81 13c4 3721 14c4 91bf 15c4
00000150: 0103 19c4 f428 1ac4 ae33 1ac4 71f0 18c4
00000160: 8e0c 14c4 b6c3 11c4 bdfd 12c4 6125 18c4
00000170: 8219 1ac4 ae33 1ac4 ae33 1ac4 ae33 1ac4
00000180: ae33 1ac4 3d82 bdc3 4934 6bc2 9ba7 dc41
00000190: 5a14 2441 9d59 85c2 138d e5c2 4ad1 03c3
000001a0: 1922 b8c2 f632 5bc2 8896 8cc2 028c 0dc3
000001b0: 2f4f 72c3 82aa a9c3 866a c9c3 f4c9 ebc3
000001c0: bd9e 02c4 05d6 08c4 f825 7ac3 0fd6 c4c2
000001d0: 6442 5bc2 bd33 9cc2 a8be d7c2 1896 ffc2
000001e0: 8d50 2bc3 196c 55c3 9af7 54c3 c9b5 5ec3
000001f0: b4ae 98c3 b1aa c7c3 0000 0000 0000 0000
00000200: 0000 0000 0000 0000 0000 0000 0000 0000
00000210: 76ca 0242 f0a6 1742 c545 3542 2235 9242
00000220: 38bc ab42 d3eb 9442 dd57 7542 e231 4c42
00000230: 24cd 9d42 d71c b942 fe6a af42 69ba 6d42
00000240: 9f33 7d42 0496 9442 d431 8942 b21a 9e42
00000250: 9617 9142 2464 9e42 1e14 e442 210b eb42
00000260: ca98 ec42 e680 0a43 ea9d 2a43 5e3a 4243
00000270: e8dc 1c43 685c 1042 744b 9842 40b9 c242
00000280: 74dd df42 182b 0643 df0a 1143 5a72 1e43
00000290: 53f7 1e43 c4b8 1843 d600 2143 27ae fa42
000002a0: 72bb f141 9f1f ce3f dbe4 b03f 4a9d 8842
000002b0: 5d07 d442 d7de df42 2c01 c642 6815 273d
000002c0: 4aa0 4fc0 1f7b 0941 7494 8241 9285 4041
000002d0: 203a 4f3f 9471 653c 4eed 0b3d f905 513e
000002e0: 0000 0000 0000 0000 0000 0000 0000 0000
000002f0: d152 973d cc64 67bf 2253 f4c0 6f0f 5ec1
00000300: b293 94c1 a92a 03c2 97f1 6dc2 bab6 8fc2
00000310: 9deb 8ac2 9b4e 75c2 ddc0 6dc2 fb7c 68c2
00000320: d81c 65c2 6021 6dc2 4ce6 70c2 0252 65c2
00000330: 7d18 4dc2 e887 35c2 f77a 24c2 fab9 08c2
00000340: 96c7 e3c1 bca7 a7c1 4226 cfc0 601c 6cbe
00000350: 0000 0000 ca43 cd40 98ed f941 c0b9 f341
00000360: dea7 4141 127b f2c0 82ce cebe 0000 0000
00000370: 0000 0000 0000 0000 0000 0000 9291 5242
00000380: 587d 8742 d879 9542 196d ab42 0539 a942
00000390: 1e96 7b42 24b4 4942 1106 c542 6e96 d842
000003a0: a6ac b842 aad6 7942 0aad d141 c5a3 3b41
000003b0: 5294 5c42 81ae e742 1248 f242 48eb b442
000003c0: d242 8142 bee0 9342 5eea ad42 3156 cc42
000003d0: b8a6 e442 081f df42 c27c c842 0127 b742
000003e0: d9f3 da42 ceaa 0943 a86c 1c43 1aa9 0943
000003f0: 0000 0000 0000 0000 0000 0000 0000 0000
-616.8075 -616.8075 -616.8075 -616.8075 -616.8075 -616.8075 -546.0387 -443.62
-425.12015 -441.6794 -455.5354 -488.23138 -510.53677 -484.5718 -244.23682 -172.1427
-139.99736 -19.032797 36.712914 35.896427 41.00512 50.647514 57.04173 53.011047
22.67214 13.680623 6.225074 -7.1643896 -71.042076 -199.4443 -471.3679 -577.6855
-186.88963 -11.878229 19.69261 -30.14668 -103.31648 -199.25175 -278.4384 -344.34232
-393.61856 -484.6288 -591.864 -615.66876 -615.8302 -366.51193 -169.05666 -146.40459
-239.0553 -428.0168 -508.4838 -573.84766 -589.7818 -607.6388 -616.23206 -616.7976
-616.7834 -616.66315 -616.8075 -616.8075 -616.8075 -616.8075 -616.7518 -615.8449
-610.01117 -605.4716 -602.2983 -589.8424 -565.2362 -553.56195 -555.4939 -562.1254
-565.9162 -568.6653 -567.9077 -563.75275 -563.75183 -567.388 -573.9743 -578.5318
-583.15466 -590.02606 -592.519 -598.9932 -612.04694 -616.6399 -616.8075 -611.7569
-592.19617 -583.058 -587.96466 -608.58405 -616.39856 -616.8075 -616.8075 -616.8075
-616.8075 -379.0175 -58.80106 27.581839 10.254969 -66.675026 -114.775536 -131.81754
-92.0666 -54.799767 -70.29401 -141.5469 -242.30931 -339.3321 -402.8322 -471.57776
-522.4803 -547.34406 -250.14832 -98.41808 -54.814835 -78.10105 -107.872375 -127.79315
-171.31465 -213.42226 -212.9672 -222.7101 -305.36487 -399.33353 0.0 0.0
0.0 0.0 0.0 0.0 32.697716 37.913025 45.318134 73.103775
85.867615 74.460594 61.335804 51.048714 78.900665 92.55633 87.70897 59.43204
63.30041 74.293 68.59732 79.05214 72.54607 79.19559 114.03929 117.521736
118.298416 138.50351 170.61685 194.228 156.86292 36.09024 76.14737 97.36182
111.932526 134.16833 145.04247 158.44669 158.96611 152.72174 161.00327 125.34014
30.216526 1.61034 1.3819841 68.307205 106.01438 111.935234 99.00229 0.0407919
-3.2441583 8.592559 16.322487 12.03261 0.80948067 0.01400413 0.03416186 0.20412435
0.0 0.0 0.0 0.0 0.07388843 -0.9038818 -7.635148 -13.878768
-18.572117 -32.79166 -59.485928 -71.85689 -69.46018 -61.326763 -59.438343 -58.12205
-57.278168 -59.282593 -60.2249 -57.330086 -51.273914 -45.38272 -41.120083 -34.181618
-28.472454 -20.956902 -6.47342 -0.23057699 0.0 6.414525 31.241013 30.465698
12.103483 -7.577523 -0.40391928 0.0 0.0 0.0 0.0 52.64216
67.74481 74.737976 85.71308 84.61137 62.8966 50.42592 98.51185 108.29381
92.337204 62.459633 26.209492 11.727483 55.144844 115.84083 121.14076 90.45953
64.63051 73.93895 86.95775 102.16834 114.32562 111.56061 100.24367 91.57618
109.476265 137.6672 156.42444 137.66055 0.0 0.0 0.0 0.0
