notebooks/data/processed/mfccs/2e77e6bc-941c-4077-b527-c2131b3e3ffe.npy (npy, 20288 bytes, 1 tensors)

array f4 [40, 126]
0	0xc488a996	-1093.2996
1	0xc484a6c1	-1061.211
2	0xc47ff7ea	-1023.87366
3	0xc4802133	-1025.0375
4	0xc480d528	-1030.6611
5	0xc4858217	-1068.0653
6	0xc45808be	-864.1366
7	0xc43fd78c	-767.3679
8	0xc43b87c4	-750.12134
9	0xc43bcf88	-751.2427
10	0xc43ce1e5	-755.5296
11	0xc4403f35	-768.9876
12	0xc443f805	-783.8753
13	0xc44111a3	-772.2756
14	0xc43ed000	-763.25
15	0xc444d484	-787.32056
16	0xc446d189	-795.274
17	0xc44605a5	-792.0882
18	0xc44f2c98	-828.6968
19	0xc45806d1	-864.1065
20	0xc459ae17	-870.72015
21	0xc42e53a6	-697.307
22	0xc3eb61a2	-470.76276
23	0xc3cc884a	-409.06476
24	0xc3e2fa3c	-453.95496
25	0xc414bf71	-594.9913
26	0xc44a9e88	-810.47705
27	0xc452fc36	-843.9408
28	0xc451a57f	-838.5859
29	0xc4516d29	-837.7056
30	0xc452835e	-842.0526
31	0xc454cf95	-851.24347
32	0xc457d619	-863.3453
33	0xc45a3871	-872.8819
34	0xc45a7083	-873.758
35	0xc45e1f3d	-888.4881
36	0xc4613b7e	-900.92957
37	0xc45e704d	-889.7547
38	0xc45a8a7f	-874.164
39	0xc459b12f	-870.7685
40	0xc45e6a74	-889.6633
41	0xc465046a	-916.069
42	0xc4665eb7	-921.4799
43	0xc4628a53	-906.1613
44	0xc462e8e0	-907.6387
45	0xc4639916	-910.39197
46	0xc461a944	-902.6448
47	0xc46456f4	-913.35864
48	0xc45f831e	-894.0487
49	0xc45e7ca6	-889.94763
50	0xc4622ef6	-904.73376
51	0xc4662bc5	-920.6839
52	0xc467a7d9	-926.6226
53	0xc464510e	-913.2665
54	0xc461bd4c	-902.95776
55	0xc46119e7	-900.4047
56	0xc45e0641	-888.0977
57	0xc4609dd3	-898.466
58	0xc468fd3f	-931.957
59	0xc463983a	-910.37854
60	0xc45e32df	-888.79486
61	0xc45df803	-887.8752
62	0xc45937cb	-868.87177
63	0xc4565f38	-857.4878
64	0xc4562490	-856.5713
65	0xc45ab443	-874.8166
66	0xc4644953	-913.1457
67	0xc46c9ac7	-946.4184
68	0xc4698fef	-934.24896
69	0xc4616d85	-901.71124
70	0xc4590aa0	-868.166
71	0xc4560417	-856.0639
72	0xc459840b	-870.0632
73	0xc45f3d3f	-892.957
74	0xc45d9bdf	-886.4355
75	0xc4570ae8	-860.1704
76	0xc454e115	-851.5169
77	0xc45952a1	-869.2911
78	0xc4622439	-904.566
79	0xc467e026	-927.5023
80	0xc46b356c	-940.8347
81	0xc46c42ee	-945.0458
82	0xc46daa84	-950.6643
83	0xc467fdd5	-927.9661
84	0xc469c748	-935.1138
85	0xc46f05fd	-956.09357
86	0xc47280d3	-970.0129
87	0xc476347f	-984.82025
88	0xc46c5942	-945.39465
89	0xc4631d2b	-908.45575
90	0xc4607527	-897.8305
91	0xc466ca4a	-923.16077
92	0xc4668e60	-922.2246
93	0xc4638e17	-910.22015
94	0xc45f7ec8	-893.98096
95	0xc45c3811	-880.87604
96	0xc45e0cb7	-888.19867
97	0xc463fe07	-911.9692
98	0xc467d509	-927.3287
99	0xc46489c7	-914.1528
100	0xc4613eb8	-900.98
101	0xc469d02a	-935.25256
102	0xc46e0ecb	-952.23114
103	0xc465622e	-917.53406
104	0xc45e7801	-889.87506
105	0xc4625d62	-905.4591
106	0xc467eae2	-927.67004
107	0xc4680550	-928.083
108	0xc46ab64c	-938.8484
109	0xc46cb75c	-946.865
110	0xc46c1862	-944.381
111	0xc467f3cb	-927.80927
112	0xc469a695	-934.60284
113	0xc47132ef	-964.79584
114	0xc473894e	-974.1454
115	0xc468ad7e	-930.7108
116	0xc46a2672	-936.6007
117	0xc46e33bf	-952.80853
118	0xc463fe5c	-911.97437
119	0xc46179f1	-901.90533
120	0xc467b5e5	-926.8421
121	0xc46df77b	-951.8669
122	0xc4651071	-916.2569
123	0xc4616b9c	-901.6814
124	0xc46577e1	-917.8731
125	0xc4725270	-969.2881
126	0x00000000	0.0
127	0x42220e0a	40.51371
128	0x4291066c	72.51254
129	0x4291a4aa	72.82161
130	0x4287b97a	67.86226
131	0x42051530	33.27069
132	0x42ee093d	119.01804
133	0x42e822ca	116.06795
134	0x42d63e96	107.12224
135	0x42a83a09	84.11335
136	0x428a7c62	69.242935
137	0x428609f0	67.01941
138	0x42919841	72.79737
139	0x42aa73f6	85.22649
140	0x42bee984	95.456085
141	0x42a97b72	84.741104
142	0x4287b901	67.861336
143	0x427fb7a4	63.929337
144	0x426929b4	58.290726
145	0x4276bf08	61.686554
146	0x42605a3c	56.08812
147	0xc1a2fa18	-20.372116
148	0xc22ccb5e	-43.1986
149	0xc1a56d73	-20.678442
150	0x40a9fd66	5.3121824
151	0x418d1bd0	17.63858
152	0x426c6506	59.098656
153	0x4293979e	73.79613
154	0x42a4b4ea	82.35335
155	0x42ac6a40	86.20752
156	0x42a3d3df	81.91381
157	0x4294872c	74.26401
158	0x4287f214	67.97281
159	0x4274c6ae	61.194023
160	0x4268f7ce	58.241997
161	0x42526460	52.598022
162	0x4251a074	52.406693
163	0x42680e6a	58.014076
164	0x4271735a	60.362648
165	0x4277730a	61.862343
166	0x4261589c	56.336533
167	0x424cfcfe	51.247063
168	0x4255a494	53.41072
169	0x426350ad	56.828785
170	0x426622f7	57.534145
171	0x4260bb60	56.182983
172	0x42561f09	53.530308
173	0x424f47e4	51.820206
174	0x425d9194	55.392166
175	0x42686422	58.097786
176	0x427fef65	63.983784
177	0x42690c8a	58.262245
178	0x4247ec49	49.980747
179	0x4269a0b4	58.406937
180	0x4268eff1	58.234318
181	0x425f27c6	55.78884
182	0x4251791a	52.368263
183	0x426d31a2	59.29847
184	0x42546b0e	53.104546
185	0x426dcb16	59.448326
186	0x42769694	61.64705
187	0x42692259	58.283543
188	0x4255bb4c	53.432907
189	0x4277ffda	61.999855
190	0x4286d830	67.42224
191	0x4273729e	60.86193
192	0x42546368	53.097076
193	0x423a8f3e	46.639885
194	0x4243451e	48.817497
195	0x426e1a40	59.525635
196	0x427aa029	62.656406
197	0x42786d01	62.10645
198	0x42745b1d	61.088978
199	0x42738bda	60.886574
200	0x421ae206	38.720726
201	0x41d0d61c	26.104546
202	0x41c4b7c9	24.589739
203	0x41cd1c0e	25.638699
204	0x4220ca4b	40.19755
205	0x424ab624	50.67787
206	0x423acfc6	46.702904
207	0x42308840	44.133057
208	0x42503866	52.055077
209	0x4257e74c	53.975876
210	0x4251c9a8	52.44693
211	0x422f1bc8	43.77713
212	0x41e39edd	28.45257
213	0x42041e07	33.029324
214	0x426ef6b0	59.740906
215	0x427e0a5e	63.510124
216	0x427d78fe	63.368156
217	0x427c3b4b	63.057903
218	0x42508d13	52.137768
219	0x42503f9c	52.06212
220	0x427e1107	63.51663
221	0x4280642a	64.19563
222	0x42819221	64.78541
223	0x4277132e	61.76873
224	0x425ad4e1	54.70789
225	0x4250ea77	52.22897
226	0x4248ec72	50.230904
227	0x4237a4f8	45.911102
228	0x425befef	54.98431
229	0x427205e2	60.505745
230	0x4271482d	60.320484
231	0x4261bd9b	56.43516
232	0x4225926c	41.39299
233	0x421a4a84	38.57277
234	0x422a179e	42.523064
235	0x424365e3	48.8495
236	0x4250296c	52.04045
237	0x42620c65	56.512104
238	0x424cbf0b	51.186565
239	0x4233cc22	44.94935
240	0x421f1808	39.773468
241	0x424829b0	50.04071
242	0x422918c4	42.274185
243	0x423ba182	46.907722
244	0x4282072c	65.01401
245	0x42825738	65.17035
246	0x426812ed	58.018482
247	0x4230ae82	44.170418
248	0x4256d46b	53.70744
249	0x427f9463	63.89491
250	0x426a7fa6	58.624657
251	0x423f9e49	47.904575
252	0x00000000	0.0
253	0x41e04d65	28.03779
254	0x42000a29	32.009922
255	0x4204dac0	33.213623
