notebooks/data/processed/mfccs/366c2bfd-b91a-4d09-be09-c2fef99091eb.npy (npy, 20288 bytes, 1 tensors)

array f4 [40, 126]
00000000: 992c 15c4 992c 15c4 992c 15c4 992c 15c4
00000010: 992c 15c4 992c 15c4 9471 10c4 ae60 01c4
00000020: eae6 f2c3 fe9a f1c3 5c8a eac3 24be e4c3
00000030: 3054 e8c3 d7f5 f1c3 631a f8c3 ee66 fac3
00000040: 600c fcc3 efe9 fec3 45ca f2c3 e9b3 e0c3
00000050: d1dc dfc3 90d3 f1c3 3a2e 02c4 dcbc fec3
00000060: 9276 f0c3 0b19 e8c3 a730 e1c3 e725 ddc3
00000070: 5186 e1c3 44b4 f0c3 04ab fdc3 d82d 03c4
00000080: 6e13 02c4 1bb1 e9c3 dac9 ddc3 2007 e1c3
00000090: 2c65 e2c3 8619 e1c3 b326 41c3 008a a2c1
000000a0: 441a 0d42 a97b c541 5db8 3a41 f679 d840
000000b0: 55af 09c1 898e 45c1 46a5 3f41 c3b9 6741
000000c0: 83b0 61c2 987f 30c3 4106 21c3 8f8f 49c2
000000d0: cb0c 33c2 a2aa e1c2 9a51 02c3 ef42 fac2
000000e0: c3f9 f2c2 da01 98c2 cfb4 24c2 bd0a 97c2
000000f0: 6998 3dc3 931d 88c3 ed9d 3fc3 881c 45c1
00000100: 7cf1 7b41 e486 49c2 cf60 d0c2 817c fac2
00000110: 3ef3 1bc3 4c1f 44c3 5ba5 81c3 ccdd b1c3
00000120: 87ab e1c3 8f33 f1c3 195b fcc3 6fd9 04c4
00000130: d40a fcc3 9bbb e9c3 ee32 e8c3 1294 f9c3
00000140: 8367 05c4 2d93 05c4 5377 03c4 09f4 04c4
00000150: f89c 09c4 6be8 03c4 126b f2c3 c072 f2c3
00000160: e8b8 01c4 c673 08c4 a925 ffc3 5fde ecc3
00000170: 1390 e7c3 c06b eac3 3069 f9c3 0200 04c4
00000180: 47de 07c4 ad25 06c4 bdbe 00c4 4927 f7c3
00000190: 67c0 dac3 4e83 cbc3 e4f9 c6c3 7af5 edc2
000001a0: 16bd f83c bcf0 ed40 af5c 1bc2 457d 4ec2
000001b0: e36c 28c2 17f5 e3c1 f38e 86bf f0f1 0740
000001c0: 48fc 74bf b7c9 56c2 e8e3 42c3 acde bac3
000001d0: ddae 97c3 65f6 bbc2 0e1d 13c2 b5ce 87c2
000001e0: 6824 e7c2 8ee2 03c3 cc7b f2c2 126e d8c2
000001f0: 5388 cbc2 7eb6 13c3 0000 0000 0000 0000
00000200: 0000 0000 0000 0000 0000 0000 0000 0000
00000210: 103c ab41 327d aa42 9283 cb42 c105 bd42
00000220: dfa3 b542 fe75 ce42 f7ab d842 b87a b942
00000230: e27d a042 b08d 9b42 dce2 9542 fa10 8c42
00000240: b067 a942 1938 b942 f6be b742 804f a842
00000250: 001a 8a42 be70 8d42 2e13 c242 d4ea e942
00000260: 05dd 0243 e963 0043 4644 e342 5678 b442
00000270: 42fc 8742 c894 6342 0015 7742 f024 af42
00000280: e023 c142 9c21 ca42 092c d042 a6b5 ba42
00000290: f692 2142 4eca 1042 1f70 ff41 aeff f041
000002a0: ce1b 1642 cc6d 2942 7eb1 1742 8715 e841
000002b0: 4aef 0942 b1cc 5042 25df 9c42 e0f5 ca42
000002c0: 970b c442 3906 8442 10a2 4242 c227 1042
000002d0: 4582 b041 687a 6841 2533 8341 d041 3142
000002e0: b21f 9042 9488 b642 77fa d142 6359 e642
000002f0: e93d c842 8975 9642 38d7 7f42 daeb 4242
00000300: ecff db41 fe4b d841 0912 0842 6d22 4e42
00000310: deaa 3142 72e6 1442 a193 a242 b852 0543
00000320: ce06 e142 1069 9742 9dce b542 ea50 e442
00000330: ea64 c242 fcc4 7242 d83d 1f42 f4f7 5a42
00000340: 2625 8a42 e987 7e42 2f30 2342 a717 9842
00000350: 2b8d 0043 5253 0143 a5e5 ad42 23c4 5242
00000360: bcda c642 d0bb 0943 81e9 0d43 40b8 ff42
00000370: 1001 cc42 fcc6 9e42 866b 8442 c787 9342
00000380: 7400 c042 7f03 ee42 5013 1143 b1f1 0d43
00000390: 0c3a d242 c29b 9642 e876 3c42 060b da41
000003a0: cfd9 6741 cb00 7f41 3409 8e41 6e0f 7841
000003b0: 28b5 8541 0427 ae41 c5f3 3e42 d2be 9b42
000003c0: 9ac1 c642 270e f842 c6f9 d542 e251 8342
000003d0: 8b39 4442 dbd2 2e42 f88a 1b42 802d 7a41
000003e0: 8874 c141 904a 9541 91aa e141 b692 2b42
000003f0: 0000 0000 0000 0000 0000 0000 0000 0000
-596.69684 -596.69684 -596.69684 -596.69684 -596.69684 -596.69684 -577.77466 -517.5106
-485.80402 -483.21088 -469.08093 -457.48547 -464.6577 -483.92062 -496.20615 -500.80414
-504.09668 -509.8276 -485.58023 -449.40555 -447.72513 -483.65283 -520.7223 -509.47546
-480.92633 -464.19565 -450.3801 -442.2961 -451.04935 -481.40833 -507.33606 -524.7163
-520.3036 -467.38364 -443.57697 -450.05566 -452.7904 -450.1994 -193.15117 -20.317383
35.27565 24.68538 11.670011 6.764888 -8.605306 -12.347299 11.97785 14.482852
-56.422375 -176.49841 -161.02443 -50.390194 -44.762493 -112.83327 -130.31876 -125.13073
-121.487816 -76.00362 -41.17657 -75.52097 -189.59535 -272.23105 -191.6169 -12.319466
15.746456 -50.38173 -104.18908 -125.24317 -155.95016 -196.12225 -259.29184 -355.7328
-451.34006 -482.4028 -504.7117 -531.3974 -504.0846 -467.46567 -464.3979 -499.1568
-533.6174 -534.2996 -525.86444 -531.81305 -550.45264 -527.63153 -484.8365 -484.89648
-518.88916 -545.80896 -510.29422 -473.73727 -463.12558 -468.8418 -498.82178 -528.0001
-543.4731 -536.5887 -514.9803 -494.30692 -437.50314 -407.02582 -397.95227 -118.97945
0.0303636 7.4356365 -38.84051 -51.622334 -42.106335 -28.494673 -1.0512375 2.1241417
-0.9569745 -53.696987 -194.89026 -373.73962 -303.36612 -93.98124 -36.778374 -67.903725
-115.571106 -131.88498 -121.24179 -108.21498 -101.76626 -147.71286 0.0 0.0
0.0 0.0 0.0 0.0 21.404327 85.24452 101.75697 94.51124
90.82006 103.23045 108.33587 92.739685 80.245865 77.77673 74.943085 70.03316
84.702515 92.609566 91.87297 84.15527 69.05078 70.7202 97.03746 116.95865
130.86336 128.39027 113.63335 90.23503 67.99269 56.895294 61.770508 87.57214
96.57007 101.06564 104.086006 93.35478 40.393517 36.197563 31.929747 30.124844
37.527153 42.357224 37.923332 29.010511 34.48368 52.199894 78.43583 101.480225
98.02264 66.01215 48.658264 36.038826 22.063608 14.529884 16.399973 44.31427
72.061905 91.266754 104.98919 115.17458 100.12092 75.22956 63.960175 48.730324
27.499962 27.037106 34.017612 51.53362 44.416862 37.225044 81.28834 133.32312
112.51329 75.7052 90.90354 114.158035 97.1971 60.692368 39.810394 54.74214
69.072556 63.632725 40.797054 76.046196 128.55144 129.32547 86.948524 52.69154
99.427216 137.73364 141.91212 127.85986 102.002075 79.38864 66.21001 73.76519
96.000885 119.00683 145.07544 141.9441 105.11337 75.304214 47.11612 27.255383
14.490676 15.937694 17.754494 15.503767 16.713455 21.76905 47.738056 77.872696
99.37813 124.02764 106.98784 65.65993 49.056194 43.705914 38.88571 15.636108
24.1819 18.661407 28.208284 42.893272 0.0 0.0 0.0 0.0
