notebooks/data/processed/mfccs/4ab61522-69e1-40fd-b292-5049e2630227.npy (npy, 20288 bytes, 1 tensors)

array f4 [40, 126]
0	0xc40b3bc1	-556.93365
1	0xc40b3bc1	-556.93365
2	0xc40b3bc1	-556.93365
3	0xc40b3bc1	-556.93365
4	0xc40b3bc1	-556.93365
5	0xc40b3bc1	-556.93365
6	0xc40b3bc1	-556.93365
7	0xc40b3bc1	-556.93365
8	0xc40b3bc1	-556.93365
9	0xc40b3bc1	-556.93365
10	0xc40b3bc1	-556.93365
11	0xc40b3bc1	-556.93365
12	0xc40b3bc1	-556.93365
13	0xc40b3bc1	-556.93365
14	0xc40b3bc1	-556.93365
15	0xc40b3bc1	-556.93365
16	0xc40b3bc1	-556.93365
17	0xc40b3bc1	-556.93365
18	0xc3d08fe9	-417.1243
19	0xc39dc955	-315.5729
20	0xc32a0c0b	-170.04704
21	0xc30b2467	-139.1422
22	0xc34ff42e	-207.95383
23	0xc393a4e2	-295.28815
24	0xc392200f	-292.25046
25	0xc3a01bd0	-320.2173
26	0xc3b7b3d5	-367.40494
27	0xc3cb7fbd	-406.99796
28	0xc3d9399f	-434.45016
29	0xc3e1e9e4	-451.82727
30	0xc3e329fe	-454.32806
31	0xc3e21cb0	-452.22412
32	0xc3e80496	-464.03583
33	0xc3f163c4	-482.77942
34	0xc3f3b56f	-487.41745
35	0xc3f5a012	-491.25055
36	0xc3f820dc	-496.2567
37	0xc3c4009c	-392.00476
38	0xc2e7f454	-115.9772
39	0x40c0cb45	6.024813
40	0x42079b8d	33.901905
41	0x4179af94	15.605366
42	0xc17d5664	-15.833591
43	0xc286cd6c	-67.401215
44	0xc317ef14	-151.9339
45	0xc366bb97	-230.73277
46	0xc392b5f3	-293.42148
47	0xc394e337	-297.77512
48	0xc3479aaf	-199.60423
49	0xc33b3ccd	-187.2375
50	0xc381713e	-258.8847
51	0xc3b17af2	-354.9605
52	0xc39ef2f9	-317.89822
53	0xc2da1bc1	-109.05421
54	0xc2202888	-40.03958
55	0xc2949f76	-74.31145
56	0xc3456111	-197.37917
57	0xc3a14965	-322.5734
58	0xc3d02d8f	-416.35593
59	0xc3da5d1e	-436.72748
60	0xc3d4c940	-425.57227
61	0xc3d7bcf9	-431.47635
62	0xc3e1c516	-451.53973
63	0xc3e95366	-466.65155
64	0xc3f260a4	-484.755
65	0xc3efa1e9	-479.26492
66	0xc3eef9e2	-477.9522
67	0xc3c1a60d	-387.29727
68	0xc39e6431	-316.78275
69	0xc39a473c	-308.55652
70	0xc3aabec3	-341.49033
71	0xc3bef653	-381.9244
72	0xc3d9411a	-434.5086
73	0xc3fab5db	-501.42075
74	0xc406d494	-539.32153
75	0xc40a5951	-553.39557
76	0xc40b3255	-556.78644
77	0xc40b3bc1	-556.93365
78	0xc40b3bc1	-556.93365
79	0xc40b3852	-556.88
80	0xc40b3bc1	-556.93365
81	0xc40b3bc1	-556.93365
82	0xc40b3b4f	-556.9267
83	0xc40b3bc1	-556.93365
84	0xc40b3bc1	-556.93365
85	0xc40b3bc1	-556.93365
86	0xc40b3bc1	-556.93365
87	0xc40b3bc1	-556.93365
88	0xc40b3bc1	-556.93365
89	0xc40b3bc1	-556.93365
90	0xc40b3bc1	-556.93365
91	0xc40b3bc1	-556.93365
92	0xc40b3bc1	-556.93365
93	0xc40b3bc1	-556.93365
94	0xc40b3bc1	-556.93365
95	0xc40b3bc1	-556.93365
96	0xc40b3bc1	-556.93365
97	0xc40b3bc1	-556.93365
98	0xc40b3bc1	-556.93365
99	0xc40b3bc1	-556.93365
100	0xc40b3bc1	-556.93365
101	0xc40b3bc1	-556.93365
102	0xc40b3bc1	-556.93365
103	0xc40b3bc1	-556.93365
104	0xc40b3bc1	-556.93365
105	0xc40b3bc1	-556.93365
106	0xc40b3bc1	-556.93365
107	0xc40b3bc1	-556.93365
108	0xc40b3bc1	-556.93365
109	0xc40b3bc1	-556.93365
110	0xc40b362c	-556.84644
111	0xc40b3bc1	-556.93365
112	0xc40b3bc1	-556.93365
113	0xc40b3bc1	-556.93365
114	0xc40b3bc1	-556.93365
115	0xc40b3bc1	-556.93365
116	0xc40b3bc1	-556.93365
117	0xc40b3bc1	-556.93365
118	0xc40b3bc1	-556.93365
119	0xc40b3bc1	-556.93365
120	0xc40b3bc1	-556.93365
121	0xc40b3bc1	-556.93365
122	0xc40b3bc1	-556.93365
123	0xc409031f	-548.04877
124	0xc40353dd	-525.31036
125	0xc4029478	-522.3198
126	0x00000000	0.0
127	0x00000000	0.0
128	0x00000000	0.0
129	0x00000000	0.0
130	0x00000000	0.0
131	0x00000000	0.0
132	0x00000000	0.0
133	0x00000000	0.0
134	0x00000000	0.0
135	0x00000000	0.0
136	0x00000000	0.0
137	0x00000000	0.0
138	0x00000000	0.0
139	0x00000000	0.0
140	0x00000000	0.0
141	0x00000000	0.0
142	0x00000000	0.0
143	0x00000000	0.0
144	0x410342fa	8.203852
145	0x4120e20a	10.055185
146	0x42bec92e	95.39293
147	0x42f6180c	123.04697
148	0x42fecbe4	127.398224
149	0x427b7d9c	62.872665
150	0x421f966b	39.896893
151	0x41ed19e9	29.637651
152	0x41cdb784	25.714607
153	0x42150952	37.2591
154	0x422b5b3c	42.839096
155	0x42345cfe	45.090813
156	0x4244ded9	49.217625
157	0x421bc63b	38.943584
158	0x41d0cbfa	26.099598
159	0x41c88da0	25.069153
160	0x42072df8	33.79489
161	0x420a9140	34.641846
162	0x420e6fb4	35.609085
163	0x429634e6	75.10332
164	0x43082a32	136.16483
165	0x42e80542	116.01027
166	0x42b9dce6	92.93144
167	0x42968c58	75.27411
168	0x42a57696	82.73161
169	0x42e71097	115.5324
170	0x430dfeb2	141.9949
171	0x42fa3ed1	125.12269
172	0x42e876e6	116.23222
173	0x43058139	133.50478
174	0x431ff0f3	159.94121
175	0x43207ea0	160.49463
176	0x43021389	130.07631
177	0x42ba8502	93.25978
178	0x42b51b92	90.55385
179	0x42e1b1cc	112.84726
180	0x42efa896	119.82927
181	0x42eca043	118.31301
182	0x42afc4e8	87.88458
183	0x423d9104	47.391617
184	0x4264c578	57.19284
185	0x428ff2d6	71.97429
186	0x427a57c5	62.585712
187	0x42335e11	44.84186
188	0x42046f23	33.108532
189	0x4204fb10	33.24518
190	0x41acf2df	21.61859
191	0xc081df4e	-4.058509
192	0xc202a990	-32.66559
193	0xbf496f74	-0.7868569
194	0x41978945	18.942026
195	0x41a8ee06	21.116222
196	0x41f64bc4	30.786995
197	0x42085043	34.07838
198	0x419b953e	19.447872
199	0x401e1f6e	2.4706683
200	0x4108fab0	8.561203
201	0x40796ddd	3.8973305
202	0x3e51ad12	0.20476177
203	0x00000000	0.0
204	0x00000000	0.0
205	0x3d9b8d81	0.07595349
206	0x00000000	0.0
207	0x00000000	0.0
208	0x3c21dae1	0.009878845
209	0x00000000	0.0
210	0x00000000	0.0
211	0x00000000	0.0
212	0x00000000	0.0
213	0x00000000	0.0
214	0x00000000	0.0
215	0x00000000	0.0
216	0x00000000	0.0
217	0x00000000	0.0
218	0x00000000	0.0
219	0x00000000	0.0
220	0x00000000	0.0
221	0x00000000	0.0
222	0x00000000	0.0
223	0x00000000	0.0
224	0x00000000	0.0
225	0x00000000	0.0
226	0x00000000	0.0
227	0x00000000	0.0
228	0x00000000	0.0
229	0x00000000	0.0
230	0x00000000	0.0
231	0x00000000	0.0
232	0x00000000	0.0
233	0x00000000	0.0
234	0x00000000	0.0
235	0x00000000	0.0
236	0x3dfca761	0.123366125
237	0x00000000	0.0
238	0x00000000	0.0
239	0x00000000	0.0
240	0x00000000	0.0
241	0x00000000	0.0
242	0x00000000	0.0
243	0x00000000	0.0
244	0x00000000	0.0
245	0x00000000	0.0
246	0x00000000	0.0
247	0x00000000	0.0
248	0x00000000	0.0
249	0xc1270bfe	-10.440428
250	0xc2126009	-36.593784
251	0xc21e59ff	-39.587887
252	0x00000000	0.0
253	0x00000000	0.0
254	0x00000000	0.0
255	0x00000000	0.0
