notebooks/data/processed/mfccs/5623aa27-cd59-414f-ba92-b4f785bf463a.npy (npy, 20288 bytes, 1 tensors)

array f4 [40, 126]
00000000: 5d41 3ac4 af57 39c4 7293 2ec4 cb65 2ac4
00000010: 43b4 30c4 fa2b 36c4 9c6b 38c4 3b10 39c4
00000020: caab 38c4 d668 37c4 0a58 38c4 cb56 38c4
00000030: 6adb 39c4 9c08 3ac4 3687 34c4 e3f7 2cc4
00000040: 60a5 30c4 5569 36c4 fa78 38c4 6738 3ac4
00000050: 5d08 3ac4 a2b8 39c4 2ffc 39c4 8b27 3ac4
00000060: a6b1 37c4 e3bd 36c4 04e0 38c4 28ac 33c4
00000070: 4cf0 2dc4 79d4 32c4 4a5b 38c4 47cc 38c4
00000080: de9c 31c4 9b1e 2dc4 0e57 32c4 aea2 37c4
00000090: e5e2 38c4 5979 39c4 a57f 39c4 adb6 39c4
000000a0: 2bba 39c4 1b2e 39c4 a9f8 37c4 4196 38c4
000000b0: 942c 3ac4 583e 3ac4 753b 3ac4 963a 3ac4
000000c0: 5d41 3ac4 80e1 39c4 5078 39c4 3df0 38c4
000000d0: 5d41 3ac4 5d41 3ac4 ab33 3ac4 c715 39c4
000000e0: 1cd2 36c4 f2c0 38c4 b63a 37c4 af2a 34c4
000000f0: 055a 38c4 bcd9 36c4 adf7 39c4 2230 3ac4
00000100: 5d41 3ac4 6c1f 39c4 6ea7 37c4 d661 38c4
00000110: 132d 38c4 a4dc 37c4 dd8b 38c4 3b81 38c4
00000120: 23b4 39c4 f3d0 39c4 610d 3ac4 5d41 3ac4
00000130: f632 3ac4 77dd 39c4 8bbb 37c4 b2eb 2fc4
00000140: 6ba8 27c4 a5d2 21c4 26eb 1ac4 f5da 13c4
00000150: f32e 0fc4 2847 09c4 2fc8 02c4 daab fec3
00000160: c237 ffc3 b0ef 00c4 042c 01c4 c3cb 04c4
00000170: 2141 0bc4 db18 11c4 5138 16c4 e463 21c4
00000180: b4c9 23c4 ead8 15c4 e2c9 05c4 a487 ecc3
00000190: 9a21 bec3 048d 7bc3 9369 13c3 4aaa fac2
000001a0: a54e 25c3 b48f 3ec3 0cf2 51c3 77a5 67c3
000001b0: 097b 6ec3 3003 81c3 5247 81c3 5226 70c3
000001c0: 25c8 79c3 ff3d 97c3 e5d9 bac3 30a9 e5c3
000001d0: 1983 0bc4 457b 24c4 dcb7 34c4 66a2 28c4
000001e0: 893f 17c4 3a40 0bc4 59e0 04c4 0929 00c4
000001f0: 0cc6 fcc3 0232 05c4 0000 0000 44ea 8840
00000200: d04b c441 bb51 a141 ba15 b241 0a43 9f41
00000210: 7aad 1b41 76da c940 0ce0 ef40 1b7f 2341
00000220: 3cb8 1141 3e80 0f41 e156 0640 09cd 9b3f
00000230: b2d3 e941 3c90 6342 3e1e 3642 7aab a441
00000240: c875 1c41 0035 483e 8671 903f 8223 2d40
00000250: 4eed c03f a9c5 0d3f 8843 4141 02c6 8b41
00000260: f296 e440 7a77 c441 f80d 4042 e745 1242
00000270: 663c 2141 4982 c540 a833 0e42 6ee1 5c42
00000280: 3659 1b42 51e3 6441 4ad3 f140 b2fd 8c40
00000290: e890 8840 26cb 4340 f4d9 3e40 e068 a740
000002a0: e09f 3041 b695 0a41 bfa9 cb3e 23f1 093d
000002b0: 6275 863d 5975 9a3d 0000 0000 da17 0140
000002c0: 1bf3 6a40 f0fd c040 0000 0000 0000 0000
000002d0: 7567 9a3e c440 b240 16c8 6c41 0edc e540
000002e0: e3c0 2541 48d1 9f41 02a6 dc40 a465 2d41
000002f0: 5cb2 8e3f 1076 c13e 0000 0000 7ba2 8340
00000300: dcf1 3441 e033 1f41 00c5 2641 449e 4241
00000310: 8693 1441 52b0 1741 b963 4340 94a5 1d40
00000320: da95 913f 0000 0000 b256 a23e 4cf8 b3bf
00000330: f40e eac0 6e43 a7c1 b074 0fc2 e434 27c2
00000340: 6913 2dc2 c0e7 1bc2 7962 10c2 16a9 09c2
00000350: a202 cec1 0e0e b7c1 8e87 b2c1 e8ba acc1
00000360: e0f6 8bc1 5635 0fc1 5096 1dc1 9eab 0ec1
00000370: ff29 a1bf 3e52 9740 18f5 6c42 7a10 5342
00000380: 25fb 1741 ca33 a840 f730 ab40 f2c3 97c0
00000390: d26e 8141 43eb 8841 6204 9941 454a e541
000003a0: 386c d641 7dbf 9041 419d b641 5aeb eb41
000003b0: e852 6c42 1610 8842 4066 9642 0931 ba42
000003c0: 7277 bf42 ccb5 a142 f13e 8b42 0a17 8942
000003d0: dc83 c741 b753 bb41 4803 9c40 3048 0ec1
000003e0: 822d abc1 245a afc1 1f59 92c1 af9c bcc1
000003f0: 0000 0000 4aef 2440 75bd 6041 43b8 b141
-745.0213 -741.37006 -698.30383 -681.5905 -706.8166 -728.68713 -737.6814 -740.2536
-738.6842 -733.63806 -737.3756 -737.35614 -743.42834 -744.1345 -722.1127 -691.8732
-706.584 -729.6458 -737.89026 -744.8813 -744.1307 -742.8849 -743.94037 -744.61786
-734.77576 -730.967 -739.50024 -718.68994 -695.75464 -715.3199 -737.4264 -739.19183
-710.45105 -692.4782 -713.3602 -734.5419 -739.5452 -741.89606 -741.99445 -742.8543
-742.9089 -740.7204 -735.8853 -738.3477 -744.69653 -744.9741 -744.929 -744.9154
-745.0213 -743.52344 -741.8799 -739.7537 -745.0213 -745.0213 -744.8073 -740.3403
-731.28296 -739.0148 -732.91736 -720.66693 -737.40656 -731.4021 -743.86993 -744.7521
-745.0213 -740.49097 -734.6161 -737.5287 -736.7043 -735.4475 -738.18536 -738.0192
-742.81464 -743.26483 -744.20905 -745.0213 -744.79626 -743.4604 -734.93036 -703.68274
-670.63153 -647.2913 -619.6742 -591.4212 -572.7336 -549.1118 -523.12787 -509.3426
-510.4356 -515.7451 -516.68774 -531.1838 -557.01764 -580.38837 -600.87994 -645.5608
-655.1516 -599.3893 -535.1544 -473.0597 -380.2625 -251.55084 -147.4124 -125.332596
-165.3072 -190.56134 -209.9455 -231.64635 -238.4806 -258.0249 -258.5572 -240.14969
-249.78181 -302.48434 -373.7023 -459.32178 -558.0484 -657.9261 -722.8728 -674.5375
-604.99274 -557.00354 -531.50543 -512.6412 -505.54724 -532.7814 0.0 4.278597
24.537018 20.164907 22.260609 19.907734 9.729853 6.3079176 7.4960995 10.218532
9.107479 8.968809 2.0990527 1.2171947 29.228367 56.890854 45.529533 20.583729
9.778755 0.19551468 1.1284645 2.7052922 1.507242 0.5537973 12.078987 17.471684
7.143426 24.558338 48.01364 36.568264 10.077246 6.172154 35.550446 55.220146
38.83712 14.305497 7.557042 4.4059687 4.2676888 3.0592742 2.9820528 5.231552
11.039032 8.6615505 0.39777943 0.03367723 0.06565358 0.075419135 0.0 2.0170808
3.671088 6.030998 0.0 0.0 0.30157056 5.570406 14.798849 7.183112
10.3595915 19.977188 6.8952646 10.837315 1.1148181 0.37785387 0.0 4.113584
11.309048 9.950165 10.423096 12.163639 9.286016 9.480547 3.0529616 2.463231
1.1373856 0.0 0.31706768 -1.4060149 -7.3143253 -20.907925 -35.863953 -41.80165
-43.268955 -38.97632 -36.096165 -34.415123 -25.751286 -22.881863 -22.316189 -21.591263
-17.495544 -8.950521 -9.849197 -8.916899 -1.2590941 4.7287893 59.23935 52.76609
9.498815 5.256322 5.349727 -4.742669 16.179111 17.114874 19.12714 28.661264
26.802841 18.0935 22.826784 29.489918 59.080963 68.03142 75.19971 93.09577
95.73329 80.85507 69.62293 68.545 24.939384 23.415876 4.8754005 -8.892624
-21.39722 -21.919014 -18.293516 -23.576506 0.0 2.577105 14.046254 22.214972
