notebooks/data/processed/mfccs/5770b09e-8947-4764-bc9d-b8ef498c7be2.npy (npy, 20288 bytes, 1 tensors)

array f4 [40, 126]
00000000: c081 0ec4 c081 0ec4 c081 0ec4 c081 0ec4
00000010: c081 0ec4 c081 0ec4 c081 0ec4 c081 0ec4
00000020: c081 0ec4 c081 0ec4 c081 0ec4 07dc 7dc3
00000030: 706c 3ac3 c94e 7dc3 a973 03c4 550a 01c4
00000040: 58af fec3 cbd3 fcc3 e5db fbc3 5b96 fec3
00000050: 3a2a 02c4 06e6 03c4 1024 05c4 66b0 08c4
00000060: fd96 0bc4 d925 0dc4 361d 0dc4 487f 0ec4
00000070: 0950 09c4 936a 07c4 4bb7 0ac4 23bd 0cc4
00000080: da59 0ec4 a57f 0ac4 f1e4 02c4 2433 ffc3
00000090: 1eac fac3 c33e f9c3 64de f9c3 ef00 fac3
000000a0: d2a5 fec3 a376 00c4 76c9 02c4 9d95 02c4
000000b0: 9cf3 00c4 ad31 01c4 ebfa 01c4 ced6 04c4
000000c0: d5a6 06c4 9152 07c4 0ac4 05c4 05a7 04c4
000000d0: b96e 06c4 2a3b 08c4 071f 0ac4 764c 0ac4
000000e0: 84bb 09c4 2075 09c4 82c5 06c4 3a78 03c4
000000f0: 5fd9 03c4 c762 07c4 289a 0ac4 3ec8 0cc4
00000100: b17c 0dc4 bb10 0cc4 8d9d 09c4 f83d 08c4
00000110: c66d 91c3 217a a6c2 b5a4 aac0 812f 66c1
00000120: 914a 83c2 b01e e6c2 2b1e 24c3 023f 5dc3
00000130: d5cc 8ec3 f3c1 adc3 e915 acc3 0bf5 9ac3
00000140: 536a 9ac3 0b74 b3c3 06d9 d7c3 098c f1c3
00000150: 1985 00c4 4369 03c4 8c15 05c4 1d9b 03c4
00000160: 8157 01c4 bb91 00c4 3c6e 00c4 358b 02c4
00000170: bc73 05c4 d0b7 09c4 b1ed 0cc4 6d42 0dc4
00000180: 2f2e 0ec4 a6a2 b1c3 0b21 05c3 78d0 8bc2
00000190: 2ea5 e9c2 4744 7dc3 4f9f b3c3 620f d6c3
000001a0: a4b7 eac3 090d d3c3 af86 b4c3 2116 afc3
000001b0: ce22 c4c3 6401 e8c3 a9cb fdc3 d51b 01c4
000001c0: def6 fdc3 aa07 fec3 5a11 05c4 333f 0cc4
000001d0: be79 0ec4 1b6a 0ec4 ee7d 0ec4 ad80 0ec4
000001e0: c081 0ec4 c081 0ec4 3081 0ec4 c081 0ec4
000001f0: c081 0ec4 c081 0ec4 0000 0000 0000 0000
00000200: 0000 0000 0000 0000 0000 0000 0000 0000
00000210: 0000 0000 0000 0000 0000 0000 0000 0000
00000220: 0000 0000 ca29 9242 13c7 9742 5cb1 9c42
00000230: bac3 2e42 32fb 5b42 7472 6842 0e91 6942
00000240: 8cc7 7a42 1a00 7a42 7d8c 5742 d418 4342
00000250: 2ab4 3342 14ce ea41 7040 6e41 1070 e340
00000260: c608 eb40 c5dc 573d 7f80 ca41 b9bd 0742
00000270: 5872 9141 7c61 0e41 ee0d 5a3f a8d7 a141
00000280: 2ee2 3442 100b 7e42 c876 9342 ca08 9742
00000290: ce61 9a42 fc3c 9e42 bed7 8642 9b0f 7442
000002a0: e8e9 5942 ee53 5942 9600 7042 a4f4 7342
000002b0: 55bd 7042 da0d 3c42 7f99 1442 c2f8 0b42
000002c0: 5af1 2942 ad0e 4042 58c0 1e42 6636 f841
000002d0: d7d7 af41 3e60 ab41 bea6 c041 a589 cc41
000002e0: bd4b 1c42 1c54 5a42 53ff 5042 f0b1 0942
000002f0: 3cfd 9541 9837 0f41 2a30 b140 9a30 4b41
00000300: 5485 c141 0c29 ec41 02f2 2443 d4b4 0a43
00000310: eef2 db42 d57e af42 10f8 bc42 2b60 e542
00000320: 27ad 0843 fcb2 2043 8c62 2243 5a7f 1943
00000330: 1458 2f43 29ea 3743 3afe 3043 c7b9 2743
00000340: 08c9 0743 3cdb a342 3636 2942 c694 2f42
00000350: 303b 3442 1047 4942 5253 7842 8849 8542
00000360: 1cff 8642 2a68 7142 53a2 3942 5bee c541
00000370: 68b0 0041 2574 ce40 a5ce dd3f a110 2543
00000380: 46ac 0f43 3008 f342 91d1 c942 20eb c442
00000390: 70ab ca42 96ee bd42 2027 b242 1e1f 1443
000003a0: 5b6b 3643 947d 3643 c6f3 1c43 424e e142
000003b0: ecb9 9942 4455 8542 71cb 9242 cab8 8a42
000003c0: c859 2e42 2799 3141 bbcc 203e 9437 cd3e
000003d0: c54c 993d 00e4 a23c 0000 0000 0000 0000
000003e0: 28e3 493c 0000 0000 0000 0000 0000 0000
000003f0: 0000 0000 0000 0000 0000 0000 0000 0000
-570.02734 -570.02734 -570.02734 -570.02734 -570.02734 -570.02734 -570.02734 -570.02734
-570.02734 -570.02734 -570.02734 -253.85948 -186.42358 -253.30775 -525.8072 -516.16144
-509.36987 -505.65463 -503.71793 -509.17465 -520.6598 -527.5941 -532.5635 -546.7562
-558.3592 -564.5914 -564.4564 -569.9888 -549.25055 -541.6652 -554.86395 -562.95526
-569.40393 -553.99445 -523.5772 -510.39954 -501.34467 -498.49033 -499.73743 -500.0073
-509.29547 -513.8537 -523.1478 -522.3377 -515.8064 -516.7762 -519.9206 -531.3563
-538.60675 -541.2901 -535.0631 -530.6097 -537.73004 -544.92444 -552.4848 -553.1947
-550.92993 -549.8301 -539.08606 -525.87854 -527.3964 -541.5434 -554.4087 -563.1288
-565.9483 -560.2614 -550.46173 -544.96826 -290.8576 -83.23853 -5.332606 -14.386598
-65.64564 -115.05994 -164.11784 -221.24612 -285.60025 -347.51523 -344.17117 -309.9144
-308.83066 -358.9066 -431.6955 -483.09402 -514.07965 -525.6447 -532.3367 -526.42365
-517.36725 -514.27704 -513.7224 -522.1751 -533.80835 -550.8721 -563.7139 -565.0379
-568.7216 -355.2707 -133.12907 -69.907166 -116.82262 -253.26671 -359.2446 -428.12018
-469.4347 -422.10184 -361.05222 -350.17288 -392.2719 -464.01086 -507.5911 -516.4349
-507.92865 -508.05988 -532.2711 -560.9875 -569.9022 -569.6579 -569.96765 -570.01056
-570.02734 -570.02734 -570.01855 -570.02734 -570.02734 -570.02734 0.0 0.0
0.0 0.0 0.0 0.0 0.0 0.0 0.0 0.0
0.0 73.08162 75.88882 78.346405 43.69114 54.995308 58.11177 58.391655
62.69487 62.5001 53.887196 48.774246 44.92594 29.350624 14.890732 7.1074295
7.344821 0.052700777 25.312742 33.935276 18.180832 8.8988 0.85177505 20.2303
45.22088 63.510803 73.731995 75.517166 77.191025 79.11911 67.42137 61.01524
54.478424 54.331963 60.000572 60.988907 60.184895 47.013527 37.1499 34.992928
42.485695 48.01433 39.687836 31.026562 21.98039 21.421993 24.081417 25.56721
39.073963 54.582138 52.24934 34.423767 18.74865 8.951073 5.5371294 12.699366
24.190102 29.520042 164.94534 138.70636 109.97447 87.74772 94.4845 114.68783
136.67638 160.69916 162.38495 153.49747 175.34406 183.91469 176.99307 167.7257
135.78528 81.92819 42.30294 43.895287 45.0578 50.319397 62.081367 66.643616
67.49826 60.351723 46.40852 24.741385 8.043068 6.451678 1.7328688 165.06496
143.67294 121.51599 100.90931 98.45923 101.33484 94.96599 89.076416 148.12155
182.41936 182.49054 156.95224 112.65285 76.86313 66.666534 73.39735 69.360916
43.587677 11.099891 0.15703098 0.40081465 0.07485346 0.01988411 0.0 0.0
0.012322225 0.0 0.0 0.0 0.0 0.0 0.0 0.0
