notebooks/data/processed/mfccs/6387cfd3-64dd-4630-b9ed-9c5bfcdda823.npy (npy, 20288 bytes, 1 tensors)

array f4 [40, 126]
00000000: 2e03 03c4 e1d4 01c4 79b3 02c4 f72c 03c4
00000010: 932c 03c4 4016 00c4 d64e a0c3 9859 4ec3
00000020: a299 33c3 4426 41c3 5891 4dc3 2c72 57c3
00000030: f5a1 57c3 2227 5ac3 772d 65c3 d913 69c3
00000040: 0749 68c3 e59d 5bc3 ac07 4bc3 792e 3dc3
00000050: 9712 32c3 786f 27c3 49c6 19c3 d739 0ec3
00000060: 1b02 14c3 d7cb 1cc3 77ed 1dc3 6e2d 22c3
00000070: ba0d 28c3 69f1 32c3 8c3b 40c3 2b32 44c3
00000080: dca9 44c3 a5ce 49c3 8e17 4ec3 1fc5 57c3
00000090: 6c81 63c3 0c28 75c3 4789 86c3 01aa 8cc3
000000a0: 4e7c 8cc3 9a4c 90c3 3ad9 97c3 8ba3 43c3
000000b0: 3145 79c1 2f41 8542 ae50 a842 db68 8e42
000000c0: efb7 5942 9140 1b42 b649 2142 9329 5442
000000d0: 7838 f641 29be 30c2 904e d8c2 c607 18c3
000000e0: e173 2cc3 d5ca 6bc1 672d 7342 fdf0 7d42
000000f0: f28e 1b42 a2eb 1a41 0f1a 693f b12a bb40
00000100: 4387 8041 e8cf cfc1 c83d e8c2 bb1e 3ac3
00000110: e91a 7dc3 ad7a 90c3 3df4 99c3 32c4 a0c3
00000120: 3f5f 97c3 2ba8 83c3 3a45 84c3 3cdc edc2
00000130: 4ab1 b841 2e68 6642 c154 1742 e747 9241
00000140: 186d b241 c412 cb41 81dd 04c0 5d47 1fc2
00000150: c61a 9ec2 2cfe 00c3 0111 35c3 cb30 6ac3
00000160: b8ad 92c3 6a84 b1c3 0516 c4c3 5633 cec3
00000170: 9e5d d6c3 3307 d6c3 4bbf d6c3 db2a dbc3
00000180: d9d2 d7c3 7b52 e9c2 1e2b 0141 af37 6d41
00000190: 066b e4c1 adef 39c2 4cc0 a0c2 4a17 0dc3
000001a0: effe 34c3 c31d 44c3 aafd 80c3 5714 aac3
000001b0: 2750 c0c3 e7eb c9c3 f208 cfc3 b20c d2c3
000001c0: 1556 d6c3 d6e9 d6c3 0951 d8c3 540d dcc3
000001d0: 6949 dbc3 f43e dac3 1c42 dcc3 10c6 ddc3
000001e0: c4aa ddc3 b8e4 dbc3 1a44 dcc3 d08a dfc3
000001f0: bb51 e0c3 40d3 e3c3 68eb ea3f fa58 0741
00000200: 1a9f 6340 af60 603f 727d 623f f3aa 8841
00000210: f6a6 da42 3476 e642 e057 e742 4225 e242
00000220: 1048 e842 8e99 fc42 e9d5 f842 228c f742
00000230: 3f9e ed42 ecba e042 aadf c642 2070 b542
00000240: cb50 ac42 61b9 9742 55ac 8942 82c2 8542
00000250: 4442 7d42 8cbe 6742 b0a8 5742 b8e4 4442
00000260: e603 4a42 8a95 6742 ccd9 8342 dc0c 8a42
00000270: 8082 9042 d4ca 9c42 eacd 9f42 34f2 ab42
00000280: e64a b342 918d c042 e4e5 d342 5c46 e742
00000290: 30ba ff42 52f2 0443 2437 0943 6655 1143
000002a0: 62be 1443 6916 e542 e45f a742 f57f 8842
000002b0: 521c 3f42 840a 0d42 99d2 1b42 2853 2f42
000002c0: 0074 4d42 fafd 8842 8098 a142 1eba b742
000002d0: 3384 cf42 77b4 d542 ebef c642 0abf 7a42
000002e0: 0333 4442 3414 4a42 d0d6 6b42 2a0f 5142
000002f0: bb05 6942 8e57 9442 a247 a142 af18 a542
00000300: acf7 be42 287b d942 152f f242 d097 0143
00000310: 1b38 f842 5a9f ef42 e349 c742 0a25 6e42
00000320: 1a00 5d42 8cac 9a42 cb56 7b42 be67 8942
00000330: dddb af42 121c b642 4f21 9d42 16f4 b142
00000340: 5c32 ca42 eaa5 dd42 6a84 f242 03ee 0443
00000350: 8e8c 0843 2860 0843 943b 0e43 5e38 0843
00000360: f60b f942 d3f6 db42 d6a0 c042 f489 c342
00000370: 6846 c542 e6ce b642 9672 b742 169d 4c42
00000380: 8edb 6442 b82a 8c42 1277 a142 2f7a 9a42
00000390: 188f ac42 1fe1 cd42 10cd e942 caf1 0343
000003a0: 55ae 1843 0ee9 1c43 849e 0c43 4626 0043
000003b0: 8c18 ee42 062f de42 7ace cd42 9a30 ca42
000003c0: 2566 c242 fc14 b142 2c95 b542 2066 b942
000003d0: e030 b242 e4ab ab42 2a3c a842 7c6a ad42
000003e0: 2cae ad42 0387 a442 4d0d a242 1dd2 9342
000003f0: 1c11 e83f b658 0441 cec0 5a40 db6e 403f
-524.0497 -519.32623 -522.80426 -524.7026 -524.6965 -512.34766 -320.6159 -206.34998
-179.60013 -193.14948 -205.56775 -215.44598 -215.63264 -218.15286 -229.1776 -233.07753
-232.28526 -219.61678 -203.02997 -189.18153 -178.07262 -167.43542 -153.77455 -142.22594
-148.00822 -156.79625 -157.9276 -162.17746 -168.05362 -178.94301 -192.2326 -196.19597
-196.66351 -201.8072 -206.09201 -215.77 -227.50555 -245.15643 -269.07248 -281.32816
-280.97113 -288.59845 -303.69708 -195.63884 -15.579392 66.62731 84.15758 71.204796
54.429623 38.813053 40.321983 53.0406 30.777573 -44.185703 -108.15344 -152.03036
-172.45265 -14.73702 60.79434 63.48534 38.889595 9.682528 0.9105539 5.8489614
16.066046 -25.976517 -116.12067 -186.12004 -253.10512 -288.9584 -307.9081 -321.53278
-302.7441 -263.3138 -264.54083 -118.930145 23.086567 57.601738 37.832767 18.285109
22.303268 25.384163 -2.0760195 -39.81969 -79.05229 -128.99286 -181.06642 -234.1906
-293.35718 -355.0345 -392.17203 -412.40106 -428.73138 -428.05624 -429.49448 -438.3348
-431.64725 -116.661095 8.073027 14.826095 -28.552258 -46.48406 -80.37558 -141.09097
-180.99583 -196.11626 -257.98175 -340.1589 -384.6262 -403.843 -414.0699 -420.09918
-428.67252 -429.82684 -432.6331 -440.10413 -438.57352 -436.49182 -440.51648 -443.54736
-443.3341 -439.78687 -440.53204 -447.08447 -448.63852 -455.6504 1.835309 8.459223
3.5565858 0.8764753 0.88472664 17.083471 109.326096 115.230865 115.67163 113.07277
116.14075 126.29991 124.41779 123.7737 118.809074 112.36508 99.436844 90.718994
86.1578 75.86207 68.836586 66.8799 63.314713 57.93608 53.914734 49.22336
50.503807 57.896034 65.925385 69.025116 72.25488 78.39615 79.902176 85.97305
89.646286 96.2765 105.949005 115.63742 127.86365 132.94656 137.2154 145.33359
148.74368 114.54377 83.68729 68.249916 47.777657 35.26027 38.95566 43.831207
51.36328 68.49605 80.79785 91.86351 103.7582 106.85247 99.46859 62.68656
49.049816 50.51973 58.959778 52.26481 58.255596 74.171005 80.63991 82.54821
95.483734 108.74054 121.09196 129.59302 124.10958 119.81123 99.64431 59.53617
55.2501 77.337006 62.83476 68.70262 87.92942 91.054825 78.565056 88.97673
101.09836 110.82405 121.25862 132.92973 136.54904 136.37561 142.23273 136.22018
124.52336 109.98208 96.31413 97.76944 98.63751 91.4041 91.7238 51.153404
57.21441 70.083435 80.73256 77.23864 86.27948 102.93969 116.90051 131.94449
152.68098 156.91037 140.6192 128.1495 119.04794 111.09184 102.903275 101.094925
97.1995 88.540985 90.79135 92.69946 89.09546 85.835724 84.11751 86.70798
86.84018 82.263695 81.02598 73.91038 1.8130221 8.271658 3.4180179 0.7516915
