notebooks/data/processed/mfccs/78fefd21-b009-4072-b6fd-2159ab56156b.npy (npy, 20288 bytes, 1 tensors)

array f4 [40, 126]
0	0xc402f398	-523.80615
1	0xc402f398	-523.80615
2	0xc402f398	-523.80615
3	0xc402895c	-522.14624
4	0xc4002a5d	-512.6619
5	0xc3fd1dda	-506.23322
6	0xc3fec00a	-509.5003
7	0xc3fe609f	-508.75485
8	0xc3fe0849	-508.06473
9	0xc3ff1a45	-510.20523
10	0xc401821a	-518.03284
11	0xc40272c9	-521.7935
12	0xc402bb03	-522.92206
13	0xc402f280	-523.78906
14	0xc402f398	-523.80615
15	0xc402f398	-523.80615
16	0xc402f398	-523.80615
17	0xc402f398	-523.80615
18	0xc402a756	-522.6146
19	0xc40292f5	-522.2962
20	0xc402f398	-523.80615
21	0xc402f398	-523.80615
22	0xc402c1bc	-523.0271
23	0xc4021076	-520.2572
24	0xc40213df	-520.3105
25	0xc4023925	-520.8929
26	0xc3fa965a	-501.17462
27	0xc3ca50ea	-404.63214
28	0xc3b7786e	-366.94086
29	0xc3c33ebb	-390.49008
30	0xc3d8f8eb	-433.94467
31	0xc3eb0f87	-470.1213
32	0xc3f8bf68	-497.49536
33	0xc3fe696f	-508.8237
34	0xc400df55	-515.48956
35	0xc400d4dc	-515.3259
36	0xc3fdaa9c	-507.3329
37	0xc3f9bf47	-499.49435
38	0xc3f6c010	-493.5005
39	0xc3f154d4	-482.66272
40	0xc3effff3	-479.9996
41	0xc3f1bb69	-483.46414
42	0xc3f6b86c	-493.4408
43	0xc3fe6570	-508.79248
44	0xc401c590	-519.0869
45	0xc402ae8b	-522.72723
46	0xc402e5bd	-523.58966
47	0xc402e937	-523.644
48	0xc402f398	-523.80615
49	0xc402c5f8	-523.09326
50	0xc40299a3	-522.4006
51	0xc402c07a	-523.00745
52	0xc402aca1	-522.6973
53	0xc3fd21b6	-506.26337
54	0xc3f69c74	-493.2223
55	0xc388aea9	-273.36453
56	0xc2a5cf7f	-82.905266
57	0xc0b3facd	-5.6243653
58	0xc0de2181	-6.94159
59	0xc26abe96	-58.68612
60	0xc2e0bcf7	-112.36907
61	0xc304a6ea	-132.65201
62	0xc2e9f674	-116.98135
63	0xc2a1a1c7	-80.81597
64	0xc284c978	-66.39349
65	0xc2939757	-73.795586
66	0xc2f10bb5	-120.522865
67	0xc34b83aa	-203.51431
68	0xc325ab23	-165.6685
69	0xc2c21fde	-97.06224
70	0xc2afbb56	-87.86589
71	0xc2fb7e4c	-125.74667
72	0xc31efc42	-158.98538
73	0xc317de0e	-151.8674
74	0xc2c740ee	-99.626816
75	0xc2690e96	-58.264244
76	0xc22c2c04	-43.042984
77	0xc27b68d2	-62.852364
78	0xc3038256	-131.50912
79	0xc33519f1	-181.10133
80	0xc3436a97	-195.41637
81	0xc3501281	-208.07228
82	0xc327719e	-167.44382
83	0xc2fe2edb	-127.091515
84	0xc3071365	-135.07576
85	0xc32dcc9c	-173.79926
86	0xc35b3cf7	-219.23814
87	0xc388774c	-272.932
88	0xc3a85a46	-336.70526
89	0xc3a5b399	-331.4031
90	0xc399d894	-307.69202
91	0xc39cf1c3	-313.88876
92	0xc3a2638b	-324.77768
93	0xc39c92da	-313.14728
94	0xc396d483	-301.66025
95	0xc3920beb	-292.0931
96	0xc38f55be	-286.66986
97	0xc3924dc0	-292.60742
98	0xc396184c	-300.18982
99	0xc39cc768	-313.55786
100	0xc3a76f92	-334.87164
101	0xc3aff791	-351.9341
102	0xc3bcc3be	-377.52924
103	0xc3cfd7a5	-415.68472
104	0xc3e1fb4a	-451.9632
105	0xc3efd324	-479.64954
106	0xc3f709b5	-494.07584
107	0xc3fb0247	-502.0178
108	0xc3f37f43	-486.99423
109	0xc3e8c690	-465.55127
110	0xc3ebdb83	-471.71494
111	0xc3f7e1ac	-495.76306
112	0xc3f991c8	-499.13892
113	0xc3d2002f	-420.00143
114	0xc35895f9	-216.58583
115	0xc27713ec	-61.769455
116	0x400cc494	2.1994982
117	0xc106d091	-8.42592
118	0xc22f75e1	-43.865116
119	0xc2906de4	-72.21463
120	0xc294a3bb	-74.319786
121	0xc242f737	-48.74142
122	0xc22dee6a	-43.482826
123	0xc2953dbe	-74.62059
124	0xc2decb11	-111.396614
125	0xc325cfa1	-165.81105
126	0x00000000	0.0
127	0x00000000	0.0
128	0x00000000	0.0
129	0x40076737	2.1156747
130	0x412a1a08	10.631355
131	0x41616e42	14.089418
132	0x41833581	16.401125
133	0x418abc15	17.341837
134	0x4186a6b4	16.831398
135	0x411f8b76	9.971548
136	0x406e0d12	3.7195477
137	0x400b558e	2.1770968
138	0x3f94f934	1.1638551
139	0x3cb3c0a2	0.02194244
140	0x00000000	0.0
141	0x00000000	0.0
142	0x00000000	0.0
143	0x00000000	0.0
144	0x3fca6222	1.5811198
145	0x4000b986	2.0113235
146	0x00000000	0.0
147	0x00000000	0.0
148	0x3f829a9e	1.0203435
149	0x4095154a	4.658849
150	0x40920b3b	4.563871
151	0x4043a868	3.0571537
152	0x4082cb06	4.087283
153	0xc123f0e2	-10.246309
154	0xc0fa571e	-7.8231344
155	0xc06eed2e	-3.7332263
156	0xc0ab2236	-5.347926
157	0xc05e5344	-3.4738321
158	0x415477d5	13.279256
159	0x410bfd27	8.749305
160	0x408c1af4	4.37829
161	0x4103ac85	8.229619
162	0x41a8632a	21.04842
163	0x41ff2e63	31.89765
164	0x421cbf6f	39.186947
165	0x424d28b4	51.28975
166	0x4256686c	53.601974
167	0x424268ba	48.602272
168	0x42135d21	36.840946
169	0x41958e54	18.694496
170	0x40c09670	6.018364
171	0x3fb0bcc7	1.380761
172	0x3dd80974	0.10548678
173	0xbd82d1c1	-0.06387664
174	0x00000000	0.0
175	0x3f7be23e	0.98392093
176	0x3ff843de	1.9395711
177	0x3f8d1608	1.1022348
178	0xbec36bd6	-0.3816821
179	0xc0ca724f	-6.3264537
180	0xc1644406	-14.266607
181	0x41e1b152	28.211582
182	0x4288be7f	68.37206
183	0x42acb35f	86.350334
184	0x42b1af08	88.84186
185	0x429ab690	77.35657
186	0x4267e1ed	57.97063
187	0x424b4904	50.821304
188	0x42aaa561	85.323006
189	0x42ccec8e	102.46202
190	0x429e2962	79.080826
191	0x428569a6	66.706345
192	0x427c3e69	63.060947
193	0x428ccaaf	70.39587
194	0x429c3210	78.09778
195	0x42834816	65.64079
196	0x4292c264	73.37967
197	0x42a6a2c6	83.31792
198	0x428d6125	70.689735
199	0x42a21b49	81.05329
200	0x42ba775c	93.23312
201	0x42b317b4	89.546295
202	0x42bf7fc1	95.74952
203	0x42beb3d0	95.3512
204	0x42c05887	96.172905
205	0x42b8f4e4	92.4783
206	0x42b321a5	89.56571
207	0x42d23d64	105.1199
208	0x42c41e66	98.05937
209	0x42b36698	89.70038
210	0x42c0157a	96.04195
211	0x42e6bb3a	115.36568
212	0x42f330c4	121.595245
213	0x42f6f7f8	123.484314
214	0x42dfca00	111.89453
215	0x425b3422	54.80091
216	0x41ee0c82	29.756107
217	0x41aaa79c	21.33184
218	0x4169be08	14.608894
219	0xc033f332	-2.8117185
220	0xc1bc6100	-23.547363
221	0xc1db790c	-27.434105
222	0xc1964de6	-18.788036
223	0xc1c155f2	-24.166965
224	0xc1b8c5b0	-23.096527
225	0xc18bc0a4	-17.469063
226	0xc18f9e10	-17.952179
227	0xc1795e8c	-15.585583
228	0xc18cb44e	-17.58804
229	0xc1c519ac	-24.637535
230	0xc1a7f412	-20.994175
231	0xc1951b04	-18.638191
232	0xbf3501c2	-0.7070581
233	0x41ae26f9	21.76903
234	0x41b8236e	23.0173
235	0x408e9bde	4.4565268
236	0x4116833f	9.4070425
237	0x418c4c47	17.537245
238	0x41b10742	22.128544
239	0x41985166	19.039745
240	0x42600b88	56.01126
241	0x42848de5	66.27714
242	0x42987458	76.227234
243	0x429d212e	78.564804
244	0x42816316	64.69353
245	0x425e6779	55.601048
246	0x429b0a1f	77.51977
247	0x42c550da	98.65791
248	0x429e23a6	79.069626
249	0x426280ea	56.625893
250	0x427b8e24	62.88881
251	0x42861630	67.043335
252	0x00000000	0.0
253	0x00000000	0.0
254	0x00000000	0.0
255	0x3fbea23e	1.4893262
