notebooks/data/processed/mfccs/7fe5ab80-77f1-4777-b5b2-7c239608f6b5.npy (npy, 20288 bytes, 1 tensors)

array f4 [40, 126]
00000000: 63f7 0ec4 54e5 0ec4 63f7 0ec4 63f7 0ec4
00000010: 63f7 0ec4 63f7 0ec4 63f7 0ec4 63f7 0ec4
00000020: c4ba 0dc4 4f4c 0bc4 73a8 0ac4 6f84 0ac4
00000030: eef8 0bc4 c15c 0bc4 ab77 08c4 4817 06c4
00000040: 7452 07c4 d0e6 0ac4 1e0c 0dc4 d991 0bc4
00000050: 0506 0ac4 c760 0ac4 0895 0bc4 94e6 0bc4
00000060: 58af fdc3 e2ab ccc3 f621 a8c3 f126 96c3
00000070: 68c8 93c3 8bea 8ec3 1928 8cc3 0d3e 87c3
00000080: 0bbd 7dc3 8a90 64c3 b9d1 5fc3 e7f3 64c3
00000090: 77fe 66c3 fd0a 68c3 5db3 5fc3 d139 61c3
000000a0: a854 6fc3 b9f7 83c3 4735 8ec3 388a 93c3
000000b0: 9a51 9cc3 e4f3 a7c3 93f4 b6c3 fd23 d0c3
000000c0: 879f f0c3 f0bf 07c4 2d06 0bc4 7674 0ac4
000000d0: 0540 0dc4 51cf 0ec4 72f1 0ec4 63f7 0ec4
000000e0: 2bec 0ec4 e9e8 0ec4 63f7 0ec4 63f7 0ec4
000000f0: 63f7 0ec4 63f7 0ec4 63f7 0ec4 63f7 0ec4
00000100: 63f7 0ec4 63f7 0ec4 975a d7c3 5ba3 56c2
00000110: 57c6 7842 d198 a342 f7fe 8742 2e74 8742
00000120: 8b2d 6342 c612 1842 a344 5241 3eeb 2ac1
00000130: e6b4 3bc2 471d 5bc2 15bf 51c0 4879 b740
00000140: 91b5 37c2 0d07 17c3 1d79 43c3 b6ae 05c2
00000150: de5d 8841 e931 a0c1 c612 80c2 093b 87c2
00000160: 83ce a8c2 90cf edc2 64a5 1ac3 8d6f 05c3
00000170: 4937 32c2 7a30 0e41 4f20 7f40 4cc7 6bc1
00000180: 502f 1dc2 6178 e0c2 1a92 63c3 678d 9ac3
00000190: cc6c b9c3 a0e2 d4c3 0c9c eec3 61ff 01c4
000001a0: da0f 08c4 41cf 0bc4 7b73 0ec4 10e9 0ec4
000001b0: 63f7 0ec4 63f7 0ec4 63f7 0ec4 63f7 0ec4
000001c0: 63f7 0ec4 63f7 0ec4 63f7 0ec4 63f7 0ec4
000001d0: 63f7 0ec4 63f7 0ec4 63f7 0ec4 63f7 0ec4
000001e0: 63f7 0ec4 63f7 0ec4 63f7 0ec4 63f7 0ec4
000001f0: 63f7 0ec4 63f7 0ec4 0000 0000 1055 cc3e
00000200: 0000 0000 0000 0000 0000 0000 0000 0000
00000210: 0000 0000 0000 0000 dce3 b940 54e8 4f41
00000220: 11b1 8041 1c9d 8b41 d415 5141 c0f7 5541
00000230: 65e6 a241 c05a d241 de67 a041 cfec 0241
00000240: 481a 0740 62d7 5940 7212 f340 4de1 7a41
00000250: bd7b 8541 5237 e840 36ba c83f b86f 7d41
00000260: 8c1e e341 e73f cb41 af6f 8e41 b18e d040
00000270: c64b 29c0 048c 22c1 974e 23c1 bf81 aec0
00000280: e47c 0ec1 c4cb 29c1 2279 14c1 c9d8 25c1
00000290: 2864 1bc1 3d15 9ec0 22da 81c0 9cac 39c1
000002a0: d498 03c1 037f 68bf caa3 ee40 cc9a 1d41
000002b0: 30a4 4b41 cc86 5741 a079 3941 b80c 88bf
000002c0: 80e6 3940 5692 1341 277b ff40 7253 583f
000002d0: 923b 003e 0000 0000 8e09 723e 1220 9c3e
000002e0: 0000 0000 0000 0000 0000 0000 0000 0000
000002f0: 0000 0000 0000 0000 0000 0000 0000 0000
00000300: 4433 6841 bc83 ad41 886c d141 9e8e 0342
00000310: 147f 5042 e015 4d42 5402 3042 5200 5942
00000320: 9ed4 8942 2d75 9242 8e80 8a42 f4e2 8d42
00000330: c45b 7242 224e 6642 1a30 6742 32f3 8842
00000340: 846a 9f42 8b91 9742 ea87 8042 e78a 4542
00000350: 7aef 1542 8e0f ff41 b756 1d42 94a6 4642
00000360: 13c0 6842 10c4 9e42 8b74 b842 64ca ad42
00000370: 42dc a342 4287 9f42 c80c a442 57cb b042
00000380: 10a4 a842 1669 9642 6e71 9242 5247 8d42
00000390: 8866 7942 1247 3842 19aa e941 75e8 5a41
000003a0: 66aa 2040 b72f 8a3e 0000 0000 0000 0000
000003b0: 0000 0000 0000 0000 0000 0000 0000 0000
000003c0: 0000 0000 0000 0000 0000 0000 0000 0000
000003d0: 0000 0000 0000 0000 0000 0000 0000 0000
000003e0: 0000 0000 0000 0000 0000 0000 0000 0000
000003f0: 0000 0000 3f49 cc3e 0000 0000 0000 0000
-571.8654 -571.58325 -571.8654 -571.8654 -571.8654 -571.8654 -571.8654 -571.8654
-566.9182 -557.1923 -554.632 -554.0693 -559.8895 -557.4493 -545.8698 -536.3638
-541.2883 -555.60645 -564.18933 -558.2789 -552.09406 -553.51215 -558.3286 -559.6028
-507.36987 -409.34283 -336.26532 -300.30423 -295.56567 -285.83237 -280.31326 -270.48477
-253.73845 -228.5646 -223.81923 -228.95274 -230.994 -232.04292 -223.70064 -225.22585
-239.33069 -263.93533 -284.41623 -295.07983 -312.6375 -335.9054 -365.91074 -416.28116
-481.2463 -542.999 -556.0965 -553.8197 -565.0003 -571.2393 -571.7726 -571.8654
-571.6901 -571.6392 -571.8654 -571.8654 -571.8654 -571.8654 -571.8654 -571.8654
-571.8654 -571.8654 -430.70773 -53.659527 62.19369 81.79847 67.99798 67.72691
56.794476 38.018333 13.141757 -10.682432 -46.92666 -54.77859 -3.2772877 5.733555
-45.92731 -151.02754 -195.4731 -33.420616 17.045834 -20.02437 -64.03667 -67.6153
-84.40334 -118.905396 -154.64606 -133.43575 -44.55399 8.886835 3.986347 -14.736156
-39.296204 -112.235115 -227.57071 -309.1047 -370.84998 -425.7705 -477.21912 -519.9903
-544.2477 -559.23834 -569.8044 -571.6416 -571.8654 -571.8654 -571.8654 -571.8654
-571.8654 -571.8654 -571.8654 -571.8654 -571.8654 -571.8654 -571.8654 -571.8654
-571.8654 -571.8654 -571.8654 -571.8654 -571.8654 -571.8654 0.0 0.39908648
0.0 0.0 0.0 0.0 0.0 0.0 5.809065 12.994221
16.086458 17.451714 13.067829 13.372986 20.362497 26.294312 20.050716 8.182815
2.110979 3.403771 7.5960016 15.680005 16.68542 7.256753 1.5681827 15.839775
28.389915 25.406202 17.804533 6.5174184 -2.6452498 -10.1591835 -10.206687 -5.453338
-8.905491 -10.612247 -9.279573 -10.365426 -9.711952 -4.9400926 -4.0578775 -11.604641
-8.224812 -0.90818805 7.457494 9.850292 12.727585 13.470409 11.592194 -1.0628881
2.9046936 9.223227 7.9837832 0.8450233 0.12522724 0.0 0.23636457 0.30493218
0.0 0.0 0.0 0.0 0.0 0.0 0.0 0.0
14.512516 21.689323 26.177994 32.889275 52.1241 51.271362 44.002274 54.250313
68.91527 73.22886 69.25108 70.94327 60.589615 57.5763 57.796974 68.47499
79.70804 75.78426 64.26546 49.385647 37.483864 31.882595 39.334682 49.662674
58.187572 79.382935 92.22762 86.895294 81.93019 79.764175 82.02496 88.39715
84.320435 75.205246 73.22154 70.6393 62.35013 46.069405 29.208055 13.681752
2.5104003 0.2698953 0.0 0.0 0.0 0.0 0.0 0.0
0.0 0.0 0.0 0.0 0.0 0.0 0.0 0.0
0.0 0.0 0.0 0.0 0.0 0.39899632 0.0 0.0
