notebooks/data/processed/mfccs/8c631f0e-6973-4d8e-a42d-b1d0bf1ffe1d.npy (npy, 20288 bytes, 1 tensors)

array f4 [40, 126]
00000000: 692d 5dc4 b6d5 42c4 b8c9 3cc4 468d 3cc4
00000010: 60f4 3cc4 9819 39c4 d44a 2fc4 ca8c 2ac4
00000020: 3f01 29c4 cd50 27c4 8cfb 25c4 a4f8 24c4
00000030: b858 24c4 58f4 23c4 1ec2 22c4 73df 23c4
00000040: 8a58 23c4 a730 25c4 216c 28c4 ba15 2fc4
00000050: 7c3c 36c4 841d 3ac4 0e81 3ac4 a362 3ac4
00000060: 406d 3bc4 c78c 39c4 f448 36c4 ad4d 34c4
00000070: 416d 33c4 c966 34c4 14c2 35c4 29c7 36c4
00000080: d3f7 36c4 955b 36c4 8827 35c4 6c77 34c4
00000090: 6634 35c4 6b5c 2dc4 f18d 1fc4 0b1f 14c4
000000a0: 13c5 0ec4 f9d8 12c4 bda4 26c4 7a0d 30c4
000000b0: d1a2 30c4 852b 30c4 b301 28c4 86a2 1ec4
000000c0: 931b 15c4 0459 09c4 a6ce 08c4 0014 1dc4
000000d0: 6e5d 32c4 b69c 34c4 1d1d 35c4 f9ba 35c4
000000e0: 75d2 36c4 f489 37c4 bae5 36c4 10dc 35c4
000000f0: 08e4 36c4 83f5 39c4 deb7 3bc4 176b 3cc4
00000100: 9757 3ec4 e254 3ec4 692c 3ec4 27c2 3ac4
00000110: 5c6f 39c4 8bf5 39c4 d416 3bc4 04f0 3bc4
00000120: deaf 3ac4 9142 39c4 c603 3bc4 173f 3bc4
00000130: 035d 39c4 6017 39c4 611b 3ac4 30b3 3ac4
00000140: 6586 39c4 6334 3ac4 ce50 3ac4 ef28 39c4
00000150: 18c8 36c4 5085 36c4 9f1a 38c4 d91e 3bc4
00000160: 61fc 3ac4 b3f1 39c4 3c96 3ac4 86f4 3ac4
00000170: b236 3ac4 d1f1 39c4 f7a9 3ac4 ec3c 3bc4
00000180: b6bb 3ac4 d1ec 39c4 96de 39c4 92c3 39c4
00000190: b724 3ac4 005f 3ac4 3208 3bc4 e693 3ac4
000001a0: a651 3bc4 28d9 3ac4 4428 3ac4 589d 38c4
000001b0: 9874 38c4 5ad6 39c4 9a81 39c4 5086 38c4
000001c0: a7de 38c4 f707 39c4 a21b 39c4 97fc 35c4
000001d0: 47fc 30c4 5b38 31c4 d60b 34c4 55d6 35c4
000001e0: c8e0 37c4 eeb8 39c4 7c7c 39c4 cab5 38c4
000001f0: b6eb 38c4 d821 43c4 e029 4042 287d 4042
00000200: 94b5 1c42 cdb5 d441 2c4f 4a41 0a83 e1bf
00000210: 24a0 55c1 68ef bcc1 72f6 d9c1 5444 cbc1
00000220: b48c 96c1 a831 0cc1 310e c6c0 fa22 68c1
00000230: 40ea 74c1 a2b5 47c1 7dce 8ac0 92c8 963f
00000240: 9c62 8141 e2f6 d941 f418 b341 5eaa 9341
00000250: d09e d441 42ad 1342 4e86 2f42 d709 0442
00000260: 567e 8041 56ff e540 8026 1741 501c 8741
00000270: 7a79 dd41 b650 2c42 cc73 3642 d87a 3e42
00000280: 8bfb 3d42 900f 2d42 dd18 3f42 0532 a242
00000290: 1dcb e742 5485 b342 bda1 8242 943b 4042
000002a0: e4a8 6540 d987 0cbe 2af4 9541 c0b4 e241
000002b0: b476 5cbf 6283 b3c1 3491 7341 c8b5 aa42
000002c0: f56e c142 44d1 9742 e0c9 a241 28be d941
000002d0: 604a fe41 74a2 0742 2bd5 0d42 50bd 1e42
000002e0: 9e8c 2d42 52d0 3e42 0066 3842 a14f 1042
000002f0: 6a76 fc41 0e72 0f42 46fd 1242 0493 0f42
00000300: 62cb 0742 981f 3642 962f 3b42 4851 0242
00000310: ee20 8541 8615 e740 0c96 3941 047c 9e41
00000320: 9149 de41 dea1 2642 56b6 2842 9a4e 2242
00000330: 6874 e341 fd84 7e41 802f 5241 2659 a940
00000340: 4886 b9bf c043 113c f80a 0441 de70 bb41
00000350: 2abf 2242 4c28 2442 749f fe41 28a0 bc41
00000360: 7f31 7c41 f583 6741 be12 9841 a973 b341
00000370: d28e ff41 fba8 1442 f28b 0c42 fe11 cc41
00000380: c44d 9541 ec2f 8441 c679 9841 2350 a741
00000390: f606 9e41 9ac9 9241 8615 9241 8c2e 8641
000003a0: 02d4 8841 96a6 ea41 16dd e041 36b0 e041
000003b0: 1f1d 2042 4378 1142 9c90 1042 dcff 0d42
000003c0: 787b d241 d0cc ae41 b8b6 a241 8d41 8341
000003d0: 6617 a941 eca5 3842 c761 4d42 b2f5 2d42
000003e0: b01b ff41 2f64 c641 8eec 9941 4394 1e41
000003f0: 23ed a540 08fd 1041 a07e 4441 30b1 7741
-884.70953 -779.33923 -755.15186 -754.2074 -755.81836 -740.3999 -701.1692 -682.1998
-676.0195 -669.2625 -663.9304 -659.885 -657.3862 -655.8179 -651.0331 -655.4914
-653.3834 -660.7602 -673.6895 -700.3395 -728.94507 -744.4612 -746.0165 -745.5412
-749.70703 -742.19965 -729.1399 -721.2137 -717.7071 -721.606 -727.0325 -731.1119
-731.87225 -729.43097 -724.6177 -721.86597 -724.8187 -693.44403 -638.21783 -592.48505
-571.0793 -587.3902 -666.57404 -704.2106 -706.544 -704.68 -672.02655 -634.5394
-596.43085 -549.39087 -547.2289 -628.3125 -713.45984 -722.4486 -724.4549 -726.92145
-731.2884 -734.1555 -731.5895 -727.4385 -731.563 -743.8361 -750.8729 -753.6733
-761.3686 -761.3263 -760.6939 -747.0336 -741.74 -743.8366 -748.3567 -751.75024
-746.7479 -741.0401 -748.05896 -748.9858 -741.4533 -740.36523 -744.4278 -746.7998
-742.0999 -744.81854 -745.2626 -740.6396 -731.12646 -730.083 -736.41595 -748.482
-747.9434 -743.77655 -746.3474 -747.8207 -744.8546 -743.7784 -746.6557 -748.9519
-746.933 -743.70026 -743.4779 -743.0558 -744.57367 -745.4844 -748.12805 -746.3109
-749.27576 -747.39307 -744.62915 -738.4585 -737.8218 -743.34924 -742.025 -738.09863
-739.47894 -740.12445 -740.43176 -727.9467 -707.94183 -708.88055 -720.18494 -727.34894
-735.5122 -742.8895 -741.94507 -738.84045 -739.683 -780.5288 48.040894 48.122223
39.177322 26.58877 12.644329 -1.7618115 -13.351597 -23.616898 -27.245335 -25.408363
-18.818703 -8.762123 -6.1892323 -14.508539 -15.30719 -12.481844 -4.337706 1.1779959
16.17315 27.245548 22.387184 18.458187 26.577545 36.919197 43.881157 33.00961
16.061687 7.187419 9.446899 16.888824 27.684315 43.07882 45.613083 47.619965
47.495647 43.265198 47.77428 81.097694 115.896706 89.76041 65.315895 48.05818
3.5884333 -0.13723697 18.74422 28.338257 -0.86118627 -22.439152 15.22295 85.35504
96.71671 75.90872 20.348572 27.21785 31.786316 33.908646 35.45817 39.684875
43.38732 47.703438 46.09961 36.077763 31.55782 35.86138 36.747337 35.89357
33.948616 45.530853 46.79647 32.579376 16.641079 7.2213774 11.599133 19.810555
27.785921 41.658073 42.178062 40.57676 28.431839 15.907468 13.136597 5.2921324
-1.4494104 0.0088662505 8.252678 23.43011 40.686684 41.039352 31.827858 23.578201
15.762084 14.469716 19.009151 22.431475 31.944736 37.16502 35.136665 25.508785
18.662971 16.5234 19.05946 20.91413 19.753399 18.348438 18.26051 16.772728
17.10352 29.33134 28.107952 28.08604 40.02844 36.367443 36.14122 35.499863
26.310287 21.850006 20.339218 16.407007 21.136425 46.162033 51.345486 43.489937
31.88852 24.798918 19.240505 9.911197 5.1851974 9.061775 12.280914 15.480759
