notebooks/data/processed/mfccs/908e6f47-4b4e-4777-b82a-bc2bf6a12a53.npy (npy, 20288 bytes, 1 tensors)

array f4 [40, 126]
000000 f8 0d 14 c4 f8 0d 14 c4 f8 0d 14 c4 f8 0d 14 c4
       -592.21826 -592.21826 -592.21826 -592.21826
000010 f8 0d 14 c4 f8 0d 14 c4 48 17 07 c4 18 e7 e9 c3
       -592.21826 -592.21826 -540.3638 -467.80542
000020 14 25 dd c3 9c 8a dc c3 93 74 de c3 db 8f dd c3
       -442.28967 -441.0829 -444.91074 -443.12387
000030 a5 6d df c3 0f 30 e5 c3 1c 49 e7 c3 8d 8b e6 c3
       -446.8566 -458.37546 -462.57117 -461.09024
000040 ac df dd c3 89 0f dc c3 76 33 ea c3 42 0e f7 c3
       -443.74744 -440.12137 -468.40204 -494.1114
000050 c6 b1 fc c3 5d 8d 01 c4 5f 3c 06 c4 7d 53 09 c4
       -505.38885 -518.2088 -536.9433 -549.3045
000060 38 05 0a c4 b5 87 0a c4 b0 03 0b c4 be 18 0d c4
       -552.08154 -554.1204 -556.0576 -564.3866
000070 7f 99 0c c4 58 7f 0b c4 fe 79 0b c4 2a b3 0b c4
       -562.3984 -557.98975 -557.9061 -558.79944
000080 ff 73 0c c4 09 96 0d c4 28 13 0c c4 13 ea 0b c4
       -561.81244 -566.3443 -560.2993 -559.6574
000090 d5 bf 0d c4 95 5c 0e c4 42 57 0e c4 4a 5d 0d c4
       -566.9974 -569.4466 -569.3634 -565.45764
0000a0 e1 3c 0d c4 6b 6b 0d c4 97 e7 0d c4 69 b3 0e c4
       -564.95123 -565.6784 -567.6186 -570.8033
0000b0 28 eb 0d c4 bd fd 0c c4 6b 00 0d c4 6d 93 0d c4
       -567.6743 -563.96466 -564.00653 -566.3035
0000c0 d9 27 0e c4 d3 9a 0e c4 62 83 0d c4 aa 78 0d c4
       -568.6226 -570.4191 -566.05286 -565.8854
0000d0 9c c2 0d c4 7b dc 0d c4 79 17 0e c4 b7 d1 0e c4
       -567.0408 -567.445 -568.36676 -571.2768
0000e0 7e 3c 0f c4 4a 08 0f c4 d3 c8 0e c4 d3 ec 0e c4
       -572.9452 -572.1295 -571.1379 -571.7004
0000f0 54 5b 0e c4 1c e2 0e c4 5b 60 0e c4 00 03 0f c4
       -569.427 -571.53296 -569.50555 -572.0469
000100 51 f6 0f c4 85 57 0f c4 3f c4 0e c4 7c 53 0e c4
       -575.8487 -573.3675 -571.06635 -569.30444
000110 73 81 0e c4 a3 e6 0f c4 e1 0b 0f c4 33 52 0e c4
       -570.02264 -575.6037 -572.1856 -569.28436
000120 8c 5d 0e c4 18 6f 0f c4 42 82 0e c4 f1 81 0e c4
       -569.4617 -573.73584 -570.0353 -570.03033
000130 17 f9 0e c4 74 38 0f c4 9c eb 0f c4 fb b1 0f c4
       -571.892 -572.8821 -575.6814 -574.78094
000140 83 10 0f c4 51 27 0f c4 b1 75 10 c4 a6 5b 10 c4
       -572.258 -572.6143 -577.8389 -577.432
000150 7d 29 10 c4 ed a7 0f c4 0f 84 0f c4 e3 a7 0f c4
       -576.64825 -574.62384 -574.0634 -574.6232
000160 a2 78 0f c4 28 e8 0f c4 d3 09 10 c4 66 84 0f c4
       -573.8849 -575.62744 -576.1535 -574.0687
000170 14 e8 0a c4 97 93 07 c4 b3 b4 08 c4 40 49 09 c4
       -555.6262 -542.3061 -546.8234 -549.14453
000180 45 4a 09 c4 16 da 08 c4 b9 cf 06 c4 d1 68 07 c4
       -549.16046 -547.4076 -539.24567 -541.63776
000190 58 86 0b c4 04 eb 0c c4 43 b8 0e c4 72 b4 0f c4
       -558.0991 -563.6721 -570.8791 -574.81946
0001a0 24 bb 0e c4 3c 1a b6 c3 9e 8d d1 c2 6f b6 da c1
       -570.9241 -364.20496 -104.776596 -27.339079
0001b0 26 9b 0d c2 4a f8 83 c2 11 c2 98 c2 f3 7a b1 c2
       -35.401512 -65.98494 -76.379036 -88.740135
0001c0 dd 4c c0 c2 18 d4 9b c2 b9 a0 8f c2 50 81 92 c2
       -96.15012 -77.914246 -71.81391 -73.25256
0001d0 44 31 ba c2 f0 20 06 c3 7a 9a 32 c3 42 8d 67 c3
       -93.09622 -134.12866 -178.60342 -231.55179
0001e0 c1 58 98 c3 74 1b d1 c3 5a 4c 00 c4 b1 2a 06 c4
       -304.6934 -418.21448 -513.193 -536.66705
0001f0 dc 73 08 c4 8d 74 0e c4 00 00 00 00 00 00 00 00
       -545.8103 -569.8211 0.0 0.0
000200 00 00 00 00 00 00 00 00 00 00 00 00 00 00 00 00
       0.0 0.0 0.0 0.0
000210 1e 22 56 42 26 5e af 42 7d 3f ad 42 6b 2f b3 42
       53.533318 87.68388 86.624 89.59261
000220 a6 8a af 42 be 8a b9 42 0c 65 be 42 aa 52 b1 42
       87.7708 92.77098 95.19736 88.66145
000230 5d 40 ad 42 d8 0a ac 42 4e e2 94 42 fe 02 6d 42
       86.62571 86.02118 74.442 59.252922
000240 53 e5 4f 42 30 36 7c 42 a7 f6 8b 42 95 53 7f 42
       51.97395 63.052917 69.98174 63.831623
000250 c4 63 4a 42 b8 0b 2d 42 a2 49 29 42 d8 30 26 42
       50.597427 43.261444 42.321907 41.5477
000260 70 12 1f 42 6f 75 f7 41 d6 ca 06 42 ce 3e 20 42
       39.768005 30.93234 33.698082 40.061333
000270 80 43 20 42 5a 3a 1b 42 62 30 0b 42 ae 4b eb 41
       40.065918 38.806984 34.79725 29.411953
000280 5c 38 10 42 27 c1 14 42 08 f4 eb 41 04 38 dc 41
       36.05504 37.188625 29.494156 27.527351
000290 9e bb dd 41 1d d6 02 42 7c 25 05 42 52 76 fc 41
       27.71661 32.709095 33.286606 31.557774
0002a0 8a 0a f0 41 cc 3c d6 41 a6 be f1 41 bd 2f 0b 42
       30.005146 26.779686 30.21809 34.79662
0002b0 7b 0b 0e 42 19 1b 06 42 52 09 ea 41 b7 66 d9 41
       35.51121 33.526463 29.25455 27.175154
0002c0 07 79 fa 41 0a d4 f7 41 48 a0 fa 41 6a c6 f7 41
       31.309095 30.978535 31.328262 30.971882
0002d0 f1 a9 f0 41 cb 69 d3 41 7e 59 bf 41 1b ac c8 41
       30.08298 26.426657 23.918697 25.084036
0002e0 7a 91 d0 41 29 c5 c9 41 ec 68 e0 41 d5 45 cf 41
       26.071033 25.22127 28.051231 25.909098
0002f0 4a c5 e2 41 24 95 ca 41 71 be a0 41 da 83 bb 41
       28.346333 25.322823 20.092989 23.43938
000300 3c 5d d9 41 54 79 e6 41 42 1a e4 41 66 51 ad 41
       27.170525 28.809242 28.512821 21.664745
000310 80 1b c2 41 0e 55 d9 41 25 44 d8 41 d4 b4 b4 41
       24.263428 27.16653 27.033274 22.588295
000320 63 34 e1 41 6f e1 e1 41 1c 49 ce 41 4f 89 be 41
       28.15058 28.235075 25.785698 23.817045
000330 98 c3 a8 41 6e 04 b1 41 b8 11 c9 41 ab 2f ca 41
       21.095505 22.127163 25.133652 25.273275
000340 7f 18 96 41 ae 7d 94 41 c3 d9 a0 41 d0 fd b6 41
       18.761961 18.561367 20.106329 22.873932
000350 e0 6d bb 41 f3 1d b2 41 4b b5 bb 41 3c 70 ae 41
       23.42865 22.264624 23.463522 21.804802
000360 43 af a7 41 7a 4c b1 41 b6 6c fe 41 38 0a 21 42
       20.960577 22.162342 31.803082 40.25998
000370 0c d5 17 42 fc b4 1b 42 b7 f5 1a 42 45 00 27 42
       37.958054 38.926743 38.739956 41.750263
000380 0e b5 4f 42 ea 94 46 42 16 7a 0e 42 b6 d3 f1 41
       51.92681 49.645424 35.619225 30.228374
000390 8e d6 c5 41 78 36 ab 41 63 6c cf 41 23 8b d4 42
       24.729763 21.401596 25.927923 106.27175
0003a0 41 2f af 42 95 de 9a 42 b4 f6 97 42 4c 8e a3 42
       87.59229 77.43473 75.98184 81.77792
0003b0 d4 ad 8b 42 fb 1e 69 42 a6 ba 45 42 40 e6 70 42
       69.83951 58.280254 49.432274 60.224854
0003c0 a0 39 86 42 55 d1 81 42 f0 59 66 42 fb 23 81 42
       67.11255 64.90885 57.58783 64.570274
0003d0 66 08 a1 42 c5 27 d3 42 ca 12 fe 42 e8 f8 00 43
       80.5164 105.577675 127.0367 128.97229
0003e0 6f e9 ae 42 0e e5 26 42 ce b0 bd 41 5a d5 95 41
       87.455925 41.723686 23.71133 18.729176
0003f0 00 00 00 00 00 00 00 00 00 00 00 00 00 00 00 00
       0.0 0.0 0.0 0.0
