notebooks/data/processed/mfccs/97b1475c-b25f-4a22-ad72-57139ba1315c.npy (npy, 20288 bytes, 1 tensors)

array f4 [40, 126]
00000000: 5253 89c4 5253 89c4 5253 89c4 5253 89c4
00000010: 5253 89c4 5253 89c4 5253 89c4 5253 89c4
00000020: 5253 89c4 5253 89c4 5253 89c4 5253 89c4
00000030: 5253 89c4 5253 89c4 5253 89c4 5253 89c4
00000040: 5253 89c4 5253 89c4 5253 89c4 5253 89c4
00000050: 5253 89c4 5253 89c4 5253 89c4 5253 89c4
00000060: 5253 89c4 5253 89c4 5253 89c4 5253 89c4
00000070: 5253 89c4 5253 89c4 5253 89c4 5253 89c4
00000080: 5253 89c4 5253 89c4 5253 89c4 5253 89c4
00000090: 5253 89c4 5253 89c4 5253 89c4 5253 89c4
000000a0: 5253 89c4 5253 89c4 5253 89c4 5253 89c4
000000b0: 5253 89c4 5253 89c4 5253 89c4 5253 89c4
000000c0: 5253 89c4 5253 89c4 5253 89c4 5253 89c4
000000d0: 5253 89c4 ad0d 89c4 7e54 40c4 e7da 22c4
000000e0: 93a4 1bc4 e316 1ec4 3e1c 25c4 1023 27c4
000000f0: c834 28c4 d174 2ac4 8f89 29c4 f77a 28c4
00000100: e4ac 28c4 b14c 2ac4 cb8a 2dc4 26c8 32c4
00000110: 2185 34c4 7d57 32c4 21c3 34c4 1a63 3ec4
00000120: 903f 4bc4 ae36 50c4 ecad 51c4 2760 51c4
00000130: 315e 4ec4 9ff1 4cc4 5593 4cc4 ba2d 4fc4
00000140: 9a49 52c4 1dba 53c4 be28 53c4 b3c1 52c4
00000150: cc38 53c4 7676 54c4 ba36 55c4 ee2c 55c4
00000160: 4c2b 53c4 eb96 51c4 b0cd 51c4 b270 52c4
00000170: 0537 55c4 60bf 56c4 a5c9 55c4 d226 53c4
00000180: 9b28 51c4 7804 51c4 6a83 52c4 6e5f 54c4
00000190: f922 54c4 707a 53c4 ac96 53c4 2afd 51c4
000001a0: 4277 51c4 9944 53c4 c092 56c4 e69f 57c4
000001b0: 2304 56c4 b088 53c4 cf5c 53c4 f8ec 59c4
000001c0: 1bcb 59c4 5446 54c4 3972 52c4 e13a 53c4
000001d0: 1ed3 56c4 8858 57c4 7d16 55c4 cd60 56c4
000001e0: cc1b 5cc4 23a7 5bc4 b65f 55c4 a128 54c4
000001f0: 4d74 56c4 e8c0 61c4 0000 0000 0000 0000
00000200: 0000 0000 0000 0000 0000 0000 0000 0000
00000210: 0000 0000 0000 0000 0000 0000 0000 0000
00000220: 0000 0000 0000 0000 0000 0000 0000 0000
00000230: 0000 0000 0000 0000 0000 0000 0000 0000
00000240: 0000 0000 0000 0000 0000 0000 0000 0000
00000250: 0000 0000 0000 0000 0000 0000 0000 0000
00000260: 0000 0000 0000 0000 0000 0000 0000 0000
00000270: 0000 0000 0000 0000 0000 0000 0000 0000
00000280: 0000 0000 0000 0000 0000 0000 0000 0000
00000290: 0000 0000 0000 0000 0000 0000 0000 0000
000002a0: 0000 0000 0000 0000 0000 0000 0000 0000
000002b0: 0000 0000 0000 0000 0000 0000 0000 0000
000002c0: 0000 0000 0000 0000 0000 0000 3a46 f63f
000002d0: 98aa 2242 18bb 2042 4c75 1142 acca 1b42
000002e0: c4eb 1e42 9733 2642 7c88 2242 0703 2a42
000002f0: b283 4242 288f 4242 0088 2942 ac1e 2d42
00000300: 00b5 5442 82cf 4042 9c6d 1f42 a83a 2242
00000310: c4d7 2042 c0e2 4a42 ccd6 8942 ce23 8342
00000320: 1aef 7f42 86a4 7842 b246 9142 82c1 9942
00000330: cd9d 9942 2542 9442 7471 8342 e6d1 8142
00000340: aec5 8542 a965 8042 d844 6b42 92f0 6642
00000350: 405d 6942 1e3c 6042 2c58 8242 fcf8 8a42
00000360: 9610 7142 bb7e 7342 a647 6742 c59b 4a42
00000370: 5ac1 5b42 34b6 7542 9879 8242 a610 8542
00000380: 9894 7442 c729 5a42 c073 7242 faa3 7a42
00000390: b65c 8142 1450 8542 06a6 8442 5ccf 7642
000003a0: f4e9 6042 1082 6a42 1d04 7142 f2bb 7542
000003b0: 59f4 7a42 4c5f 5742 4564 5342 242e 6e42
000003c0: 8ae5 8142 62c4 7b42 ef88 5442 7780 6742
000003d0: 4844 7242 2668 5f42 1282 4c42 1cd7 5442
000003e0: 57b1 6542 0ce1 6842 7a59 6f42 971a 6f42
000003f0: 0000 0000 0000 0000 0000 0000 0000 0000
-1098.6038 -1098.6038 -1098.6038 -1098.6038 -1098.6038 -1098.6038 -1098.6038 -1098.6038
-1098.6038 -1098.6038 -1098.6038 -1098.6038 -1098.6038 -1098.6038 -1098.6038 -1098.6038
-1098.6038 -1098.6038 -1098.6038 -1098.6038 -1098.6038 -1098.6038 -1098.6038 -1098.6038
-1098.6038 -1098.6038 -1098.6038 -1098.6038 -1098.6038 -1098.6038 -1098.6038 -1098.6038
-1098.6038 -1098.6038 -1098.6038 -1098.6038 -1098.6038 -1098.6038 -1098.6038 -1098.6038
-1098.6038 -1098.6038 -1098.6038 -1098.6038 -1098.6038 -1098.6038 -1098.6038 -1098.6038
-1098.6038 -1098.6038 -1098.6038 -1098.6038 -1098.6038 -1096.4274 -769.3202 -651.42035
-622.5715 -632.3576 -660.4413 -668.54785 -672.8247 -681.82526 -678.14935 -673.9213
-674.7014 -681.1983 -694.16864 -715.1273 -722.08014 -713.367 -723.0489 -761.54846
-812.99316 -832.8544 -838.7175 -837.5024 -825.47174 -819.7753 -818.30206 -828.7145
-841.15 -846.908 -844.6366 -843.02655 -844.88745 -849.85095 -852.8551 -852.702
-844.6765 -838.3581 -839.21387 -841.76086 -852.8597 -858.99023 -855.1507 -844.60657
-836.63446 -836.0698 -842.05334 -849.4911 -848.54645 -845.9131 -846.35425 -839.9557
-837.8634 -845.07184 -858.29297 -862.4984 -856.06464 -846.13574 -845.45013 -871.70264
-871.1735 -849.0989 -841.7847 -844.92 -859.2987 -861.3833 -852.3514 -857.5125
-880.4343 -878.6115 -853.4955 -848.6348 -857.8172 -903.01416 0.0 0.0
0.0 0.0 0.0 0.0 0.0 0.0 0.0 0.0
0.0 0.0 0.0 0.0 0.0 0.0 0.0 0.0
0.0 0.0 0.0 0.0 0.0 0.0 0.0 0.0
0.0 0.0 0.0 0.0 0.0 0.0 0.0 0.0
0.0 0.0 0.0 0.0 0.0 0.0 0.0 0.0
0.0 0.0 0.0 0.0 0.0 0.0 0.0 0.0
0.0 0.0 0.0 1.9240181 40.666595 40.18271 36.364548 38.94792
39.73024 41.55038 40.633286 42.502956 48.62861 48.6398 42.382812 43.279953
53.176758 48.202644 39.85704 40.55728 40.21071 50.721436 68.919525 65.56993
63.983498 62.160667 72.63808 76.877945 76.808205 74.12919 65.72159 64.90996
66.88609 64.198555 58.81723 57.734932 58.341064 56.05871 65.17221 69.4863
60.266197 60.87376 57.81997 50.65212 54.93882 61.427933 65.23749 66.53252
61.14511 54.5408 60.613037 62.660133 64.681076 66.6564 66.324265 61.7025
56.22847 58.627014 60.254017 61.43354 62.73862 53.843063 52.84792 59.54506
64.94832 62.94178 53.133724 57.875454 60.56668 55.851707 51.12702 53.210068
57.423183 58.219772 59.83738 59.775967 0.0 0.0 0.0 0.0
