notebooks/data/processed/mfccs/a1018eab-83f1-4a61-b0e3-4e756243248f.npy (npy, 20288 bytes, 1 tensors)

array f4 [40, 126]
-516.6955 -516.6955 -516.6955 -516.6955 -450.97775 -342.3313 -263.7121 -240.88608
-235.34645 -265.18414 -328.34613 -348.4184 -348.68237 -308.68774 -264.359 -264.77856
-347.54596 -451.16183 -465.46072 -467.6292 -469.33624 -470.88248 -426.16977 -350.04453
-339.67603 -371.30585 -297.74878 -237.76556 -246.74648 -297.37363 -342.876 -303.67838
-257.14294 -249.46964 -235.89685 -222.12932 -219.92474 -222.50749 -223.67711 -236.88905
-249.4387 -250.65005 -264.01453 -285.21408 -308.99475 -336.3533 -369.11017 -403.2543
-431.98734 -460.2027 -484.2407 -488.9294 -482.8618 -479.6348 -478.16724 -480.3846
-153.58586 53.70602 142.33289 172.02312 172.09377 154.66458 138.0722 143.97092
146.79045 149.69855 153.56433 132.14166 71.68175 -71.12652 -213.34927 -14.473432
111.9983 151.28273 149.77925 126.856255 114.159775 95.088974 67.96642 29.559914
-44.644882 -196.95041 -260.1124 -224.41356 -206.44464 -193.81258 -188.7207 -190.52711
-188.82843 -182.21193 -178.32709 -183.0587 -201.72035 -224.71445 -227.17445 -255.6484
-322.043 -397.4831 -473.54202 -453.1484 -397.64026 -372.6489 -395.87195 -293.10828
-7.001784 116.56401 162.03506 160.15717 142.26003 134.0422 132.0202 130.06651
125.238205 104.22872 60.346928 -10.086273 -18.124203 -33.0275 -79.934784 -184.61415
-382.08807 -170.59111 4.12827 46.30388 59.92505 22.160267 0.0 0.0
0.0 0.0 76.0674 99.00052 150.28671 179.42606 164.28667 155.33096
177.11118 165.48914 168.59467 120.190796 103.06054 96.66725 88.146515 84.70485
69.43612 64.32053 56.47574 41.50388 23.640795 24.608845 39.305267 19.92067
10.667728 23.366646 23.451363 6.73219 45.839375 65.95824 51.964546 32.232517
22.846827 13.677755 1.0220733 -0.2399869 10.988622 6.822775 6.54795 5.856493
5.059831 9.459187 6.454089 10.707899 16.583675 18.642645 21.74168 24.312384
25.179314 34.562088 46.007645 51.695 53.710743 47.506218 47.944885 79.36478
85.162964 76.75717 79.75353 96.78896 109.60668 108.53109 102.82243 99.71462
100.25795 105.1976 102.34321 94.11331 141.2116 88.5018 89.392 95.47276
100.811905 110.06108 124.87477 137.90988 151.61206 171.47726 186.7136 150.87659
42.65667 28.516632 19.833183 19.137749 13.790537 8.323054 4.2301397 7.8021884
7.231996 7.7042894 3.1767232 6.8812904 30.92619 39.84022 31.404099 28.185814
34.708378 86.06877 152.66907 179.22066 154.61961 72.240326 91.77365 88.533356
88.632935 97.99904 109.17909 108.11188 111.44574 108.50369 114.24417 126.03479
120.922195 107.22095 121.10989 126.668434 118.84976 106.06178 82.08386 69.508316
94.13414 109.42633 129.52464 136.40677 0.0 0.0 0.0 0.0
00000000: 832c 01c4 832c 01c4 832c 01c4 832c 01c4
00000010: 277d e1c3 682a abc3 26db 83c3 d6e2 70c3
00000020: b158 6bc3 9297 84c3 4e2c a4c3 8e35 aec3
00000030: 5857 aec3 0858 9ac3 f42d 84c3 a863 84c3
00000040: e2c5 adc3 b794 e1c3 f9ba e8c3 8ad0 e9c3
00000050: 0aab eac3 f570 ebc3 bb15 d5c3 b305 afc3
00000060: 88d6 a9c3 26a7 b9c3 d8df 94c3 fcc3 6dc3
00000070: 19bf 76c3 d3af 94c3 2170 abc3 d5d6 97c3
00000080: 4c92 80c3 3a78 79c3 98e5 6bc3 1b21 5ec3
00000090: bcec 5bc3 eb81 5ec3 57ad 5fc3 99e3 6cc3
000000a0: 4f70 79c3 6aa6 7ac3 dc01 84c3 679b 8ec3
000000b0: 547f 9ac3 392d a8c3 1a8e b8c3 8da0 c9c3
000000c0: 61fe d7c3 f219 e6c3 cf1e f2c3 f776 f4c3
000000d0: 4f6e f1c3 41d1 efc3 6815 efc3 3b31 f0c3
000000e0: fb95 19c3 f7d2 5642 3855 0e43 eb05 2c43
000000f0: 0118 2c43 22aa 1a43 7c12 0a43 8ef8 0f43
00000100: 5bca 1243 d4b2 1543 7890 1943 4424 0443
00000110: 0e5d 8f42 c740 8ec2 6a59 55c3 2d93 67c1
00000120: 21ff df42 6148 1743 7dc7 1543 67b6 fd42
00000130: ce51 e442 8e2d be42 cfee 8742 b47a ec41
00000140: 5c94 32c2 4ef3 44c3 630e 82c3 df69 60c3
00000150: d471 4ec3 05d0 41c3 80b8 3cc3 f186 3ec3
00000160: 14d4 3cc3 4136 36c3 bc53 32c3 070f 37c3
00000170: 69b8 49c3 e6b6 60c3 a92c 63c3 fea5 7fc3
00000180: 8105 a1c3 d6bd c6c3 61c5 ecc3 ff92 e2c3
00000190: f4d1 c6c3 0f53 bac3 9cef c5c3 dc8d 92c3
000001a0: 9d0e e0c0 c620 e942 fa08 2243 3c28 2043
000001b0: 9142 0e43 ce0a 0643 2c05 0443 0711 0243
000001c0: f679 fa42 1b75 d042 4163 7142 6061 21c1
000001d0: 5efe 90c1 291c 04c2 9cde 9fc2 399d 38c3
000001e0: 460b bfc3 5397 2ac3 ca1a 8440 2c37 3942
000001f0: 40b3 6f42 3a48 b141 0000 0000 0000 0000
00000200: 0000 0000 0000 0000 8222 9842 4400 c642
00000210: 6649 1643 126d 3343 6349 2443 ba54 1b43
00000220: 761c 3143 387d 2543 3c98 2843 b061 f042
00000230: ff1e ce42 a255 c142 044b b042 e268 a942
00000240: 4bdf 8a42 1da4 8042 28e7 6142 f903 2642
00000250: 5920 bd41 eade c441 9838 1d42 885d 9f41
00000260: 04af 2a41 e4ee ba41 649c bb41 1a6e d740
00000270: 855b 3742 9eea 8342 b2db 4f42 19ee 0042
00000280: 4dc6 b641 16d8 5a41 4cd3 823f 20bf 75be
00000290: 65d1 2f41 2c54 da40 ce88 d140 6468 bb40
000002a0: 23ea a140 d458 1741 e687 ce40 8e53 2b41
000002b0: 5eab 8441 2324 9541 f6ee ad41 c37f c241
000002c0: 3c6f c941 943f 0a42 d407 3842 aec7 4e42
000002d0: cdd7 5642 5e06 3e42 90c7 3f42 c4ba 9e42
000002e0: 7053 aa42 ac83 9942 cf81 9f42 f393 c142
000002f0: 9f36 db42 eb0f d942 16a5 cd42 e36d c742
00000300: 1284 c842 2c65 d242 b9af cc42 043a bc42
00000310: 2b36 0d43 ec00 b142 b4c8 b242 0ef2 be42
00000320: b29f c942 461f dc42 e2bf f942 eee8 0943
00000330: b09c 1743 2e7a 2b43 aeb6 3a43 68e0 1643
00000340: 6ea0 2a42 1022 e441 5caa 9e41 1c1a 9941
00000350: 0aa6 5c41 3b2b 0541 4e5d 8740 87ab f940
00000360: 836c e740 8a89 f640 6f4f 4b40 8833 dc40
00000370: d668 f741 635c 1f42 983b fb41 8c7c e141
00000380: 61d5 0a42 3623 ac42 48ab 1843 7d38 3343
00000390: 9f9e 1a43 0c7b 9042 1c8c b742 1411 b142
000003a0: 1044 b142 82ff c342 b25b da42 4839 d842
000003b0: 38e4 de42 e401 d942 047d e442 d011 fc42
000003c0: 2ad8 f142 2071 d642 4438 f242 3d56 fd42
000003d0: 14b3 ed42 a21f d442 f02a a442 4204 8b42
000003e0: ae44 bc42 48da da42 4f86 0143 2268 0843
000003f0: 0000 0000 0000 0000 0000 0000 0000 0000
