notebooks/data/processed/mfccs/b006f764-b81d-421c-a8dc-ff15a2af56fd.npy (npy, 20288 bytes, 1 tensors)

array f4 [40, 126]
00000000: 8b4c 72c4 00b0 27c4 56ef 0ec4 7dcf 06c4
00000010: 7e81 06c4 9e75 0bc4 c899 14c4 c375 1fc4
00000020: e4e3 26c4 4ac4 2bc4 89da 29c4 9eb9 27c4
00000030: 7a6a 2ac4 79c9 2bc4 955a 2bc4 d17f 29c4
00000040: d7cb 28c4 2e53 2bc4 104a 2cc4 a9c2 2cc4
00000050: 44e9 29c4 9e5e 24c4 1937 22c4 3bc8 24c4
00000060: b749 26c4 3f61 22c4 0c4c 22c4 f8fe 25c4
00000070: 2af4 29c4 b145 29c4 43df 24c4 5e4f 1fc4
00000080: 93c2 1cc4 fa5a 1bc4 8377 1dc4 40ee 20c4
00000090: afa0 23c4 4d81 22c4 8c08 21c4 b6cb 20c4
000000a0: a910 21c4 c7e5 21c4 92ba 21c4 d779 20c4
000000b0: e786 1dc4 3b8d 19c4 49fb 19c4 889e 20c4
000000c0: 1cba 26c4 9498 2ac4 63a4 2ac4 ab20 2ac4
000000d0: a002 2bc4 0b2a 2ac4 6e2b 28c4 547e 28c4
000000e0: 1076 2ac4 f2c5 2bc4 45f5 2bc4 1704 2cc4
000000f0: aa20 2fc4 57fd 2ec4 0fab 2ec4 8773 2ec4
00000100: 2e6b 2ec4 ac25 2fc4 3694 2fc4 c868 30c4
00000110: 81aa 31c4 f20f 30c4 92be 2fc4 ff4e 30c4
00000120: 42de 31c4 6c22 32c4 d4c5 30c4 0f28 30c4
00000130: f16a 2fc4 d995 30c4 cc8e 30c4 220e 31c4
00000140: e078 30c4 9704 30c4 8e13 31c4 1506 32c4
00000150: 2533 31c4 6d14 31c4 4caf 30c4 5d1d 30c4
00000160: 4366 2ec4 f813 2ec4 b2ec 2cc4 3a35 28c4
00000170: e769 26c4 85b3 26c4 19e2 29c4 1779 2dc4
00000180: 5e2a 2fc4 ba60 30c4 c80b 31c4 fd1c 30c4
00000190: 4fb3 2fc4 492f 30c4 2288 2fc4 00c5 2ec4
000001a0: ba2d 2fc4 d2e7 2fc4 e9dc 30c4 dd53 30c4
000001b0: 7bf5 2fc4 362d 30c4 3b6e 30c4 56bb 30c4
000001c0: 3a5a 2ec4 95f6 28c4 6b0e 24c4 1b06 1fc4
000001d0: fe1b 14c4 ad47 0dc4 014a 10c4 c540 13c4
000001e0: 7929 fdc3 c3ee d2c3 6e52 c0c3 fdf7 b6c3
000001f0: f406 a7c3 1b39 adc3 84fc 6342 50d8 d442
00000200: a6a9 db42 768d da42 7136 d442 a897 d742
00000210: aefb c942 d34c ab42 2e64 9e42 8192 9c42
00000220: b2c1 a742 0539 a342 3cd6 9842 0c53 8942
00000230: 1cf7 8542 6ce1 9442 4a31 9c42 d879 9242
00000240: 0ccf 8942 d8b6 8e42 701c 9b42 f672 af42
00000250: dced b342 18bf a842 844f ab42 7ecc b542
00000260: 7cd6 b042 0293 a342 7c78 a042 45de 9a42
00000270: b3ea b042 0936 cf42 b69e e542 3a97 f442
00000280: a007 e042 6856 d342 7e19 bc42 fb0d ca42
00000290: 3cb7 e642 b487 e242 14f5 d842 bc94 cb42
000002a0: 28af c642 b023 e442 6e35 f842 64ab 0443
000002b0: a038 fd42 a036 d642 4afd aa42 c2e1 9b42
000002c0: 07e1 9942 0777 9b42 ec7f 9742 ae3d 9742
000002d0: ff17 8e42 8636 8a42 f891 8842 54f6 8d42
000002e0: 2255 9242 8ec7 9742 74d3 9842 149c 9142
000002f0: 98a5 9242 1c72 8742 6515 8642 7bf6 8942
00000300: 20d8 8942 5434 8e42 86ac 9142 03ef 8c42
00000310: be3d 9442 66e1 9642 1739 9942 0c95 9542
00000320: 7c49 8f42 d889 8f42 becf 9042 84d1 8c42
00000330: 5ae2 9242 1470 9542 7a79 9042 bb2b 8742
00000340: f32d 8e42 326b 9842 fec9 9442 ffe6 9a42
00000350: 4a66 9742 4069 9242 f4b0 9642 bc9a 9642
00000360: 32e1 9442 df72 9242 4c65 8a42 ae2a 7d42
00000370: 90d7 8142 0449 8842 c865 7f42 4536 8442
00000380: feaf 8f42 ad61 8342 4a50 7f42 a847 8742
00000390: 7c36 9542 de0d 9642 eb6c 8942 e567 8b42
000003a0: 2887 9342 ba13 8d42 6e1a 8f42 d464 9042
000003b0: 1853 8942 7913 7e42 f65b 5442 d93a ba41
000003c0: 12d7 a3c0 4e42 81c1 ea7f 94c1 3cd3 95c1
000003d0: 9a29 41c0 b6e6 ca41 f20c 05c2 e4f5 91c2
000003e0: 1a9a a9c2 caf0 94c2 222e 14c2 7c68 12c1
000003f0: 2515 af40 9442 0ec2 de61 10c2 f4d7 22c2
-969.196 -670.75 -571.7396 -539.242 -538.0233 -557.83777 -594.40283 -637.84
-667.5608 -687.067 -679.4146 -670.90027 -681.6637 -687.148 -685.41534 -677.99713
-675.185 -685.2997 -689.1572 -691.04156 -679.6448 -657.4784 -648.8609 -659.1286
-665.1518 -649.5195 -649.18823 -663.9839 -679.81506 -677.0889 -659.48846 -637.2401
-627.0402 -621.4215 -629.8674 -643.72266 -654.5107 -650.0203 -644.13354 -643.183
-644.2603 -647.5903 -646.91516 -641.90375 -630.10785 -614.2067 -615.92633 -642.47705
-666.90796 -682.38403 -682.56854 -680.51044 -684.041 -680.6569 -672.6786 -673.9739
-681.8447 -687.0929 -687.83234 -688.0639 -700.5104 -699.95844 -698.6728 -697.8051
-697.6747 -700.5886 -702.3158 -705.6372 -710.6641 -704.24915 -702.97766 -705.2343
-711.4728 -712.53784 -707.09106 -704.6259 -701.67096 -706.3414 -706.2312 -708.2208
-705.8887 -704.0717 -708.30554 -712.09503 -708.79913 -708.31915 -706.739 -704.4588
-697.59784 -696.312 -691.69836 -672.83167 -665.6547 -666.805 -679.5328 -693.892
-700.662 -705.51135 -708.1841 -704.45294 -702.8017 -704.73883 -702.1271 -699.0781
-700.7145 -703.6222 -707.4517 -705.31036 -703.83563 -704.7064 -705.72235 -706.9271
-697.4098 -675.85284 -656.2253 -636.0954 -592.4374 -565.11993 -577.1563 -589.012
-506.324 -421.86533 -384.64398 -365.9374 -334.05432 -346.44614 56.996597 106.422485
109.831345 109.27629 106.10633 107.7962 100.99156 85.65005 79.19566 78.28614
83.87831 81.61137 76.41843 68.6622 66.982635 74.44028 78.09627 73.237976
68.90439 71.35712 77.55554 87.72453 89.96457 84.37323 85.655304 90.8994
88.418915 81.787125 80.23532 77.43412 88.4584 103.60554 114.80998 122.295364
112.01489 105.66876 94.04979 101.027306 115.35788 113.265045 108.47867 101.7905
99.3421 114.0697 124.104355 132.6695 126.610596 107.10669 85.494705 77.94093
76.93951 77.732475 75.74985 75.62047 71.04687 69.10649 68.285095 70.98111
73.166275 75.889755 76.412994 72.80484 73.323425 67.72287 67.04179 68.98141
68.92212 71.1022 72.83696 70.46682 74.12059 75.44023 76.6115 74.79111
71.643524 71.769226 72.40575 70.40921 73.44209 74.7189 72.23726 67.58541
71.089745 76.209366 74.394516 77.451164 75.69978 73.20557 75.34561 75.302216
74.439835 73.22436 69.197845 63.29168 64.92102 68.14261 63.849396 66.105995
71.843735 65.69077 63.828407 67.63995 74.606415 75.027084 68.71273 69.70292
73.76398 70.53853 71.55162 72.19693 68.66229 63.519016 53.089806 23.278734
-5.1200037 -16.157375 -18.562458 -18.728142 -3.0181642 25.362652 -33.26264 -72.980255
-84.80098 -74.47029 -37.04505 -9.150509 5.471331 -35.565018 -36.095573 -40.71089
