notebooks/data/processed/mfccs/b06d9b77-c254-487b-979e-ee7fd655b354.npy (npy, 20288 bytes, 1 tensors)

array f4 [40, 126]
000000 cd 0a f8 c3 69 d9 e8 c3 7f be e8 c3 b9 27 e5 c3
       -496.08438 -465.69852 -465.48825 -458.31033
000010 b2 a4 e1 c3 81 9a e4 c3 64 94 e6 c3 6a d5 e7 c3
       -451.28668 -457.20706 -461.1593 -463.6673
000020 8d 62 ea c3 e8 1c e9 c3 e6 b5 e6 c3 0b df e5 c3
       -468.76993 -466.22583 -461.42108 -459.74252
000030 ae b2 e8 c3 a6 37 ec c3 65 ed ee c3 d1 6c ef c3
       -465.39594 -472.43475 -477.85464 -478.85013
000040 c9 1f f1 c3 5b ce f4 c3 09 5d f7 c3 c8 37 fb c3
       -482.24832 -489.61215 -494.72684 -502.4358
000050 aa 47 00 c4 63 20 02 c4 d7 d0 01 c4 f8 48 f0 c3
       -513.11975 -520.50604 -519.2631 -480.57007
000060 3c 62 bd c3 89 c1 9e c3 1b b2 95 c3 07 ba 9d c3
       -378.76746 -317.512 -299.39145 -315.45334
000070 da 89 ac c3 39 73 bc c3 b6 44 d2 c3 d0 b2 e8 c3
       -345.07697 -376.90018 -420.5368 -465.39697
000080 fb 62 f5 c3 ac 1f fd c3 fd 65 00 c4 b6 2b 01 c4
       -490.7733 -506.24744 -513.59357 -516.683
000090 65 80 01 c4 f5 e4 01 c4 0a 9e 01 c4 4d 5c 01 c4
       -518.00616 -519.57745 -518.46936 -517.4422
0000a0 e0 0d 00 c4 86 10 e6 c3 88 77 d7 c3 52 16 d2 c3
       -512.2168 -460.1291 -430.93384 -420.17438
0000b0 07 8a d2 c3 10 f5 d3 c3 61 73 d9 c3 ca 22 e3 c3
       -421.07834 -423.91455 -434.9014 -454.2718
0000c0 9c 12 ea c3 03 fa f4 c3 37 e0 fa c3 1d 35 fb c3
       -468.1454 -489.95322 -501.75168 -502.41495
0000d0 03 70 fd c3 ef f3 00 c4 98 65 03 c4 cc 78 02 c4
       -506.8751 -515.81146 -525.5874 -521.88745
0000e0 20 a4 03 c4 84 e2 03 c4 4d ec fb c3 2d 61 f0 c3
       -526.56445 -527.5393 -503.8461 -480.7592
0000f0 84 55 ee c3 a8 4f 80 c3 85 45 54 c2 b3 0f 4e 41
       -476.6681 -256.6223 -53.06789 12.878833
000100 1c 4c b8 41 c2 8f 90 41 19 65 59 41 be 88 75 41
       23.037163 18.070194 13.587182 15.345884
000110 b6 65 68 41 de a3 34 41 98 ea 47 40 22 d5 36 c1
       14.524832 11.290007 3.1236935 -11.427034
000120 63 c1 2e c1 0f ab f7 c1 58 e0 ae c2 2e b8 02 c3
       -10.922214 -30.958525 -87.43817 -130.71945
000130 b4 61 27 c3 fb 56 50 c3 f7 46 3d c3 00 66 1c c2
       -167.38165 -208.33977 -189.2772 -39.09961
000140 52 eb 1f 41 15 07 33 c0 53 79 3d c1 1f 2c 49 c1
       9.994951 -2.7973073 -11.84212 -12.573272
000150 85 85 d3 c1 6f 01 52 c2 88 06 a2 c2 87 72 f1 c2
       -26.440195 -52.5014 -81.01276 -120.72369
000160 cf 02 2a c3 a3 28 5c c3 39 aa 81 c3 90 8a 86 c3
       -170.01097 -220.15874 -259.32986 -269.08252
000170 1f 1b 85 c3 1c d2 89 c3 8a 68 8f c3 dd 55 92 c3
       -266.21188 -275.64148 -286.8167 -292.6708
000180 be fb 96 c3 ef 04 a5 c3 c5 3d bf c3 40 99 de c3
       -301.96674 -330.03854 -382.48257 -445.19727
000190 22 5f f3 c3 ef f0 01 c4 2e 6a 06 c4 96 5c 08 c4
       -486.74323 -519.7646 -537.65906 -545.44666
0001a0 d6 dc 08 c4 fc cd 04 c3 ab b5 05 c0 16 bc 8f 41
       -547.45056 -132.80463 -2.0892131 17.966839
0001b0 46 22 33 c1 e8 a0 bf c1 7f 5b f0 c1 bf ba 22 c2
       -11.195868 -23.953568 -30.044676 -40.68237
0001c0 47 4a 91 c2 fe e5 cf c2 55 d9 11 c3 af 82 3e c3
       -72.64507 -103.9492 -145.84895 -190.51048
0001d0 cf cd 67 c3 2f 4d 8a c3 5c 74 a1 c3 25 ef ae c3
       -231.80394 -276.603 -322.90906 -349.86832
0001e0 ac be af c3 eb cd b7 c3 80 c0 bf c3 2a 73 c3 c3
       -351.48962 -367.60873 -383.5039 -390.89972
0001f0 5f 50 c5 c3 69 cf c2 c3 c4 6c 3d 42 c4 98 94 42
       -394.6279 -389.6204 47.356216 74.29837
000200 42 72 94 42 f6 51 9e 42 a6 1c ae 42 c4 38 a4 42
       74.22316 79.16008 87.055954 82.11087
000210 0a 4b 9d 42 2f 8b 9b 42 02 b4 92 42 00 40 94 42
       78.64656 77.77184 73.35158 74.125
000220 ab 1b 9c 42 26 22 a3 42 3e 7f 9c 42 4e ce 8f 42
       78.05404 81.566696 78.24852 71.90294
000230 2e 17 86 42 77 89 84 42 ef 4a 80 42 9c 59 6b 42
       67.04527 66.268486 64.146355 58.83751
000240 6e f4 5a 42 42 3b 45 42 e5 15 2f 42 fe ac 1e 42
       54.7387 49.30787 43.77138 39.668938
000250 13 51 25 42 04 16 a5 42 78 4f 0d 43 56 e5 25 43
       41.329174 82.543 141.31042 165.89584
000260 a7 87 27 43 c2 06 20 43 d2 75 1b 43 e7 99 0f 43
       167.52989 160.0264 155.46024 143.60118
000270 9c 82 ea 42 76 83 ae 42 21 fe 75 42 2f 47 43 42
       117.2551 87.25676 61.498173 48.819515
000280 57 17 3a 42 c0 1c fe 41 f4 c3 98 41 4c a3 ca 41
       46.522793 31.764038 19.09568 25.329735
000290 e9 18 10 42 44 f7 2a 42 03 13 4c 42 c0 90 cc 42
       36.024326 42.74147 51.018566 102.282715
0002a0 36 56 01 43 7d 9b 0a 43 04 30 08 43 91 02 06 43
       129.33676 138.60738 136.18756 134.01003
0002b0 04 18 f9 42 2e f3 d1 42 43 58 b6 42 32 86 80 42
       124.546906 104.97496 91.172386 64.2621
0002c0 af d9 2d 42 4a ae 15 42 07 d6 f0 41 55 2b c9 41
       43.46258 37.420204 30.104506 25.146158
0002d0 1e 8c d3 41 b4 1d 18 42 c9 47 00 42 be 17 f3 41
       26.443417 38.029007 32.070103 30.386593
0002e0 90 c1 74 42 7a 08 b2 42 16 3b bb 42 8c 97 b2 42
       61.189026 89.016556 93.6154 89.29599
0002f0 b0 30 a0 42 5f b4 7c 42 d0 4e 5a 42 da d0 5f 42
       80.09509 63.176144 54.576965 55.953957
000300 6c 73 68 42 90 17 56 42 26 22 19 42 ea e3 1e 42
       58.112717 53.52301 38.283348 39.722572
000310 5a 4c 25 42 10 50 5e 42 90 a5 a7 42 83 64 c8 42
       41.324562 55.578186 83.823364 100.19631
000320 ce c4 d9 42 6c a3 bf 42 23 85 b5 42 7e be a1 42
       108.884384 95.81918 90.76003 80.872055
000330 bb 84 9e 42 d1 a1 9e 42 64 ed 94 42 68 ba a8 42
       79.25924 79.31605 74.46365 84.364075
000340 9b d0 b9 42 de ca cd 42 df 90 d0 42 f0 ed c3 42
       92.90743 102.896225 104.28295 97.96472
000350 b9 a3 be 42 dc 9d bc 42 74 c5 b8 42 eb d8 b9 42
       95.31977 94.30832 92.38565 92.92367
000360 d2 14 de 42 d0 44 1a 43 54 eb 35 43 4a dc 3c 43
       111.040665 154.2688 181.91925 188.8605
000370 d8 ea 2e 43 ff f9 0e 43 60 5a c5 42 b6 1e 52 42
       174.91736 142.97655 98.67651 52.52999
000380 e4 46 9c 41 18 44 59 bf 66 d9 48 40 c8 20 46 41
       19.534615 -0.8486953 3.138269 12.383003
000390 49 8a 70 41 2c 3a d5 40 4a d9 a1 3e 06 38 a8 42
       15.033761 6.663351 0.3161109 84.10942
0003a0 e2 5b 99 42 56 f8 a0 42 28 23 ae 42 e4 fb ad 42
       76.67946 80.48503 87.068665 86.991974
0003b0 9f fb 9b 42 51 e6 8d 42 40 12 90 42 76 61 91 42
       77.99145 70.94984 72.035645 72.69035
0003c0 50 c6 99 42 1d 23 b2 42 9a a5 d8 42 82 1d fb 42
       76.88733 89.06858 108.32344 125.55763
0003d0 9f 1e 12 43 a4 8e 2a 43 d0 80 3a 43 34 d0 35 43
       146.11961 170.55719 186.50317 181.8133
0003e0 18 2e 2f 43 54 f0 2b 43 12 d0 26 43 3e 81 21 43
       175.18005 171.93878 166.81277 161.50485
0003f0 98 52 1f 3d 74 31 95 3f b8 55 b1 3e 66 87 88 c0
       0.038897127 1.1655717 0.3463571 -4.266528
