notebooks/data/processed/mfccs/b20ff8d4-2ba6-4365-af37-bde81a8ff325.npy (npy, 20288 bytes, 1 tensors)

array f4 [40, 126]
000000 42 2d 00 c4 f8 9b fb c3 a6 93 f9 c3 57 7f f8 c3
       -512.70715 -503.2185 -499.1535 -496.99484
000010 14 31 f8 c3 42 e3 f8 c3 a1 15 f9 c3 ad 20 f9 c3
       -496.38342 -497.77545 -498.16898 -498.25528
000020 47 a0 f9 c3 5b 31 f9 c3 ea cf f8 c3 b4 21 f8 c3
       -499.25217 -498.3856 -497.62433 -496.2633
000030 70 69 f8 c3 a5 91 f8 c3 3d c3 f8 c3 1b 6a f9 c3
       -496.82373 -497.13785 -497.5253 -498.82895
000040 82 ce f8 c3 e4 fb f7 c3 63 79 f7 c3 cb 7b f7 c3
       -497.61334 -495.9679 -494.94833 -494.96713
000050 c6 09 f7 c3 32 85 f7 c3 fe e8 f8 c3 ab d0 f9 c3
       -494.07635 -495.0406 -497.82025 -499.63022
000060 c4 7e f9 c3 10 61 f8 c3 cb f5 f5 c3 c5 65 f6 c3
       -498.99036 -496.7583 -491.92026 -492.79507
000070 17 3f f8 c3 8f fe f8 c3 00 e6 f8 c3 bd 21 e0 c3
       -496.4929 -497.98874 -497.79688 -448.26358
000080 f7 6d c9 c3 2d 69 cd c3 fc d9 d8 c3 35 fa cd c3
       -402.8591 -410.8217 -433.703 -411.95474
000090 0a 58 c1 c3 81 59 bc c3 fb 6b bc c3 4b 25 b8 c3
       -386.6878 -376.69925 -376.8436 -368.29135
0000a0 43 68 b2 c3 f4 5b a6 c3 30 36 9d c3 63 02 9a c3
       -356.81454 -332.71838 -314.42334 -308.01865
0000b0 ce 1f 96 c3 51 e1 94 c3 57 a1 97 c3 08 1d 94 c3
       -300.24847 -297.76028 -303.26047 -296.2268
0000c0 b0 11 93 c3 2b 52 97 c3 9b 0b 9c c3 4b 9a 9f c3
       -294.13818 -302.64194 -312.09067 -319.2054
0000d0 07 39 a4 c3 f8 f6 aa c3 aa c2 b6 c3 8e 98 c4 c3
       -328.44553 -341.92944 -365.5208 -393.19183
0000e0 6b 97 d1 c3 44 32 dc c3 ff 8f e5 c3 22 51 ef c3
       -419.18295 -440.3927 -459.12497 -478.63385
0000f0 c4 7d f6 c3 a4 ac f7 c3 c9 8c f3 c3 d4 e3 e7 c3
       -492.98254 -495.34875 -487.09988 -463.7799
000100 f7 f9 e3 c3 09 e2 eb c3 67 d4 f3 c3 25 81 f3 c3
       -455.95285 -471.7659 -487.6594 -487.00894
000110 2f de f8 c3 45 8b fa c3 b1 9c f8 c3 43 b7 f8 c3
       -497.7358 -501.08804 -497.22415 -497.43173
000120 21 be f9 c3 cc d3 f9 c3 5b d5 f9 c3 3b 47 fb c3
       -499.48538 -499.65466 -499.66684 -502.5565
000130 6f 99 fb c3 f3 42 fb c3 64 b9 fb c3 19 5d fa c3
       -503.1987 -502.52304 -503.44836 -500.72733
000140 7b 49 ec c2 15 d3 e2 41 3d a4 8f 42 6a 34 33 42
       -118.14352 28.353067 71.82078 44.801186
000150 0c 09 29 41 d5 8f 2c 41 23 e8 cd 40 ac fe 3d c1
       10.564709 10.785115 6.434587 -11.874676
000160 9b 4e 34 3f b9 0d f5 40 97 46 96 41 69 f7 00 42
       0.7043244 7.657925 18.784468 32.24161
000170 5e b3 ed 41 0a f7 a3 41 9e 48 75 41 b3 32 64 41
       29.712582 20.495625 15.330229 14.262378
000180 90 cd 6c 41 ac 60 e4 40 ba aa 5a 40 89 34 59 41
       14.800186 7.136801 3.4166703 13.575326
000190 fe ad f4 3e fb 30 b3 c2 c9 83 5f c2 6e ea e1 40
       0.47788996 -89.595665 -55.878696 7.059867
0001a0 fd 0f d0 40 69 19 98 c1 b9 22 12 c2 27 30 68 c2
       6.5019517 -19.012407 -36.53391 -58.047024
0001b0 9b a3 5b c2 42 a1 1f c2 f9 35 b9 c2 97 9d 56 c3
       -54.90977 -39.90748 -92.605415 -214.61559
0001c0 c5 97 8b c3 50 e9 a9 c3 d8 e9 bd c3 0d e2 24 c3
       -279.1857 -339.82275 -379.8269 -164.88301
0001d0 76 bc 34 c2 90 ca 17 c2 d9 e7 b2 c2 91 01 ff c2
       -45.184044 -37.947815 -89.45283 -127.50306
0001e0 64 b5 16 c3 a7 cd 21 c3 71 9c 36 c3 fb 7d 77 c3
       -150.70856 -161.80333 -182.6111 -247.49211
0001f0 80 fc aa c3 bd df c5 c3 de 7b 26 3f 50 7e 51 41
       -341.97266 -395.74796 0.65032756 13.093338
000200 9d 0c 90 41 06 ed a4 41 26 be b2 41 cc 47 9f 41
       18.006159 20.615734 22.342846 19.910057
000210 0e 63 99 41 2c 55 98 41 ba 1a 8b 41 0a af 94 41
       19.173367 19.041588 17.38805 18.585468
000220 06 6e a4 41 f6 22 ae 41 24 8a a9 41 d9 bf a6 41
       20.553722 21.76707 21.192451 20.843676
000230 14 8e a2 41 5e 06 96 41 7c 5a a3 41 23 0f b7 41
       20.319374 18.753109 20.419182 22.882391
000240 a9 dd be 41 18 45 b7 41 64 01 c0 41 42 9d be 41
       23.858232 22.908737 24.000679 23.826786
000250 1b 74 a3 41 a8 30 8e 41 b0 49 8a 41 f2 9c a3 41
       20.431692 17.773758 17.28598 20.451633
000260 60 ef db 41 c2 3f d5 41 a2 f0 ab 41 02 2b 9d 41
       27.491882 26.656132 21.492496 19.646
000270 9a 18 9f 41 12 31 03 42 16 34 1f 42 da 59 2e 42
       19.887012 32.79792 39.800865 43.587746
000280 f8 d4 f4 41 99 1c 1a 41 b2 90 17 41 98 12 42 41
       30.603989 9.631982 9.472826 12.1295395
000290 72 25 2a 40 3b e6 a1 c0 70 d6 c8 c0 7e 5f 7c 3f
       2.6585355 -5.0593543 -6.2761765 0.9858321
0002a0 e8 03 b2 40 40 16 9c 40 d6 69 f0 40 92 7a d1 3f
       5.562977 4.877716 7.5129194 1.636553
0002b0 21 af 88 c0 39 2a ec 3f c6 59 29 41 2a 89 23 41
       -4.271378 1.8450385 10.584417 10.220987
0002c0 d6 e2 73 41 b6 81 b1 41 50 60 c6 41 ca 5c d6 41
       15.24288 22.188335 24.797028 26.795307
0002d0 ef 6e f4 41 c0 6c f1 41 56 fc 01 42 de 39 0e 42
       30.554167 30.1781 32.49642 35.55651
0002e0 64 0f 0f 42 b6 27 06 42 10 4c b3 41 1c e0 b4 41
       35.76503 33.53878 22.41214 22.609428
0002f0 04 4c 09 42 ea 74 73 42 34 2b 8e 42 0e 70 5a 42
       34.324234 60.864174 71.08438 54.60943
000300 7e 0d 04 42 f5 d5 03 42 0e d0 a4 41 6c 30 80 41
       33.013176 32.958942 20.60159 16.023643
000310 f0 ed a8 41 52 95 a4 41 bb b5 8e 41 75 08 8f 41
       21.11618 20.57291 17.838736 17.87913
000320 b0 14 8d 41 5e e8 55 41 d6 5b 51 41 0f af 61 41
       17.635101 13.36923 13.084921 14.105239
000330 a6 c8 4e 41 6f 39 80 41 37 20 74 42 54 da 7f 42
       12.923986 16.028044 61.03146 63.96321
000340 84 bf 67 42 38 ef 2a 42 60 ba 0b 42 38 99 0a 42
       57.937027 42.733612 34.932007 34.649628
000350 9c 23 14 42 c4 e1 31 42 8a 1b 67 42 8e 6e 72 42
       37.034775 44.470474 57.776894 60.607964
000360 54 38 55 42 a8 61 53 42 3c f9 44 42 f5 41 13 42
       53.305008 52.845367 49.243393 36.81441
000370 10 d7 00 42 7c f1 f1 41 d8 48 06 42 1e 62 3e 42
       32.210022 30.242912 33.571136 47.595818
000380 74 1d b5 42 28 ce d9 42 9a ec ce 42 e4 c6 c9 42
       90.557526 108.90265 103.46211 100.88846
000390 e4 b3 9e 42 d3 26 81 42 aa 5d 89 42 1e c5 5a 42
       79.35135 64.57583 68.68294 54.692497
0003a0 10 28 47 42 92 a7 9a 42 16 a7 c1 42 64 91 be 42
       49.789124 77.327286 96.82634 95.283966
0003b0 6e f0 c0 42 02 90 fe 42 7e db f4 42 50 e8 d7 42
       96.46959 127.281265 122.428696 107.953735
0003c0 73 2d b7 42 a8 de a3 42 b2 5e 98 42 cf 80 99 42
       91.58877 81.934875 76.18495 76.75158
0003d0 60 11 8a 42 1a 98 6f 42 4e e7 ae 42 eb 01 04 43
       69.033936 59.898537 87.45177 132.00749
0003e0 46 45 1d 43 9b 5c 25 43 10 9a 15 43 67 39 fd 42
       157.2706 165.36174 149.6018 126.612114
0003f0 63 96 d9 3e 35 44 22 41 f0 a1 54 41 9b 96 72 41
       0.42497548 10.141652 13.2895355 15.161769
