notebooks/data/processed/mfccs/b3265112-26fc-4103-a947-bb0607e57a20.npy (npy, 20288 bytes, 1 tensors)

array f4 [40, 126]
0	0xc4563043	-856.7541
1	0xc4563043	-856.7541
2	0xc42157e1	-645.3731
3	0xc404b0ba	-530.76135
4	0xc408dadd	-547.41974
5	0xc4279f39	-670.48785
6	0xc42dd5c1	-695.3399
7	0xc430f9fe	-707.9061
8	0xc435bf46	-726.98865
9	0xc43f59d1	-765.4034
10	0xc4523613	-840.8449
11	0xc453ab0d	-846.67267
12	0xc441d87b	-775.3825
13	0xc43c36c1	-752.8555
14	0xc446e639	-795.5972
15	0xc42909dd	-676.1541
16	0xc41854c3	-609.3244
17	0xc42237f2	-648.87415
18	0xc44dd46a	-823.319
19	0xc4563043	-856.7541
20	0xc4563043	-856.7541
21	0xc44bb113	-814.7668
22	0xc43c1e7b	-752.47626
23	0xc4421fd8	-776.49756
24	0xc454d48e	-851.32117
25	0xc4563043	-856.7541
26	0xc456302d	-856.75275
27	0xc4563043	-856.7541
28	0xc454a657	-850.59906
29	0xc412a2e6	-586.5453
30	0xc3f6c0be	-493.5058
31	0xc400d11e	-515.26746
32	0xc41dc699	-631.1031
33	0xc43a2ac6	-744.66833
34	0xc455de54	-855.4739
35	0xc455b934	-854.8938
36	0xc412254c	-584.58276
37	0xc3ebb1cc	-471.38904
38	0xc3eec28b	-477.51987
39	0xc411d50f	-583.32904
40	0xc4305151	-705.27057
41	0xc44d945c	-822.3181
42	0xc4194f90	-613.24316
43	0xc3bcb0d7	-377.38156
44	0xc39f0d67	-318.1047
45	0xc3b4e5d0	-361.7954
46	0xc401be69	-518.97516
47	0xc43afdfc	-747.9685
48	0xc42a2bee	-680.6864
49	0xc3ad4639	-346.5486
50	0xc383f012	-263.87555
51	0xc38fa7e1	-287.31155
52	0xc3d37a59	-422.95584
53	0xc4299e61	-678.4747
54	0xc44102fa	-772.0465
55	0xc3ddf459	-443.90897
56	0xc3a2894a	-325.07257
57	0xc394f222	-297.89166
58	0xc3b25682	-356.67584
59	0xc401146f	-516.3193
60	0xc4409a6c	-770.41284
61	0xc4563043	-856.7541
62	0xc4563043	-856.7541
63	0xc4563043	-856.7541
64	0xc4563043	-856.7541
65	0xc4563043	-856.7541
66	0xc4563043	-856.7541
67	0xc455a96f	-854.6474
68	0xc4563043	-856.7541
69	0xc4563043	-856.7541
70	0xc4563043	-856.7541
71	0xc4563043	-856.7541
72	0xc4563043	-856.7541
73	0xc4563043	-856.7541
74	0xc4563043	-856.7541
75	0xc4563043	-856.7541
76	0xc4563043	-856.7541
77	0xc4563043	-856.7541
78	0xc4563043	-856.7541
79	0xc4563043	-856.7541
80	0xc4563043	-856.7541
81	0xc4563043	-856.7541
82	0xc4563043	-856.7541
83	0xc4563043	-856.7541
84	0xc4563043	-856.7541
85	0xc4563043	-856.7541
86	0xc4563043	-856.7541
87	0xc4563043	-856.7541
88	0xc4563043	-856.7541
89	0xc4563043	-856.7541
90	0xc4563043	-856.7541
91	0xc4563043	-856.7541
92	0xc4563043	-856.7541
93	0xc4563043	-856.7541
94	0xc4563043	-856.7541
95	0xc4563043	-856.7541
96	0xc4563043	-856.7541
97	0xc442588a	-777.3834
98	0xc42cfa42	-691.9103
99	0xc428b16f	-674.7724
100	0xc42b75a1	-685.83795
101	0xc4343020	-720.75195
102	0xc4485d21	-801.45514
103	0xc40ce8b1	-563.6358
104	0xc3c0c79b	-385.55942
105	0xc3a8eec6	-337.86542
106	0xc3b73097	-366.3796
107	0xc3e1b65b	-451.42465
108	0xc4114c89	-581.19586
109	0xc41b3dc5	-620.96515
110	0xc3f71b5a	-494.21368
111	0xc3a21532	-324.1656
112	0xc38d41db	-282.5145
113	0xc3a19cf7	-323.2263
114	0xc3ca7a4f	-404.95554
115	0xc4062074	-536.5071
116	0xc41c1bb1	-624.4327
117	0xc426a451	-666.56744
118	0xc4192001	-612.50006
119	0xc40966f4	-549.60864
120	0xc40c20e8	-560.51416
121	0xc416bdc2	-602.96497
122	0xc41d3e19	-628.9703
123	0xc4257ecd	-661.98126
124	0xc4170443	-604.0666
125	0xc40f0534	-572.0813
126	0x00000000	0.0
127	0x00000000	0.0
128	0x42e51126	114.53349
129	0x430260a4	130.3775
130	0x42faa5dc	125.323944
131	0x429b94b1	77.79041
132	0x4278bf99	62.187107
133	0x426d46b6	59.319054
134	0x425c7404	55.113297
135	0x424168a0	48.352173
136	0x41807e62	16.06171
137	0x41346848	11.275459
138	0x4248f422	50.23841
139	0x424a6b69	50.604893
140	0x42281d7b	42.02879
141	0x42fb903a	125.78169
142	0x430e75f1	142.46071
143	0x4307aabb	135.66692
144	0x4203b1ea	32.923744
145	0x00000000	0.0
146	0x00000000	0.0
147	0x41d10680	26.128174
148	0x4216bb2f	37.682796
149	0x41eea593	29.830847
150	0x404e0260	3.218895
151	0x00000000	0.0
152	0x3af4e96a	0.0018685285
153	0x00000000	0.0
154	0x407c317c	3.9405203
155	0x42e9f3bc	116.97604
156	0x42fc07d0	126.01526
157	0x42f35d46	121.682175
158	0x42b08c57	88.2741
159	0x425dcd64	55.450577
160	0x3fcc5830	1.5964413
161	0x3f4ead6c	0.8073337
162	0x42c4fe22	98.49635
163	0x42e36e73	113.71572
164	0x42e4b142	114.34621
165	0x42b9e42e	92.94566
166	0x4263b120	56.922974
167	0x41e56311	28.673372
168	0x42bd9b28	94.80304
169	0x42d0a888	104.32916
170	0x42d333cd	105.60117
171	0x42ccc17d	102.37791
172	0x42afc324	87.881134
173	0x420888f0	34.133728
174	0x42ac41d4	86.12857
175	0x42ce0722	103.01393
176	0x42d25b9c	105.178925
177	0x42dd0296	110.50505
178	0x42dbc164	109.877716
179	0x429eac1c	79.33615
180	0x417e617c	15.8988
181	0x42d48ea3	106.27859
182	0x42ce7472	103.22743
183	0x42c26f3b	97.21725
184	0x42b41cc6	90.0562
185	0x42a05638	80.168396
186	0x41efac7c	29.95922
187	0x00000000	0.0
188	0x00000000	0.0
189	0x00000000	0.0
190	0x00000000	0.0
191	0x00000000	0.0
192	0x00000000	0.0
193	0x3fac8b5f	1.3480033
194	0x00000000	0.0
195	0x00000000	0.0
196	0x00000000	0.0
197	0x00000000	0.0
198	0x00000000	0.0
199	0x00000000	0.0
200	0x00000000	0.0
201	0x00000000	0.0
202	0x00000000	0.0
203	0x00000000	0.0
204	0x00000000	0.0
205	0x00000000	0.0
206	0x00000000	0.0
207	0x00000000	0.0
208	0x00000000	0.0
209	0x00000000	0.0
210	0x00000000	0.0
211	0x00000000	0.0
212	0x00000000	0.0
213	0x00000000	0.0
214	0x00000000	0.0
215	0x00000000	0.0
216	0x00000000	0.0
217	0x00000000	0.0
218	0x00000000	0.0
219	0x00000000	0.0
220	0x00000000	0.0
221	0x00000000	0.0
222	0x00000000	0.0
223	0x42205e80	40.092285
224	0x42465cd9	49.59067
225	0x42372182	45.782722
226	0x422c9c8c	43.152878
227	0x4226b436	41.675987
228	0x41e7055e	28.87762
229	0x4284a6b6	66.32561
230	0x425856c0	54.084717
231	0x424e4306	51.565453
232	0x42771ee8	61.78018
233	0x42aa24de	85.07201
234	0x42993a77	76.61419
235	0x425f7d88	55.87259
236	0x4292a534	73.32266
237	0x428b133d	69.537575
238	0x428aa5dc	69.323944
239	0x42996206	76.69145
240	0x42bb0ff3	93.53115
241	0x42b07ce8	88.24396
242	0x4274eb6b	61.2299
243	0x425b7a95	54.86971
244	0x4287c9e6	67.89433
245	0x429eb7b9	79.35883
246	0x428fcf9e	71.9055
247	0x425d19d0	55.275208
248	0x425842c0	54.065186
249	0x42764fcd	61.57793
250	0x42a85c2e	84.18004
251	0x42bc4e04	94.152374
252	0x00000000	0.0
253	0x00000000	0.0
254	0xc1fa696a	-31.301472
255	0xc234d88a	-45.211464
