notebooks/data/processed/mfccs/b8910b6c-a5dd-4c24-979b-e15501adeaf9.npy (npy, 20288 bytes, 1 tensors)

array f4 [40, 126]
0	0xc4191ba4	-612.4319
1	0xc4191ba4	-612.4319
2	0xc4191ba4	-612.4319
3	0xc4191ba4	-612.4319
4	0xc4191ba4	-612.4319
5	0xc4191ba4	-612.4319
6	0xc41770ae	-605.7606
7	0xc4139dc8	-590.46533
8	0xc41202b4	-584.04224
9	0xc4115f09	-581.4849
10	0xc4118722	-582.11145
11	0xc411a7d5	-582.6224
12	0xc411dd66	-583.45935
13	0xc4115eed	-581.4832
14	0xc4108ca7	-578.1977
15	0xc411049c	-580.072
16	0xc4129b4b	-586.42645
17	0xc4120135	-584.01886
18	0xc4108499	-578.07184
19	0xc40f863c	-574.0974
20	0xc40dc88b	-567.1335
21	0xc40c903a	-562.25354
22	0xc40c019a	-560.025
23	0xc406070b	-536.11005
24	0xc3f996a5	-499.1769
25	0xc3ebe165	-471.7609
26	0xc3e8300f	-464.37546
27	0xc3f4e56f	-489.79245
28	0xc4052eb7	-532.7299
29	0xc40babc3	-558.6838
30	0xc40e9cb7	-570.44867
31	0xc40f20ad	-572.51056
32	0xc40eb381	-570.80475
33	0xc40e8813	-570.12616
34	0xc40df930	-567.89355
35	0xc40c906d	-562.25665
36	0xc40c642f	-561.56537
37	0xc40d987f	-566.38275
38	0xc40edf5d	-571.49005
39	0xc40fb137	-574.769
40	0xc4108936	-578.1439
41	0xc40ea7fd	-570.6248
42	0xc404a5d6	-530.5912
43	0xc3f89d99	-497.23123
44	0xc3f67400	-492.90625
45	0xc3ff5319	-510.6492
46	0xc409fea5	-551.9788
47	0xc4115992	-581.39954
48	0xc39ba5c0	-311.29492
49	0xc2d08ae2	-104.271255
50	0xc21dd063	-39.453503
51	0xc2642c09	-57.043003
52	0xc2be72d2	-95.22426
53	0xc2ce1a79	-103.051704
54	0xc2da1840	-109.04736
55	0xc2cd80ce	-102.75157
56	0xc2c30202	-97.50392
57	0xc3085ef2	-136.37088
58	0xc35076e6	-208.46445
59	0xc3104261	-144.2593
60	0xc2396710	-46.350647
61	0xc231c67f	-44.443844
62	0xc2bfddec	-95.93344
63	0xc2e59eda	-114.81026
64	0xc2ee29ae	-119.081406
65	0xc3066ecc	-134.4328
66	0xc32749ea	-167.28873
67	0xc33c035e	-188.01315
68	0xc35bda65	-219.8531
69	0xc393b24c	-295.39294
70	0xc3b0408a	-352.5042
71	0xc3cf1834	-414.1891
72	0xc3f35a1b	-486.70395
73	0xc40bff56	-559.9896
74	0xc41277a2	-585.86926
75	0xc415a8a4	-598.635
76	0xc3e78909	-463.0706
77	0xc39c6a9a	-312.83282
78	0xc38e95ec	-285.17126
79	0xc3ae8050	-349.00244
80	0xc3d8062b	-432.0482
81	0xc39af678	-309.92554
82	0xc381b281	-259.39456
83	0xc39c2eae	-312.3647
84	0xc3d7e1ff	-431.7656
85	0xc3fb8b01	-503.08597
86	0xc408f80a	-547.8756
87	0xc40f6d72	-573.7101
88	0xc412e3bb	-587.5583
89	0xc4132ac4	-588.6682
90	0xc411fde1	-583.96686
91	0xc3cc796a	-408.94855
92	0xc385b556	-267.4167
93	0xc37d3864	-253.22028
94	0xc3a1ac32	-323.34528
95	0xc3b98439	-371.033
96	0xc3d23b47	-420.4631
97	0xc3f9e258	-499.7683
98	0xc40c97dd	-562.37286
99	0xc4103fd5	-576.9974
100	0xc41095b0	-578.33887
101	0xc4136137	-589.519
102	0xc41399ad	-590.4012
103	0xc40fedfe	-575.7186
104	0xc412d3a6	-587.307
105	0xc4136ac1	-589.668
106	0xc40aeebe	-555.73035
107	0xc402bd4b	-522.9577
108	0xc40139b8	-516.90186
109	0xc4034e89	-525.2271
110	0xc3ff0d47	-510.10373
111	0xc402335b	-520.8024
112	0xc40f4921	-573.14264
113	0xc4138f9c	-590.2439
114	0xc41311f9	-588.2808
115	0xc413fb12	-591.923
116	0xc414f9a8	-595.9009
117	0xc403bad8	-526.91943
118	0xc3df77e2	-446.93658
119	0xc3d54751	-426.55716
120	0xc3e93a13	-466.4537
121	0xc407ecfc	-543.7029
122	0xc4113d3d	-580.95685
123	0xc413306e	-588.7567
124	0xc4140f62	-592.24036
125	0xc4161ede	-600.4823
126	0x00000000	0.0
127	0x00000000	0.0
128	0x00000000	0.0
129	0x00000000	0.0
130	0x00000000	0.0
131	0x00000000	0.0
132	0x4112883c	9.15826
133	0x41d7d37d	26.978266
134	0x420597c7	33.39822
135	0x4217d48a	37.957558
136	0x421a9432	38.644722
137	0x4215c890	37.44586
138	0x420c476c	35.069748
139	0x420f56f4	35.834915
140	0x4218e2a6	38.221336
141	0x421195f1	36.396427
142	0x41dfe9cb	27.989157
143	0x41dacffb	27.351553
144	0x41f3a9cc	30.457909
145	0x4207c166	33.938866
146	0x421cf62d	39.240406
147	0x4230b60b	44.177776
148	0x42248162	41.12635
149	0x423c3f7c	47.061996
150	0x4277c986	61.9468
151	0x429b1a76	77.55168
152	0x42adeee5	86.96659
153	0x42971706	75.54497
154	0x424b379e	50.804314
155	0x422f5d7a	43.841286
156	0x423ffe4c	47.998337
157	0x424ff144	51.98561
158	0x425b3df0	54.810486
159	0x425ea82a	55.664223
160	0x426bf018	58.984467
161	0x4285e5e6	66.94902
162	0x42881d2a	68.05696
163	0x4276712f	61.61053
164	0x42599dfd	54.404285
165	0x42481c1d	50.027454
166	0x4230f586	44.23977
167	0x424b54a3	50.832653
168	0x42af5074	87.657135
169	0x42d5700e	106.71886
170	0x42cc0816	102.01579
171	0x42ba55b6	93.167404
172	0x4285cc5a	66.899124
173	0x421daf8f	39.421444
174	0x43136b4d	147.41914
175	0x431f7c38	159.48523
176	0x431ae5f6	154.89828
177	0x4312359a	146.20938
178	0x430a2a66	138.16562
179	0x430f00ee	143.00363
180	0x430e0866	142.0328
181	0x4320c35e	160.76315
182	0x4332e40e	178.89084
183	0x433aa179	186.63075
184	0x433a0a88	186.04114
185	0x433832f8	184.1991
186	0x4322878c	162.52948
187	0x43146976	148.41196
188	0x430a8578	138.52136
189	0x43011282	129.0723
190	0x4300c3fa	128.76553
191	0x42fc43e0	126.13257
192	0x42f7fdc2	123.99562
193	0x4313588c	147.34589
194	0x4323e4e2	163.89407
195	0x4321de9d	161.86958
196	0x431a698a	154.41226
197	0x43093c94	137.23663
198	0x42c76206	99.69145
199	0x423a7960	46.61853
200	0x41ccc4a0	25.596008
201	0x41726b82	15.151247
202	0x42af23cc	87.569916
203	0x431be4a1	155.89308
204	0x432798d0	167.59692
205	0x431af5e8	154.96057
206	0x42e282c6	113.25542
207	0x42b02a7b	88.08297
208	0x42d87d80	108.24512
209	0x42fa5d24	125.181915
210	0x42e98df3	116.777245
211	0x429d7ff2	78.74989
212	0x423e0f62	47.515022
213	0x420d69d2	35.35334
214	0x41cc5fbc	25.546745
215	0x41c16c03	24.17774
216	0x41f2cbfe	30.349606
217	0x42d1f6ac	104.98178
218	0x430d4217	141.25816
219	0x4316363f	150.2119
220	0x431ab6b0	154.71362
221	0x431b9839	155.59462
222	0x4301b123	129.69194
223	0x42a654ba	83.16548
224	0x42384cac	46.074875
225	0x420f1aee	35.7763
226	0x4211da58	36.463226
227	0x41d33006	26.398449
228	0x41c28059	24.31267
229	0x4206cf10	33.70221
230	0x41c502ca	24.626362
231	0x41c88074	25.062721
232	0x425d9b6e	55.401787
233	0x42ae037d	87.00681
234	0x42b8645a	92.196
235	0x42a10420	80.50806
236	0x42ad6340	86.69385
237	0x429fa810	79.82825
238	0x423270e8	44.61026
239	0x41e3ea74	28.48948
240	0x41d3772c	26.43319
241	0x418d61f4	17.672829
242	0x415ce570	13.806015
243	0x42815dac	64.68295
244	0x42e7cf5c	115.905
245	0x43044086	132.25204
246	0x42de848a	111.258865
247	0x4280d9b6	64.42522
248	0x4201b376	32.425255
249	0x41bc2767	23.51924
250	0x41a6bad4	20.841225
251	0x4146a341	12.414857
252	0x00000000	0.0
253	0x00000000	0.0
254	0x00000000	0.0
255	0x00000000	0.0
