notebooks/data/processed/mfccs/b94a4d3a-ecf6-4b12-9686-dde6d6bc0ffc.npy (npy, 20288 bytes, 1 tensors)

array f4 [40, 126]
-593.13544 -593.13544 -593.13544 -593.13544 -593.13544 -593.13544 -593.13544 -593.13544
-593.13544 -593.13544 -593.13544 -593.13544 -593.13544 -593.13544 -593.13544 -593.13544
-593.13544 -593.13544 -593.13544 -592.4729 -592.5141 -591.7831 -591.8678 -589.39026
-590.5419 -588.42926 -582.24207 -572.4805 -569.6041 -582.2576 -587.7531 -589.2908
-591.7115 -592.94794 -591.868 -591.2544 -593.004 -593.13544 -593.13544 -593.13544
-593.13544 -593.13544 -592.669 -592.49255 -590.39905 -591.45044 -593.13544 -593.13544
-593.13544 -593.13544 -593.13544 -593.13544 -593.13544 -593.13544 -593.13544 -593.13544
-593.13544 -590.5379 -589.0832 -578.22723 -573.6958 -588.095 -591.37695 -590.7002
-591.7467 -585.0737 -575.2765 -585.2425 -591.81476 -589.9898 -592.2162 -593.13544
-593.13544 -593.13544 -591.5819 -590.8773 -592.5088 -593.02295 -593.13544 -593.13544
-593.13544 -593.13544 -593.13544 -593.13544 -593.13544 -593.13544 -593.13544 -593.13544
-582.1265 -515.32556 -466.21597 -441.23657 -434.0142 -416.7042 -403.45276 -412.03134
-451.1649 -502.25754 -550.1967 -588.81366 -591.1657 -588.2257 -582.1372 -575.83435
-588.5451 -199.33987 -18.14356 30.07329 16.102161 8.750789 26.133144 32.301586
42.719208 14.504216 -87.48858 -253.61732 -457.54703 -571.76965 -591.39996 -593.13544
-593.13544 -593.13544 -466.961 -154.24309 -56.514717 -66.876144 0.0 0.0
0.0 0.0 0.0 0.0 0.0 0.0 0.0 0.0
0.0 0.0 0.0 0.0 0.0 0.0 0.0 0.0
0.0 0.7523857 0.69726133 0.8956674 0.7296472 2.005502 1.5333626 1.973774
6.310213 15.932019 18.31673 8.795724 4.2651315 2.9692166 1.3818913 0.21214435
1.4467924 2.0504549 0.1330132 0.0 0.0 0.0 0.0 0.0
0.47342592 0.6565818 2.9008298 1.7729497 0.0 0.0 0.0 0.0
0.0 0.0 0.0 0.0 0.0 0.0 0.0 2.475404
3.831614 14.352146 18.16053 4.922634 1.5038896 2.232561 1.6008569 8.04355
16.10007 7.315488 1.5534894 3.4160433 1.0984502 0.0 0.0 0.0
0.93130887 1.520756 0.6089276 0.10534205 0.0 0.0 0.0 0.0
0.0 0.0 0.0 0.0 0.0 0.0 3.5474432 32.991142
52.296787 63.570114 66.11116 69.37036 78.04962 83.70045 81.11544 67.89465
36.969498 4.3276253 2.2215152 5.393278 10.3625555 14.114143 3.8003783 62.579037
70.50609 71.93182 69.61769 65.54303 60.326355 52.077545 69.1512 90.67781
116.54782 112.03206 47.570175 5.544601 2.3160102 0.0 0.0 0.0
58.48033 172.13298 175.23978 165.3093 0.0 0.0 0.0 0.0
00000000: ab48 14c4 ab48 14c4 ab48 14c4 ab48 14c4
00000010: ab48 14c4 ab48 14c4 ab48 14c4 ab48 14c4
00000020: ab48 14c4 ab48 14c4 ab48 14c4 ab48 14c4
00000030: ab48 14c4 ab48 14c4 ab48 14c4 ab48 14c4
00000040: ab48 14c4 ab48 14c4 ab48 14c4 441e 14c4
00000050: e720 14c4 1ef2 13c4 8af7 13c4 fa58 13c4
00000060: aea2 13c4 791b 13c4 7e8f 11c4 c11e 0fc4
00000070: aa66 0ec4 7d90 11c4 33f0 12c4 9c52 13c4
00000080: 89ed 13c4 ab3c 14c4 8df7 13c4 48d0 13c4
00000090: 4240 14c4 ab48 14c4 ab48 14c4 ab48 14c4
000000a0: ab48 14c4 ab48 14c4 d12a 14c4 861f 14c4
000000b0: 8a99 13c4 d4dc 13c4 ab48 14c4 ab48 14c4
000000c0: ab48 14c4 ab48 14c4 ab48 14c4 ab48 14c4
000000d0: ab48 14c4 ab48 14c4 ab48 14c4 ab48 14c4
000000e0: ab48 14c4 6da2 13c4 5345 13c4 8b8e 10c4
000000f0: 886c 0fc4 1406 13c4 20d8 13c4 d0ac 13c4
00000100: caef 13c4 b844 12c4 b2d1 0fc4 854f 12c4
00000110: 25f4 13c4 597f 13c4 d60d 14c4 ab48 14c4
00000120: ab48 14c4 ab48 14c4 3ee5 13c4 26b8 13c4
00000130: 9020 14c4 7841 14c4 ab48 14c4 ab48 14c4
00000140: ab48 14c4 ab48 14c4 ab48 14c4 ab48 14c4
00000150: ab48 14c4 ab48 14c4 ab48 14c4 ab48 14c4
00000160: 1988 11c4 d6d4 00c4 a51b e9c3 489e dcc3
00000170: d101 d9c3 235a d0c3 f4b9 c9c3 0304 cec3
00000180: 1b95 e1c3 f720 fbc3 978c 09c4 1334 13c4
00000190: 9bca 13c4 720e 13c4 c888 11c4 66f5 0fc4
000001a0: e322 13c4 0257 47c3 0326 91c1 1996 f041
000001b0: 3ad1 8041 3b03 0c41 ae10 d141 d334 0142
000001c0: 78e0 2a42 4511 6841 27fa aec2 099e 7dc3
000001d0: 05c6 e4c3 42f1 0ec4 99d9 13c4 ab48 14c4
000001e0: ab48 14c4 ab48 14c4 027b e9c3 3b3e 1ac3
000001f0: 120f 62c2 96c0 85c2 0000 0000 0000 0000
00000200: 0000 0000 0000 0000 0000 0000 0000 0000
00000210: 0000 0000 0000 0000 0000 0000 0000 0000
00000220: 0000 0000 0000 0000 0000 0000 0000 0000
00000230: 0000 0000 0000 0000 0000 0000 0000 0000
00000240: 0000 0000 599c 403f b87f 323f 754a 653f
00000250: 29ca 3a3f 255a 0040 3a45 c43f a0a4 fc3f
00000260: 44ed c940 8de9 7e41 aa88 9241 49bb 0c41
00000270: f57b 8840 a507 3e40 d0e1 b03f 5e3c 593e
00000280: 7e30 b93f a73a 0340 9d34 083e 0000 0000
00000290: 0000 0000 0000 0000 0000 0000 0000 0000
000002a0: e264 f23e bf15 283f 32a7 3940 04f0 e23f
000002b0: 0000 0000 0000 0000 0000 0000 0000 0000
000002c0: 0000 0000 0000 0000 0000 0000 0000 0000
000002d0: 0000 0000 0000 0000 0000 0000 056d 1e40
000002e0: 2a39 7540 64a2 6541 c448 9141 3886 9d40
000002f0: 747f c03f 48e2 0e40 e1e8 cc3f 61b2 0041
00000300: f2cc 8041 7a18 ea40 bed8 c63f 74a0 5a40
00000310: 049a 8c3f 0000 0000 0000 0000 0000 0000
00000320: 426a 6e3f 22a8 c23f aee2 1b3f 93bd d73d
00000330: 0000 0000 0000 0000 0000 0000 0000 0000
00000340: 0000 0000 0000 0000 0000 0000 0000 0000
00000350: 0000 0000 0000 0000 4f09 6340 eef6 0342
00000360: e92f 5142 cc47 7e42 ea38 8442 a0bd 8a42
00000370: 6819 9c42 a166 a742 1b3b a242 10ca 8742
00000380: c4e0 1342 e87b 8a40 4e2d 0e40 bc95 ac40
00000390: 07cd 2541 88d3 6141 6639 7340 ef50 7a42
000003a0: 1e03 8d42 18dd 8f42 423c 8b42 0816 8342
000003b0: 304e 7142 684f 5042 6a4d 8a42 0a5b b542
000003c0: 7c18 e942 6a10 e042 dc47 3e42 5f6d b140
000003d0: 8339 1440 0000 0000 0000 0000 0000 0000
000003e0: dceb 6942 0b22 2c43 623d 2f43 2e4f 2543
000003f0: 0000 0000 0000 0000 0000 0000 0000 0000
