notebooks/data/processed/mfccs/c915b23d-83e9-4152-b5bd-e8864c75f655.npy (npy, 20288 bytes, 1 tensors)

array f4 [40, 126]
000000 0e 1e 19 c4 0e 1e 19 c4 0e 1e 19 c4 0e 1e 19 c4
       -612.4696 -612.4696 -612.4696 -612.4696
000010 0e 1e 19 c4 0e 1e 19 c4 78 12 18 c4 5d 46 14 c4
       -612.4696 -612.4696 -608.2886 -593.0994
000020 91 b1 12 c4 43 9b 10 c4 79 1e 03 c4 e3 09 fb c3
       -586.7745 -578.42596 -524.47614 -502.07724
000030 29 30 07 c4 7e ae 10 c4 f5 4e 13 c4 b1 31 14 c4
       -540.7525 -578.72644 -589.2337 -592.7764
000040 6e fe 08 c4 c6 16 e3 c3 3b af cf c3 14 c8 d2 c3
       -547.97546 -454.17792 -415.369 -421.5631
000050 d5 99 e7 c3 5a 95 05 c4 46 09 13 c4 9c 3d 13 c4
       -463.2018 -534.3336 -588.1449 -588.96265
000060 21 68 14 c4 3e f7 15 c4 60 1d 17 c4 ab e8 17 c4
       -593.627 -599.86316 -604.459 -607.63544
000070 be 7e 18 c4 84 c7 18 c4 0f c7 18 c4 13 bf 18 c4
       -609.98035 -611.11743 -611.1103 -610.98553
000080 b3 df 18 c4 b2 eb 18 c4 3b fa 18 c4 52 fd 18 c4
       -611.4953 -611.68274 -611.90985 -611.9581
000090 d1 02 19 c4 02 fe 18 c4 c0 fa 18 c4 87 dd 18 c4
       -612.044 -611.9689 -611.91797 -611.46136
0000a0 e9 ff 18 c4 87 00 19 c4 36 db 18 c4 78 c5 18 c4
       -611.9986 -612.00824 -611.4252 -611.08545
0000b0 de dd 18 c4 6e ec 18 c4 f6 f2 18 c4 ec ff 18 c4
       -611.4667 -611.6942 -611.79626 -611.9988
0000c0 7c 01 19 c4 f7 09 19 c4 8d 09 19 c4 52 0f 19 c4
       -612.0232 -612.1557 -612.14923 -612.2394
0000d0 91 05 19 c4 eb 04 19 c4 5c 19 19 c4 0a 17 19 c4
       -612.087 -612.07684 -612.39624 -612.36
0000e0 dd 2e 17 c4 23 f8 13 c4 54 8b 13 c4 2c 39 16 c4
       -604.73224 -591.87714 -590.177 -600.8933
0000f0 14 9a 18 c4 3d 0c 19 c4 8b 0c 19 c4 96 0e 19 c4
       -610.4075 -612.1912 -612.196 -612.2279
000100 99 15 19 c4 48 17 19 c4 f9 13 19 c4 99 12 19 c4
       -612.33746 -612.3638 -612.3121 -612.2906
000110 37 18 19 c4 0f 19 19 c4 dc 07 18 c4 14 1c b1 c3
       -612.37836 -612.39154 -608.1228 -354.21936
000120 24 23 77 c3 c1 28 77 c3 83 c8 a6 c3 ab a5 e6 c3
       -247.13727 -247.1592 -333.5665 -461.29428
000130 3f 9e 08 c4 8f 2f 12 c4 41 d3 18 c4 b4 e9 18 c4
       -546.4726 -584.7431 -611.30084 -611.6516
000140 5b 09 19 c4 bd e3 02 c4 ab d2 b3 c2 7d 0d f2 41
       -612.1462 -523.5584 -89.91146 30.256586
000150 b5 d9 2a 42 01 d6 77 c1 92 84 5b c2 5c 82 a6 40
       42.712605 -15.489747 -54.879463 5.203413
000160 50 ec 0e 41 b2 24 93 c2 90 ef 51 c3 0a 62 ca c2
       8.9326935 -73.57167 -209.93579 -101.19148
000170 68 e4 35 41 a5 24 84 41 39 f7 4a c2 aa 04 f3 c2
       11.368263 16.517893 -50.74143 -121.50911
000180 5f 4a 1e c3 92 86 42 c3 39 bd 88 c3 05 b5 bd c3
       -158.29051 -194.52567 -273.4783 -379.4142
000190 5e a8 91 c3 e0 d9 6a c3 f0 9a 60 c3 4b 67 71 c3
       -291.31537 -234.85107 -224.60522 -241.40349
0001a0 51 d7 91 c3 4d a3 bd c3 8f ff ef c3 58 23 08 c4
       -291.68216 -379.2758 -479.99655 -544.55225
0001b0 ea 3a 15 c4 e6 d5 18 c4 22 f6 18 c4 7c cb 17 c4
       -596.92053 -611.34216 -611.8458 -607.17944
0001c0 7e 68 12 c3 48 eb 9b 3f af ee a5 41 32 cc fb c1
       -146.40817 1.2181177 20.741545 -31.474705
0001d0 ed dc 92 c2 5c 16 84 c2 12 2e 2f c2 65 9f 5b c2
       -73.431496 -66.04367 -43.79499 -54.90566
0001e0 f2 42 0a c3 b5 af d5 c2 3a 9e 8e c1 60 d4 b9 c1
       -138.2615 -106.84318 -17.82726 -23.228699
0001f0 98 80 cc c2 35 10 23 c3 00 00 00 00 00 00 00 00
       -102.25116 -163.06331 0.0 0.0
000200 00 00 00 00 00 00 00 00 00 00 00 00 00 00 00 00
       0.0 0.0 0.0 0.0
000210 1c 1c ae 40 9e c5 c4 41 1e d1 fa 41 96 0c d4 41
       5.4409313 24.596493 31.352108 26.506145
000220 a2 46 ce 41 e2 0f ed 41 73 17 08 42 ef b9 0e 42
       25.784489 29.632755 34.0229 35.681576
000230 0a 0e ed 41 12 6d c7 41 80 9e 9a c1 79 2f 86 c2
       29.631855 24.928257 -19.327393 -67.09272
000240 64 a0 95 c2 ce cc 67 c2 f6 fe f6 c1 4f 7b f9 bf
       -74.81326 -57.950005 -30.874493 -1.9490756
000250 c4 29 d8 41 60 a9 f1 41 03 96 c5 41 d3 64 85 41
       27.020393 30.207703 24.698248 16.67423
000260 e6 bb 26 41 3b 95 c9 40 1c fb 55 40 ae ef e9 3f
       10.420874 6.2994666 3.3434515 1.827627
000270 78 8a dc 3f 24 b0 e4 3f 6a 42 9e 3f 7a 06 88 3f
       1.7229757 1.7866254 1.2364018 1.0626976
000280 1b 52 41 3f 3f b0 30 3f 60 e6 12 3f b8 d4 2c 3f
       0.7551591 0.6901893 0.57382774 0.67512083
000290 89 75 3e 3f 79 a3 ab 3f 4e 92 22 3f fa 45 1f 3f
       0.74398094 1.3409263 0.63504493 0.6221615
0002a0 54 b2 ad 3f 81 cd e4 3f 64 07 a7 3f cc 88 83 3f
       1.3570046 1.7875215 1.304913 1.0276122
0002b0 4b b7 68 3f a6 83 22 3f 97 2d 1a 3f ca c9 d9 3e
       0.9090468 0.6348213 0.60225815 0.42536765
0002c0 50 c1 e1 3e 12 e3 9e 3e f4 16 fe 3e 54 8f ee 3e
       0.44092798 0.31032616 0.49626887 0.46593726
0002d0 14 8f ca 3d 1e 56 17 3e 18 22 02 c1 fc 1a 27 c1
       0.09890571 0.14778945 -8.133324 -10.444088
0002e0 c7 34 11 c1 9a 76 08 c1 c4 69 cb bf 56 29 c0 3e
       -9.075385 -8.528955 -1.5891652 0.37531537
0002f0 f8 e3 bc 3e f7 d1 a6 3e 22 6b 36 3e 62 17 12 3e
       0.36892676 0.32582065 0.17814305 0.14266732
000300 e4 7c 59 3e 28 1d 77 3e e4 04 fc 3d d6 93 d7 3d
       0.21239048 0.24132216 0.1230562 0.10526244
000310 e5 27 17 c0 f6 89 d6 41 c7 4c 0a 42 bd 75 14 42
       -2.36181 26.817364 34.574978 37.11498
000320 be 7a 17 42 24 72 2e 42 8d 5b 22 42 7d 68 a7 41
       37.869865 43.611465 40.589405 20.92602
000330 5c 23 c9 3f 82 69 8d 3f 4c 3f df 3e dc 41 8e 42
       1.5713916 1.1047823 0.4360298 71.12863
000340 d2 30 93 42 b8 94 63 42 d2 28 28 42 32 32 0c 42
       73.59535 56.895233 42.039864 35.04902
000350 d6 e2 57 42 32 30 9c 42 57 bf a7 42 f4 61 99 42
       53.97152 78.09413 83.87371 76.691315
000360 46 a7 97 42 1e fb 81 42 ae f3 64 42 e0 3b 39 42
       75.826706 64.99046 57.23797 46.30847
000370 04 4e 31 42 7b 8e 35 42 74 51 08 42 2c ec d0 41
       44.326187 45.38914 34.079544 26.115318
000380 dc ef 76 41 15 f9 0a 42 f0 17 b5 41 4a 9f 11 41
       15.433559 34.743244 22.636688 9.101389
000390 12 2b d7 40 48 2b 37 41 e7 13 00 42 26 50 43 42
       6.7240076 11.448067 32.019436 48.82827
0003a0 12 0a 7f 42 e0 e3 53 42 ad d4 40 41 10 f6 bd 3f
       63.759834 52.972534 12.051923 1.4840717
0003b0 b6 51 54 3f 6e 80 cd 40 95 18 70 42 ee 61 37 42
       0.8293718 6.4219275 60.024006 45.845634
0003c0 fc e0 08 42 5c f6 f0 41 06 25 07 42 a2 d6 8c 42
       34.21971 30.120293 33.786156 70.419205
0003d0 f6 23 c0 42 4a a2 bb 42 3a 99 a7 42 85 a5 5a 42
       96.07024 93.81697 83.79927 54.66164
0003e0 b0 bc 22 42 d9 ec 26 42 5f 4f 56 42 36 a7 60 42
       40.684265 41.731297 53.57751 56.163292
0003f0 00 00 00 00 00 00 00 00 00 00 00 00 00 00 00 00
       0.0 0.0 0.0 0.0
