notebooks/data/processed/mfccs/df9b2f5c-0d45-41e0-b846-727fc814afb3.npy (npy, 20288 bytes, 1 tensors)

array f4 [40, 126]
-549.56445 -478.83658 -460.7297 -464.6584 -472.4262 -485.63666 -486.06583 -480.9094
-483.19254 -485.42896 -483.3124 -491.58893 -493.6204 -492.8309 -498.47885 -502.39777
-497.1862 -485.16095 -479.62723 -471.55148 -459.3527 -449.70645 -444.039 -430.25665
-418.1369 -422.12354 -435.70422 -436.45584 -396.81155 -338.51205 -323.46124 -353.96857
-389.00082 -414.0872 -436.05423 -439.75467 -441.5742 -447.78223 -456.3335 -462.19388
-474.44852 -479.18436 -470.88986 -476.46857 -214.81403 -49.374542 -25.444628 -74.71849
-94.48082 -79.274055 -92.843 -69.93243 -88.34432 -141.54411 -277.32318 -118.62181
-35.48352 -61.152836 -133.57622 -164.93407 -191.99425 -207.77432 -200.80704 -224.33368
-258.8218 -364.09308 -467.61642 -490.44415 -387.88144 -98.246864 -38.361385 -77.65788
-154.32684 -161.63564 -182.36906 -250.50912 -361.99158 -466.40628 -530.62976 -551.5419
-556.87 -562.0969 -569.31226 -574.277 -574.4533 -558.35706 -550.25336 -559.87415
-572.2581 -564.7561 -551.14905 -539.63336 -522.5541 -504.79456 -495.09006 -489.3581
-501.6234 -534.22296 -568.54645 -589.43665 -591.14685 -498.73383 -88.12731 -3.7621377
-29.06187 -87.33747 -86.67652 -87.1842 -129.172 -158.67038 -178.53639 -228.67189
-341.41913 -470.6095 -547.74786 -124.21554 -21.731524 -27.81206 -85.08785 -99.23783
-119.35236 -170.49121 -215.91432 -248.80374 -267.38574 -330.47586 37.021336 69.08269
75.06821 80.47902 81.32596 73.3288 74.83612 77.60803 76.547325 71.94735
71.31515 68.87322 72.214005 70.245 67.443565 66.54109 66.852806 71.196655
70.704796 69.387726 59.61946 54.1644 40.333958 35.58014 44.106194 40.24639
29.880249 29.940247 15.623545 18.67386 28.847988 39.96498 46.06086 46.65898
43.733543 42.642796 44.180412 50.861526 61.44835 71.4478 77.65134 81.96858
76.55832 65.85707 63.6107 66.39395 64.659065 47.487194 8.792027 1.4298866
-25.220871 26.154415 66.3561 87.19062 93.77124 79.49849 78.97276 72.20285
-11.281402 -78.818 -85.52446 -48.787064 24.058823 73.21329 99.787766 107.13023
91.16962 87.62081 68.85268 66.47241 66.379654 55.657913 -23.0031 -37.67916
-15.007191 0.14520305 10.495056 32.32035 46.96865 43.441093 38.023537 33.203224
24.81754 19.298058 7.925478 -21.97031 -25.9856 -11.315349 9.158189 20.346283
32.031174 39.523335 44.544235 44.79085 37.98139 33.59527 29.351488 27.46679
13.388353 2.9151373 1.1577905 42.50576 68.48779 66.52021 57.01909 -17.014292
-49.768448 -35.817207 -24.78038 15.669718 38.02888 54.68248 92.62854 109.54922
57.94345 72.005554 69.64033 59.51049 -7.4472136 -36.875004 -30.607372 -13.505899
37.95302 86.920425 116.76709 139.36996 11.021266 -0.35554826 -1.8826004 2.0686789
00000000: 2064 09c4 156b efc3 675d e6c3 4654 e8c3
00000010: 8e36 ecc3 7ed1 f2c3 6d08 f3c3 6774 f0c3
00000020: a598 f1c3 e8b6 f2c3 fda7 f1c3 62cb f5c3
00000030: 69cf f6c3 5b6a f6c3 4b3d f9c3 ea32 fbc3
00000040: d597 f8c3 9a94 f2c3 49d0 efc3 97c6 ebc3
00000050: 25ad e5c3 6dda e0c3 fe04 dec3 da20 d7c3
00000060: 8611 d1c3 d00f d3c3 24da d9c3 593a dac3
00000070: e167 c6c3 8b41 a9c3 0abb a1c3 fafb b0c3
00000080: 1b80 c2c3 290b cfc3 f106 dac3 99e0 dbc3
00000090: 7fc9 dcc3 20e4 dfc3 b02a e4c3 d118 e7c3
000000a0: 6939 edc3 9997 efc3 e771 ebc3 fa3b eec3
000000b0: 64d0 56c3 887f 45c2 998e cbc1 de6f 95c2
000000c0: 2ef6 bcc2 518c 9ec2 9eaf b9c2 67dd 8bc2
000000d0: 4bb0 b0c2 4b8b 0dc3 5ea9 8ac3 5e3e edc2
000000e0: 20ef 0dc2 819c 74c2 8393 05c3 1fef 24c3
000000f0: 87fe 3fc3 3ac6 4fc3 9ace 48c3 6c55 60c3
00000100: 3169 81c3 ea0b b6c3 e7ce e9c3 da38 f5c3
00000110: d3f0 c1c3 657e c4c2 0f72 19c2 d650 9bc2
00000120: ac53 1ac3 b9a2 21c3 7b5e 36c3 5682 7ac3
00000130: ecfe b4c3 0134 e9c3 4ea8 04c4 aee2 09c4
00000140: ae37 0bc4 3486 0cc4 fc53 0ec4 ba91 0fc4
00000150: 039d 0fc4 da96 0bc4 3790 09c4 f2f7 0bc4
00000160: 8510 0fc4 6430 0dc4 8ac9 09c4 89e8 06c4
00000170: 76a3 02c4 b465 fcc3 878b f7c3 d6ad f4c3
00000180: cccf fac3 458e 05c4 f922 0ec4 f25b 13c4
00000190: 66c9 13c4 ee5d f9c3 2f41 b0c2 ddc6 70c0
000001a0: b67e e8c1 c9ac aec2 615a adc2 4f5e aec2
000001b0: 082c 01c3 9eab 1ec3 5189 32c3 01ac 64c3
000001c0: a6b5 aac3 044e ebc3 ddef 08c4 5b6e f8c2
000001d0: 29da adc1 197f dec1 fb2c aac2 c579 c6c2
000001e0: 69b4 eec2 c07d 2ac3 11ea 57c3 c2cd 78c3
000001f0: 60b1 85c3 e93c a5c3 d915 1442 562a 8a42
00000200: ec22 9642 42f5 a042 e4a6 a242 58a8 9242
00000210: 18ac 9542 5037 9b42 3b18 9942 0be5 8f42
00000220: 5ba1 8e42 17bf 8942 926d 9042 717d 8c42
00000230: 1be3 8642 0a15 8542 a3b4 8542 b064 8e42
00000240: db68 8d42 84c6 8a42 547a 6e42 58a8 5842
00000250: f955 2142 1052 0e42 be6c 3042 4efc 2042
00000260: c00a ef41 a085 ef41 0afa 7941 1164 9541
00000270: aec8 e641 24dc 1f42 523e 3842 cca2 3a42
00000280: 26ef 2e42 3992 2a42 beb8 3042 3472 4b42
00000290: 1ccb 7542 46e5 8e42 7c4d 9b42 eaef a342
000002a0: dc1d 9942 d2b6 8342 5b71 7e42 b4c9 8442
000002b0: 7151 8142 e3f2 3d42 25ac 0c41 8606 b73f
000002c0: 58c4 c9c1 3e3c d141 53b6 8442 9961 ae42
000002d0: e08a bb42 3aff 9e42 0ef2 9d42 dc67 9042
000002e0: 9f80 34c1 d1a2 9dc2 860c abc2 f425 43c2
000002f0: 7878 c041 346d 9242 5693 c742 ae42 d642
00000300: d856 b642 db3d af42 92b4 8942 e0f1 8442
00000310: 62c2 8442 b4a1 5e42 5906 b8c1 76b7 16c2
00000320: 741d 70c1 1cb0 143e c0eb 2741 0a48 0142
00000330: e6df 3b42 aec3 2d42 1a18 1842 1ad0 0442
00000340: 528a c641 6c62 9a41 849d fd40 32c3 afc1
00000350: 82e2 cfc1 ab0b 35c1 f187 1241 30c5 a241
00000360: ec1f 0042 e517 1e42 4c2d 3242 d529 3342
00000370: f2ec 1742 8e61 0642 d9cf ea41 fcbb db41
00000380: b236 5641 9c91 3a40 7b32 943f e605 2a42
00000390: c0f9 8842 590a 8542 8c13 6442 451d 88c1
000003a0: e412 47c2 d244 0fc2 383e c6c1 2ab7 7a41
000003b0: 931d 1842 dcba 5a42 d041 b942 3319 db42
000003c0: 18c6 6742 d802 9042 d947 8b42 be0a 6e42
000003d0: 934f eec0 0180 13c2 e6db f4c1 2a18 58c1
000003e0: e4cf 1742 42d7 ad42 c088 e942 b65e 0b43
000003f0: 1b57 3041 6c0a b6be 0df9 f0bf 3c65 0440
