notebooks/data/processed/mfccs/e6e9477e-84fc-49bf-b63d-15f09631f9fe.npy (npy, 20288 bytes, 1 tensors)

array f4 [40, 126]
000000 ef bd 2b c4 ef bd 2b c4 ef bd 2b c4 ef bd 2b c4
       -686.9677 -686.9677 -686.9677 -686.9677
000010 ef bd 2b c4 ef bd 2b c4 40 00 1c c4 d9 c6 0b c4
       -686.9677 -686.9677 -624.0039 -559.107
000020 bb f2 08 c4 87 fd 08 c4 05 91 09 c4 72 36 0b c4
       -547.79266 -547.96136 -550.2659 -556.8507
000030 45 46 0c c4 b7 af 0d c4 e6 a8 10 c4 e0 75 14 c4
       -561.09796 -566.74554 -578.63904 -593.8418
000040 08 9d 16 c4 c1 de 17 c4 53 97 1b c4 a8 44 20 c4
       -602.4536 -607.4805 -622.36444 -641.07275
000050 cf d7 22 c4 dd 22 24 c4 c9 ec 23 c4 16 3f 24 c4
       -651.372 -656.54474 -655.69977 -656.9857
000060 9a 26 25 c4 de 48 25 c4 9c 37 25 c4 ea 0a 24 c4
       -660.60315 -661.13855 -660.8689 -656.17053
000070 ce 03 23 c4 56 42 23 c4 c9 72 24 c4 f4 28 25 c4
       -652.05945 -653.0365 -657.7935 -660.6399
000080 5c 2c 25 c4 d4 4e 25 c4 bd 8b 25 c4 14 ef 25 c4
       -660.6931 -661.2317 -662.1834 -663.7356
000090 e0 52 25 c4 12 22 25 c4 0b 03 26 c4 7d 05 26 c4
       -661.2949 -660.53235 -664.04755 -664.08575
0000a0 4c c4 25 c4 43 c9 26 c4 34 82 27 c4 b1 76 26 c4
       -663.06714 -667.1447 -670.0344 -665.85455
0000b0 ba 4c 26 c4 b2 ad 26 c4 47 31 27 c4 7a 25 27 c4
       -665.19885 -666.714 -668.76996 -668.5856
0000c0 3a d6 26 c4 3a 17 1d c4 91 b9 0d c4 3d 3b 11 c4
       -667.3473 -628.3629 -566.8995 -580.9256
0000d0 be 4f 1f c4 e9 9c 23 c4 eb 7b 21 c4 fa e4 21 c4
       -637.246 -654.4517 -645.9362 -647.57776
0000e0 b3 21 24 c4 0a 26 24 c4 0f 77 24 c4 69 7a 25 c4
       -656.52655 -656.59436 -657.8603 -661.91266
0000f0 c8 c9 25 c4 b9 a1 25 c4 b6 c3 25 c4 5c 77 25 c4
       -663.15283 -662.5269 -663.058 -661.865
000100 f0 25 25 c4 e1 79 26 c4 c6 82 27 c4 6f 0b 27 c4
       -660.5928 -665.90436 -670.04333 -668.17865
000110 af 7a 26 c4 1d d9 26 c4 06 a4 27 c4 22 97 28 c4
       -665.91693 -667.3924 -670.56287 -674.36145
000120 c4 79 28 c4 22 e5 27 c4 c6 7f 27 c4 95 cf 27 c4
       -673.9026 -671.5802 -669.99646 -671.24347
000130 12 77 28 c4 14 c4 28 c4 f3 1e 28 c4 d6 03 27 c4
       -673.8605 -675.0637 -672.4836 -668.05994
000140 87 ae 26 c4 db 11 27 c4 85 e2 27 c4 e5 e8 27 c4
       -666.727 -668.279 -671.53937 -671.639
000150 d1 ad 27 c4 13 d0 27 c4 d7 85 27 c4 b5 3a 27 c4
       -670.7159 -671.25116 -670.09125 -668.9173
000160 b3 7a 27 c4 2d 8f 28 c4 93 f9 28 c4 fd 1b 28 c4
       -669.9172 -674.2371 -675.8996 -672.4373
000170 99 2a 27 c4 50 7e 26 c4 f2 f4 26 c4 b5 32 25 c4
       -668.6656 -665.97363 -667.8273 -660.7923
000180 bc bd 1d c4 d1 a8 14 c4 4c de 11 c4 de 2f 17 c4
       -630.9646 -594.63776 -583.4734 -604.7479
000190 d7 11 1b c4 7c 2f 1c c4 48 91 19 c4 c2 d9 12 c4
       -620.27875 -624.74194 -614.27 -587.40247
0001a0 c0 24 0d c4 21 39 0c c4 64 41 0c c4 ab 5f 0c c4
       -564.5742 -560.89264 -561.0217 -561.4948
0001b0 0c 4d 11 c4 d1 90 17 c4 af cc 1d c4 12 ea 22 c4
       -581.20386 -606.26276 -631.1982 -651.65735
0001c0 fe fa 1f c4 72 4e 20 c4 c2 06 23 c4 4a b1 23 c4
       -639.92175 -641.2257 -652.1056 -654.77014
0001d0 0d d1 24 c4 2c d9 25 c4 db e5 25 c4 a6 33 91 c3
       -659.2664 -663.3933 -663.5915 -290.4035
0001e0 5a 44 09 c3 da d6 c1 c2 f3 30 a4 c2 4d 1d 85 c2
       -137.267 -96.91963 -82.095604 -66.55723
0001f0 e5 cc 9b c2 5a c3 fe c2 00 00 00 00 00 00 00 00
       -77.900185 -127.381546 0.0 0.0
000200 00 00 00 00 00 00 00 00 00 00 00 00 00 00 00 00
       0.0 0.0 0.0 0.0
000210 f0 96 8a 42 ca 10 d4 42 a4 80 e0 42 e6 98 de 42
       69.2948 106.03279 112.25125 111.29863
000220 a2 98 de 42 18 13 e3 42 32 12 e2 42 f2 b0 df 42
       111.29811 113.53729 113.03554 111.8456
000230 a4 3f ce 42 6a 3e b2 42 8e d7 ac 42 bf 04 a7 42
       103.1243 89.1219 86.421005 83.50927
000240 86 02 8a 42 1a 72 4b 42 4d 32 27 42 d5 bb 15 42
       69.00493 50.861427 41.79912 37.43343
000250 de c2 15 42 ce 48 0f 42 ff f0 02 42 4e 5b 01 42
       37.4403 35.8211 32.735348 32.339165
000260 36 c9 ff 41 de 84 17 42 0e c6 27 42 c0 0d 1e 42
       31.973248 37.879753 41.943413 39.513428
000270 3a 9d 10 42 f8 de 03 42 23 32 00 42 80 bb f2 41
       36.15354 32.967743 32.04896 30.341553
000280 e6 dd f2 41 3c b9 e2 41 fe a3 fa 41 51 66 01 42
       30.358349 28.340446 31.330074 32.34992
000290 54 2c eb 41 60 ff e9 41 d2 bd ed 41 46 5a c4 41
       29.396645 29.249695 29.717686 24.544079
0002a0 e2 90 ac 41 a0 8a d5 41 8c 7d d9 41 98 07 c8 41
       21.570744 26.692688 27.186302 25.003708
0002b0 be 90 c0 41 c6 3a c2 41 02 5c ca 41 f0 63 88 42
       24.070675 24.278698 25.294926 68.19519
0002c0 c5 05 da 42 84 df d0 42 10 1a 6b 42 0f 4a 18 42
       109.01127 104.436554 58.77545 38.072323
0002d0 3e 2d 43 42 8a 32 3a 42 1c 3c 12 42 fc 99 11 42
       48.79418 46.549355 36.5587 36.400375
0002e0 56 7d 0d 42 d2 db f8 41 2d d9 e2 41 76 d4 df 41
       35.3724 31.107334 28.356043 27.97874
0002f0 f0 81 e0 41 1d d3 f8 41 2a 77 04 42 4c f5 d7 41
       28.063446 31.103083 33.11637 26.994774
000300 8c ce af 41 a9 74 c0 41 43 8a d6 41 46 40 d0 41
       21.975853 24.056963 26.81751 26.031384
000310 05 7e a8 41 7e 30 7e 41 cf 3c 84 41 0e ed 9f 41
       21.061533 15.886839 16.529692 19.99075
000320 56 a2 ad 41 6e 5c 9c 41 b3 67 88 41 ec f7 77 41
       21.704266 19.545132 17.050634 15.498028
000330 fa 88 96 41 78 89 c9 41 8a 1b d4 41 9e 7f be 41
       18.816883 25.192123 26.513447 23.812313
000340 4e 8f 9b 41 e0 ff 95 41 48 fd a7 41 9b 88 a2 41
       19.444973 18.749939 20.998672 20.316702
000350 de f7 ab 41 2a 2b b9 41 6c 80 b3 41 d3 cf 87 41
       21.496029 23.146076 22.437706 16.976477
000360 58 d6 6d 41 01 a7 97 41 2a 36 ba 41 4c 58 d9 41
       14.86483 18.956545 23.276447 27.168114
000370 64 5a c9 41 cc de 92 41 48 42 5a 41 90 29 ff 41
       25.169136 18.358788 13.641182 31.895294
000380 8c c3 2e 42 26 cc 2e 42 92 ef 1e 42 86 d6 18 42
       43.690964 43.699364 39.733955 38.209496
000390 28 ed 09 42 9a 5f 23 42 1b 1f 46 42 a0 a3 38 42
       34.481598 40.84336 49.530376 46.15979
0003a0 d2 8a 18 42 96 27 22 42 df 30 31 42 6a 3c 3e 42
       38.135567 40.53866 44.297726 47.559
0003b0 1e 78 3a 42 21 33 23 42 e4 50 60 42 f9 d5 5d 42
       46.617302 40.79993 56.078995 55.458958
0003c0 da 3f 28 42 c1 f0 1c 42 7d 97 04 42 0b 0c d9 41
       42.062355 39.23511 33.147938 27.13088
0003d0 a8 30 dd 41 57 10 a9 42 4a f7 9d 42 6d 4e a7 42
       27.648758 84.53191 78.98299 83.653175
0003e0 e6 b7 c6 42 94 b1 be 42 fc 6b b8 42 d8 5b c7 42
       99.35918 95.34683 92.21091 99.67938
0003f0 00 00 00 00 00 00 00 00 00 00 00 00 00 00 00 00
       0.0 0.0 0.0 0.0
