notebooks/data/processed/mfccs/ee2aa73f-0dee-47db-b07a-9194a30c0eb7.npy (npy, 20288 bytes, 1 tensors)

array f4 [40, 126]
00000000: e8e5 0ac4 e8e5 0ac4 e8e5 0ac4 e8e5 0ac4
00000010: e8e5 0ac4 e8e5 0ac4 e8e5 0ac4 e8e5 0ac4
00000020: e8e5 0ac4 e8e5 0ac4 e8e5 0ac4 e8e5 0ac4
00000030: e8e5 0ac4 e8e5 0ac4 e8e5 0ac4 748f 06c4
00000040: d5cc e9c3 a079 d8c3 893a d2c3 3e8c c0c3
00000050: 4569 b1c3 0976 bfc3 a72c b2c3 889d a8c3
00000060: 7007 bbc3 ad09 c8c3 5b21 cac3 31ec c0c3
00000070: 8060 c1c3 910a cbc3 0867 d8c3 a821 e9c3
00000080: f728 f7c3 ada8 fdc3 460e ffc3 7e94 00c4
00000090: 3d03 04c4 35af 06c4 012c 07c4 9315 07c4
000000a0: 88d6 06c4 7199 07c4 22a8 07c4 b91a 07c4
000000b0: a511 08c4 d9bd 08c4 c28a 09c4 a263 0ac4
000000c0: 7db0 0ac4 7845 0ac4 d685 09c4 cc9d 08c4
000000d0: aaae 0ac4 a9b2 0ac4 d87e 0ac4 6a57 0ac4
000000e0: 880f 06c4 cad2 ebc3 6729 eac3 71b0 a2c3
000000f0: 4889 45c2 ced0 ca41 baf9 ba41 e1c4 1142
00000100: 72a7 ef41 9fd5 ed3f 1052 9ec0 b70f 41c0
00000110: fcf9 0bc1 d4b7 473f 4e59 10c1 d1b5 7ac2
00000120: d890 41c3 7ed5 bac3 732d f3c3 71ea 00c4
00000130: 9694 d8c3 1411 9cc2 87b3 d741 c00d 9f41
00000140: 7e1c 07c2 0745 02c2 c44e 96c1 2f6f 12c2
00000150: 672e 05c3 8af7 92c3 6353 c1c3 ca27 edc3
00000160: 8743 06c4 4344 09c4 c29f 0ac4 59c9 0ac4
00000170: 41c6 0ac4 44ca 0ac4 edc9 0ac4 2e7d 0ac4
00000180: b78b 0ac4 9385 0ac4 5a9e 0ac4 27c3 0ac4
00000190: 5799 09c4 7ad3 04c4 09c9 04c4 8229 06c4
000001a0: 272d 01c4 47b3 fec3 6f24 fac3 4369 ebc3
000001b0: a924 e3c3 5d86 ecc3 e5c8 f6c3 b499 00c4
000001c0: ed20 f8c3 cf50 00c4 9e66 07c4 d90e 02c4
000001d0: bc64 f0c3 294e dcc3 316c d4c3 f81e b5c3
000001e0: 30f6 a0c3 6868 9cc3 cfd1 99c3 9acb 99c3
000001f0: da41 9bc3 ab85 acc3 0000 0000 0000 0000
00000200: 0000 0000 0000 0000 0000 0000 0000 0000
00000210: 0000 0000 0000 0000 0000 0000 0000 0000
00000220: 0000 0000 0000 0000 0000 0000 0000 0000
00000230: 0000 0000 08ff b841 c448 3a41 c48c 9ac1
00000240: da24 01c2 c513 09c2 1a74 d2c1 8cda f5c0
00000250: 3c25 dd41 cef6 c641 1dd7 7f40 48a6 38c1
00000260: 9032 8bc1 0448 2ec1 f935 05c1 8093 c1c0
00000270: c87b 8e40 b058 5e41 f623 c540 2b62 b73f
00000280: 65b5 a141 142e d341 b3c9 8341 1c58 6f41
00000290: 030b 6141 5cf0 7e41 cabe 9541 1833 8241
000002a0: ef3e 8241 7f0a 9a41 7562 6741 c29b 2e41
000002b0: 3d24 db40 e865 2b40 4956 963f 4049 6140
000002c0: f91f 80be b7d9 70c0 5d86 9b3f 04b3 8f3f
000002d0: f0be 1040 de19 4440 4e44 3b41 ea4d 02c1
000002e0: 1201 00c2 3e68 7f42 8e26 3942 4c6b 2642
000002f0: 72ff 0742 a49b 3a42 0257 7842 088d 9a42
00000300: 6a17 a042 6403 9b42 2923 a942 dab9 be42
00000310: e27e c342 2dd7 bc42 82b5 ae42 84ed bb42
00000320: 20a0 8542 2540 3642 7e17 d842 8bf7 9242
00000330: b4b3 8542 b954 8b42 1bb7 8642 826a be42
00000340: 12cd e442 edf1 e842 86c6 e242 51e2 f342
00000350: acb5 a742 0784 1842 a4e7 9c41 f8a9 0a41
00000360: 4807 bb3f 3654 1b3f 23f4 2f3f 8c5f 193f
00000370: 03c8 193f c8ad 0e40 4693 fa3f f0d9 0640
00000380: 9632 c73f 829f 3f3f 2a74 0dc0 b4bb d53e
00000390: 2cd5 6141 deb1 4741 b033 f9bf bbe0 c640
000003a0: d2cd 9441 ce58 0741 4f6c 2bc1 0d94 9dc1
000003b0: b20c eac1 aa76 adc1 586c 9bc1 9e97 36c1
000003c0: bbc7 5d41 ff68 1242 f633 7b42 3f7b 4642
000003d0: dc79 e641 1ce7 f241 064e e241 a0db 2241
000003e0: 2288 ee3f a29d bebf 0ac1 a3c1 365b 0fc2
000003f0: 0000 0000 0000 0000 0000 0000 0000 0000
-555.5923 -555.5923 -555.5923 -555.5923 -555.5923 -555.5923 -555.5923 -555.5923
-555.5923 -555.5923 -555.5923 -555.5923 -555.5923 -555.5923 -555.5923 -538.24146
-467.60025 -432.9502 -420.4573 -385.09564 -354.82242 -382.92215 -356.34885 -337.2307
-374.0581 -400.0756 -404.2606 -385.84525 -386.7539 -406.08255 -432.80493 -466.26294
-494.32004 -507.31778 -510.1115 -514.3202 -528.0506 -538.7376 -540.68756 -540.3371
-539.35205 -542.3975 -542.6271 -540.41754 -544.2757 -546.9664 -550.1681 -553.55676
-554.7576 -553.08545 -550.0912 -546.4656 -554.7291 -554.79156 -553.98193 -553.36584
-536.2427 -471.6468 -468.32346 -325.37845 -49.384064 25.351955 23.371937 36.442265
29.95676 1.8580817 -4.9475174 -3.0165842 -8.748531 0.78014874 -9.021803 -62.677555
-193.5658 -373.6679 -486.35507 -515.66315 -433.16083 -78.033356 26.96266 19.881714
-33.777824 -32.56741 -18.78846 -36.608578 -133.18126 -293.9339 -386.65146 -474.31085
-537.0551 -549.0666 -554.4962 -555.14606 -555.0977 -555.1604 -555.1551 -553.95593
-554.18304 -554.0871 -554.47424 -555.04926 -550.39594 -531.3043 -531.1412 -536.64856
-516.7055 -509.4006 -500.28464 -470.82236 -454.2864 -473.0497 -493.5695 -514.4016
-496.25723 -513.26263 -541.6034 -520.232 -480.787 -440.61063 -424.84525 -362.24194
-321.92334 -312.81567 -307.63913 -307.59064 -310.51447 -345.04428 0.0 0.0
0.0 0.0 0.0 0.0 0.0 0.0 0.0 0.0
0.0 0.0 0.0 0.0 0.0 23.124527 11.642765 -19.318733
-32.285988 -34.269306 -26.30669 -7.682928 27.64318 24.87051 3.9975045 -11.540596
-17.399689 -10.892582 -8.325677 -6.0492554 4.45261 13.896652 6.16064 1.4326833
20.213572 26.3975 16.473486 14.959011 14.065188 15.9336815 18.718159 16.274948
16.28073 19.255125 14.461537 10.913027 6.8481736 2.6780949 1.1745082 3.5200958
-0.25024393 -3.7632883 1.215038 1.1226506 2.261654 3.0640788 11.704176 -8.144022
-32.001045 63.8518 46.28765 41.604782 33.99946 46.651993 62.08497 77.27545
80.04573 77.50662 84.56867 95.36299 97.74782 94.420265 87.35451 93.9639
66.812744 45.56264 108.04588 73.48348 66.85098 69.665474 67.35763 95.20802
114.40053 116.47251 113.38774 121.942024 83.85483 38.128933 19.613106 8.666496
1.4611597 0.6067537 0.687319 0.5991142 0.6007082 2.2293568 1.9576194 2.1070518
1.5562313 0.74852765 -2.210215 0.4174477 14.114544 12.480925 -1.9468899 6.214933
18.600498 8.459181 -10.713943 -19.69729 -29.256199 -21.682941 -19.427902 -11.412016
13.861262 36.602535 62.800743 49.620358 28.809502 30.362846 28.288097 10.178619
1.8635294 -1.4891856 -20.469257 -35.839073 0.0 0.0 0.0 0.0
