notebooks/data/processed/mfccs/f1b271ee-6902-4cff-b260-cfdf9bc3fa1f.npy (npy, 20288 bytes, 1 tensors)

array f4 [40, 126]
000000 62 c7 02 c4 21 10 03 c4 97 93 27 c4 08 35 5d c4
       -523.11536 -524.252 -670.3061 -884.8286
000010 bd 22 6b c4 c5 ac 6c c4 ba 7b 50 c4 39 66 15 c4
       -940.5428 -946.6995 -833.9332 -597.5972
000020 4a 2d ff c3 7a e3 f1 c3 ff ea f0 c3 30 01 f4 c3
       -510.35382 -483.77716 -481.8359 -488.00928
000030 64 4d f3 c3 ea 71 ef c3 1a 9b ec c3 6b cd ef c3
       -486.6046 -478.88995 -473.21173 -479.60483
000040 f1 f8 fd c3 a8 11 02 c4 7b c5 03 c4 9f ae 04 c4
       -507.94485 -520.2759 -527.08563 -530.72845
000050 7d 72 04 c4 32 3f 01 c4 f9 ab fd c3 7a f7 d0 c3
       -529.7889 -516.9874 -507.34354 -417.9334
000060 10 fe b1 c3 0c 91 bb c3 40 7b e6 c3 9a 89 ec c3
       -355.98486 -375.13318 -460.9629 -473.075
000070 a6 7a ec c3 32 5a fa c3 db 23 ff c3 d4 b0 f9 c3
       -472.9582 -500.70465 -510.28012 -499.38147
000080 2c 2f f6 c3 58 43 d5 c3 46 a9 b7 c3 6c 99 bd c3
       -492.36853 -426.52612 -367.32245 -379.1986
000090 95 39 d7 c3 79 73 e0 c3 2f 56 e2 c3 08 e4 e7 c3
       -430.44986 -448.90213 -452.6733 -463.7815
0000a0 da 8d ed c3 bc 6a f3 c3 27 59 f5 c3 a6 cd f5 c3
       -475.10822 -486.83386 -490.6965 -491.60663
0000b0 bd c3 f8 c3 d3 a8 fe c3 10 d9 00 c4 44 89 ff c3
       -497.5292 -509.31894 -515.3916 -511.0724
0000c0 ba 0b fc c3 8b 73 fc c3 78 27 00 c4 54 b0 fe c3
       -504.0916 -504.90268 -512.6167 -509.37756
0000d0 c9 b8 fb c3 d2 ee fd c3 a1 46 00 c4 3f a1 01 c4
       -503.44363 -507.86578 -513.1036 -518.5195
0000e0 50 51 e3 c3 02 6a ba c3 41 67 b8 c3 ba ff d7 c3
       -454.63525 -372.8282 -368.80667 -431.99786
0000f0 aa c6 fb c3 fb 68 06 c4 08 f6 07 c4 46 a2 01 c4
       -503.55206 -537.6403 -543.84424 -518.5355
000100 01 e1 fc c3 62 fb 00 c4 a8 cd 05 c4 e8 a1 0c c4
       -505.75784 -515.92786 -535.2134 -562.5298
000110 f4 55 0e c4 5c 3c 0d c4 d2 a7 0d c4 b9 79 0f c4
       -569.343 -564.9431 -566.6222 -573.9019
000120 02 43 11 c4 bf 7b 12 c4 73 3f 13 c4 01 81 14 c4
       -581.047 -585.93353 -588.9914 -594.0157
000130 35 d8 16 c4 69 5a 17 c4 75 d2 18 c4 04 d2 19 c4
       -603.37823 -605.41266 -611.2884 -615.2815
000140 5c ec 18 c4 40 fd 15 c4 51 bf 14 c4 13 45 17 c4
       -611.6931 -599.95703 -594.9893 -605.0793
000150 67 7d 1a c4 79 2e 1e c4 15 69 19 c4 3f 50 15 c4
       -617.9594 -632.72614 -613.6419 -597.25385
000160 32 ca 16 c4 e2 96 19 c4 d1 62 1a c4 01 64 1b c4
       -603.1593 -614.35754 -617.544 -621.56256
000170 66 7b 1c c4 7e 64 1e c4 71 d0 20 c4 4d 9f 22 c4
       -625.9281 -633.5702 -643.2569 -650.4891
000180 b6 e0 22 c4 11 c3 22 c4 86 43 22 c4 03 d0 21 c4
       -651.5111 -651.0479 -649.05505 -647.2502
000190 cb 2e 1f c4 44 e5 1e c4 a2 d9 21 c4 71 0b 22 c4
       -636.73114 -635.5823 -647.4005 -648.1788
0001a0 9e 16 23 c4 71 05 27 c4 68 24 26 c4 fc bd 24 c4
       -652.3534 -668.085 -664.56885 -658.9685
0001b0 09 b8 25 c4 45 1c 27 c4 66 f3 25 c4 e8 ec 25 c4
       -662.87555 -668.4417 -663.8031 -663.70166
0001c0 bf ba 29 c4 a3 06 2c c4 ae dd 2c c4 51 7a 2c c4
       -678.9179 -688.1037 -691.46375 -689.9112
0001d0 e6 1b 2d c4 97 c1 2b c4 02 68 2a c4 8a ec 2a c4
       -692.4359 -687.02484 -681.6251 -683.6959
0001e0 bd 11 2a c4 de 19 27 c4 c3 25 25 c4 4e f4 24 c4
       -680.27716 -668.4042 -660.59 -659.81726
0001f0 31 47 28 c4 16 88 33 c4 2d 6d ff 42 04 08 fe 42
       -673.11237 -718.12634 127.713234 127.015656
000200 69 23 d3 42 ae 47 31 42 24 e0 0a 41 00 00 00 00
       105.56916 44.32 8.679722 0.0
000210 6f 6f 81 42 2f 2f b3 42 8d e6 c2 42 7c 77 d7 42
       64.71764 89.592155 97.450294 107.73337
000220 12 08 dc 42 cc ca be 42 26 73 a2 42 70 0c a1 42
       110.01576 95.39609 81.2249 80.52429
000230 40 65 99 42 14 25 8b 42 68 19 8a 42 04 8e 9c 42
       76.697754 69.57242 69.04962 78.277374
000240 20 73 a3 42 4a da aa 42 25 84 b7 42 f8 dc ce 42
       81.72485 85.426346 91.758095 103.43158
000250 5a 66 ad 42 46 44 5f 41 38 d9 b9 c0 5c 9c 73 bf
       86.699905 13.954168 -5.807766 -0.9516046
000260 20 b2 17 42 3a b8 04 42 38 b8 d4 41 12 42 3b 42
       37.92395 33.17991 26.58995 46.81452
000270 ea c8 66 42 50 99 63 42 98 eb 53 42 f4 62 88 41
       57.696205 56.89972 52.980072 17.048317
000280 36 b8 cf 40 cf ca a7 41 a8 3d 55 42 50 25 99 42
       6.4912367 20.974028 53.31021 76.572876
000290 cc 24 ac 42 44 71 a0 42 b3 8b a1 42 cc e2 95 42
       86.07187 80.22122 80.77285 74.94296
0002a0 6e 74 8c 42 52 df a2 42 f2 f1 b8 42 a1 91 b3 42
       70.2274 81.43617 92.47255 89.78443
0002b0 e4 5e ab 42 7e ef a7 42 66 ed ab 42 f4 ec a7 42
       85.68533 83.96776 85.96367 83.9628
0002c0 67 52 a6 42 24 ad bf 42 25 e5 d3 42 95 92 d8 42
       83.16094 95.838165 105.94755 108.28629
0002d0 09 da c7 42 c4 1e cb 42 85 fc d6 42 7a 51 c9 42
       99.92585 101.56009 107.4932 100.659134
0002e0 7a 12 cb 42 42 84 cc 42 7a 4e d4 42 0e a8 c5 42
       101.53609 102.258316 106.153275 98.82823
0002f0 7a 5c b7 42 4f 88 dc 42 00 22 f8 42 be 68 f1 42
       91.68062 110.26623 124.06641 120.704575
000300 9e 1d ee 42 5c 72 cb 42 2e ec b3 42 b2 77 bc 42
       119.057846 101.72336 89.96129 94.23378
000310 64 38 bf 42 a3 55 b9 42 1b 42 b5 42 44 16 b6 42
       95.61014 92.66726 90.62911 91.04349
000320 b4 df b3 42 26 6e b1 42 b0 41 97 42 aa c1 8f 42
       89.93692 88.71513 75.628296 71.87825
000330 26 f6 98 42 c5 9b a1 42 16 48 c0 42 44 d6 d0 42
       76.48076 80.80424 96.14079 104.41849
000340 ba b7 c8 42 12 8b b4 42 89 87 a9 42 ec 1b 9b 42
       100.35884 90.27162 84.76472 77.554535
000350 d8 6c b3 42 bc 67 c0 42 7a 73 b3 42 b8 b3 b1 42
       89.712585 96.20261 89.72554 88.85101
000360 4c cc c5 42 d4 1b c6 42 48 13 b4 42 be 74 ab 42
       98.89902 99.05435 90.03766 85.72801
000370 ff 7b ac 42 48 6e aa 42 14 cd a2 42 10 b6 a2 42
       86.24218 85.21539 81.40054 81.35559
000380 bf 28 b1 42 7e fc aa 42 e4 4d a8 42 0b 62 b0 42
       88.57958 85.49315 84.15213 88.19149
000390 e2 08 a9 42 77 ec a2 42 7e 25 a2 42 9a 30 99 42
       84.51735 81.461845 81.07323 76.594925
0003a0 f5 60 9c 42 28 c3 9f 42 e0 10 94 42 47 0c 8e 42
       78.18937 79.881165 74.03296 71.02398
0003b0 d4 0e 9c 42 8a 43 a1 42 50 bb 8f 42 c0 9a 85 42
       78.02896 80.63191 71.865845 66.802246
0003c0 68 40 7f 42 9c 6c 7f 42 98 52 82 42 9b 87 83 42
       63.812897 63.856064 65.161316 65.764854
0003d0 d6 87 7e 42 9c 52 78 42 9f eb 5e 42 5a 91 66 42
       63.632652 62.080673 55.7301 57.641945
0003e0 32 f8 6e 42 36 eb 81 42 c6 61 84 42 18 92 76 42
       59.74238 64.9594 66.19096 61.64267
0003f0 ae 1b 2e 41 e6 e2 80 41 34 94 f8 41 7a ad ad 41
       10.881758 16.11079 31.072365 21.709705
