notebooks/data/processed/mfccs/f30d20ca-679d-404e-bd69-b60ff52d088c.npy (npy, 20288 bytes, 1 tensors)

array f4 [40, 126]
-519.71594 -448.68423 -407.1548 -434.45502 -487.89413 -520.82214 -528.48584 -541.0522
-549.6505 -549.6505 -549.6505 -549.6505 -549.6505 -549.6505 -549.6505 -549.6505
-549.6505 -549.6505 -549.6505 -500.99057 -449.1113 -443.9921 -488.71176 -549.6015
-549.6505 -527.1793 -491.68552 -477.58432 -484.09253 -493.08838 -503.77133 -524.48376
-549.6505 -549.6505 -549.6505 -549.6505 -549.6505 -549.6505 -549.6505 -549.6505
-549.6505 -549.6505 -549.6505 -549.6505 -549.6505 -549.6505 -549.6505 -549.6505
-549.6505 -549.6505 -549.6505 -549.6505 -549.6505 -549.6505 -549.6505 -549.6505
-549.6505 -549.6505 -549.6505 -549.6505 -383.99832 -168.17989 -64.00008 26.68661
37.481136 -39.7196 -159.10658 -136.14534 -80.94882 -87.25839 -123.491295 -85.57998
-50.01873 -41.669434 -59.312897 -69.58036 -81.36072 -137.16823 -244.63792 -261.93796
-169.00284 -151.04924 -177.38437 -158.88887 -189.55873 -265.84836 -294.5344 -321.72397
-368.07886 -401.56793 -392.63242 -322.52512 -239.64334 -196.28009 -168.83774 -133.43877
-131.44237 -192.61525 -338.00613 -494.83643 -544.2114 -392.4838 -310.6644 -234.9111
-193.98402 -231.86249 -278.34576 -242.88327 -238.83176 -221.39375 -196.02669 -212.82437
-198.01225 -182.04135 -176.78836 -184.60922 -193.4715 -187.08559 -187.56357 -269.2345
-546.2876 -549.6505 -549.6505 -549.6505 -549.6505 -549.6505 12.8252945 54.53981
76.91193 80.19571 54.82024 27.50417 22.879642 10.675844 0.0 0.0
0.0 0.0 0.0 0.0 0.0 0.0 0.0 0.0
0.0 33.97973 60.526497 62.30229 38.80291 0.047171287 0.0 12.757651
38.152252 48.882095 39.82534 30.331081 25.225073 13.602329 0.0 0.0
0.0 0.0 0.0 0.0 0.0 0.0 0.0 0.0
0.0 0.0 0.0 0.0 0.0 0.0 0.0 0.0
0.0 0.0 0.0 0.0 0.0 0.0 0.0 0.0
0.0 0.0 141.80635 215.1123 175.82681 111.95471 95.33651 106.78566
121.18463 167.47842 177.12543 187.87 200.5835 173.47159 156.51598 160.8818
170.0351 164.57861 176.73352 179.59819 162.2385 151.27634 161.96191 154.53348
145.1018 141.01381 123.122375 79.44296 45.482353 23.79893 15.295282 18.362316
50.565784 101.65929 113.3978 120.48963 145.11514 169.37184 170.45303 155.27693
108.11635 40.386925 6.5095787 58.679806 96.43181 132.58377 147.17921 140.0094
113.53139 120.89467 109.535126 105.93335 143.26608 161.561 159.6188 159.02142
156.96538 149.45746 151.91849 173.01411 175.19891 149.84677 1.3610077 0.0
0.0 0.0 0.0 0.0 -32.68815 -56.378517 -44.664772 -14.791147
00000000: d2ed 01c4 9557 e0c3 d093 cbc3 3e3a d9c3
00000010: 73f2 f3c3 9e34 02c4 181f 04c4 5743 07c4
00000020: a269 09c4 a269 09c4 a269 09c4 a269 09c4
00000030: a269 09c4 a269 09c4 a269 09c4 a269 09c4
00000040: a269 09c4 a269 09c4 a269 09c4 cb7e fac3
00000050: 3f8e e0c3 fdfe ddc3 1b5b f4c3 7f66 09c4
00000060: a269 09c4 7acb 03c4 bfd7 f5c3 cbca eec3
00000070: d80b f2c3 508b f6c3 bbe2 fbc3 f61e 03c4
00000080: a269 09c4 a269 09c4 a269 09c4 a269 09c4
00000090: a269 09c4 a269 09c4 a269 09c4 a269 09c4
000000a0: a269 09c4 a269 09c4 a269 09c4 a269 09c4
000000b0: a269 09c4 a269 09c4 a269 09c4 a269 09c4
000000c0: a269 09c4 a269 09c4 a269 09c4 a269 09c4
000000d0: a269 09c4 a269 09c4 a269 09c4 a269 09c4
000000e0: a269 09c4 a269 09c4 a269 09c4 a269 09c4
000000f0: c9ff bfc3 0d2e 28c3 0a00 80c2 2d7e d541
00000100: afec 1542 dfe0 1ec2 491b 1fc3 3525 08c3
00000110: cce5 a1c2 4c84 aec2 8bfb f6c2 f328 abc2
00000120: 2e13 48c2 80ad 26c2 6840 6dc2 2529 8bc2
00000130: b0b8 a2c2 112b 09c3 4fa3 74c3 0ff8 82c3
00000140: ba00 29c3 9b0c 17c3 6662 31c3 8de3 1ec3
00000150: 098f 3dc3 97ec 84c3 6744 93c3 abdc a0c3
00000160: 180a b8c3 b2c8 c8c3 f350 c4c3 3743 a1c3
00000170: b2a4 6fc3 b447 44c3 76d6 28c3 5370 05c3
00000180: 3f71 03c3 819d 40c3 c900 a9c3 106b f7c3
00000190: 880d 08c4 ed3d c4c3 0b55 9bc3 3ee9 6ac3
000001a0: e9fb 41c3 ccdc 67c3 422c 8bc3 1ee2 72c3
000001b0: eed4 6ec3 cd64 5dc3 d506 44c3 0ad3 54c3
000001c0: 2303 46c3 960a 36c3 d2c9 30c3 f69b 38c3
000001d0: b478 41c3 e915 3bc3 4690 3bc3 049e 86c3
000001e0: 6892 08c4 a269 09c4 a269 09c4 a269 09c4
000001f0: a269 09c4 a269 09c4 6834 4d41 c428 5a42
00000200: e8d2 9942 3464 a042 ed47 5b42 8a08 dc41
00000210: 8209 b741 42d0 2a41 0000 0000 0000 0000
00000220: 0000 0000 0000 0000 0000 0000 0000 0000
00000230: 0000 0000 0000 0000 0000 0000 0000 0000
00000240: 0000 0000 3eeb 0742 221b 7242 8c35 7942
00000250: 2e36 1b42 ae36 413d 0000 0000 571f 4c41
00000260: e89b 1842 4487 4342 264d 1f42 0ea6 f241
00000270: f3cc c941 24a3 5941 0000 0000 0000 0000
00000280: 0000 0000 0000 0000 0000 0000 0000 0000
00000290: 0000 0000 0000 0000 0000 0000 0000 0000
000002a0: 0000 0000 0000 0000 0000 0000 0000 0000
000002b0: 0000 0000 0000 0000 0000 0000 0000 0000
000002c0: 0000 0000 0000 0000 0000 0000 0000 0000
000002d0: 0000 0000 0000 0000 0000 0000 0000 0000
000002e0: 0000 0000 0000 0000 6dce 0d43 c01c 5743
000002f0: aad3 2f43 d0e8 df42 4bac be42 4292 d542
00000300: 885e f242 7a7a 2743 1c20 3143 b8de 3b43
00000310: 6095 4843 ba78 2d43 1784 1c43 bee1 2043
00000320: fc08 2a43 2094 2443 c8bb 3043 2399 3343
00000330: 0e3d 2243 be46 1743 40f6 2143 9288 1a43
00000340: 101a 1143 8903 0d43 a83e f642 cce2 9e42
00000350: eeed 3542 3564 be41 7ab9 7441 06e6 9241
00000360: 5d43 4a42 8e51 cb42 accb e242 b1fa f042
00000370: 7a1d 1143 315f 2943 fa73 2a43 e546 1b43
00000380: 923b d842 368c 2142 784e d040 1fb8 6a42
00000390: 16dd c042 7295 0443 e12d 1343 6802 0c43
000003a0: 1210 e342 12ca f142 fc11 db42 e0dd d342
000003b0: 1e44 0f43 9e8f 2143 6a9e 1f43 7c05 1f43
000003c0: 23f7 1c43 1c75 1543 22eb 1743 9d03 2d43
000003d0: ec32 2f43 c6d8 1543 8035 ae3f 0000 0000
000003e0: 0000 0000 0000 0000 0000 0000 0000 0000
000003f0: aac0 02c2 9a83 61c2 baa8 32c2 8aa8 6cc1
