notebooks/data/processed/mfccs/f849e1f9-ad92-44c1-b4cb-3fe8c66e1214.npy (npy, 20288 bytes, 1 tensors)

array f4 [40, 126]
0	0xc48d6bde	-1131.3708
1	0xc48a5915	-1106.7838
2	0xc460b327	-898.79926
3	0xc450b390	-834.80566
4	0xc44f7bb2	-829.93274
5	0xc452290b	-840.6413
6	0xc456aa69	-858.66266
7	0xc459e9c3	-871.6525
8	0xc45e3367	-888.80316
9	0xc464fccf	-915.95013
10	0xc4660314	-920.0481
11	0xc4636685	-909.60187
12	0xc461bb49	-902.92633
13	0xc4617931	-901.8936
14	0xc460a7d8	-898.62256
15	0xc4609593	-898.3371
16	0xc46079ea	-897.9049
17	0xc4606e4e	-897.7235
18	0xc4621280	-904.28906
19	0xc4614dd1	-901.2159
20	0xc4631320	-908.2988
21	0xc46611a4	-920.27563
22	0xc46467d4	-913.6223
23	0xc464e744	-915.6135
24	0xc4646fcc	-913.7468
25	0xc4634a59	-909.1617
26	0xc463767c	-909.8513
27	0xc461bd87	-902.96136
28	0xc45f1005	-892.2503
29	0xc46288aa	-906.1354
30	0xc463c857	-911.1303
31	0xc466a67e	-922.60144
32	0xc4667077	-921.75726
33	0xc46484a8	-914.07275
34	0xc463561e	-909.3456
35	0xc4635f22	-909.48645
36	0xc463d51b	-911.3298
37	0xc46103b1	-900.0577
38	0xc462e102	-907.51575
39	0xc467a4fd	-926.57794
40	0xc46667f1	-921.6241
41	0xc4613cc2	-900.94934
42	0xc4632043	-908.5041
43	0xc465ace9	-918.7017
44	0xc464d963	-915.39667
45	0xc4674c61	-925.1934
46	0xc46660b0	-921.51074
47	0xc4642bc5	-912.6839
48	0xc4624df6	-905.21814
49	0xc4645da0	-913.4629
50	0xc4665ee2	-921.48254
51	0xc4681555	-928.3333
52	0xc466b1fd	-922.78107
53	0xc46448ed	-913.13947
54	0xc4637383	-909.8049
55	0xc4645a5e	-913.412
56	0xc466780a	-921.8756
57	0xc4694046	-933.0043
58	0xc467e06a	-927.5065
59	0xc4685249	-929.2857
60	0xc46a654d	-937.5828
61	0xc468e5f7	-931.5932
62	0xc4668356	-922.0521
63	0xc465c410	-919.0635
64	0xc463f17f	-911.7734
65	0xc4641959	-912.39606
66	0xc466acf3	-922.70233
67	0xc468ce6c	-931.22534
68	0xc46b9d83	-942.4611
69	0xc4729a40	-970.41016
70	0xc470f1f2	-963.7804
71	0xc46cf90f	-947.89154
72	0xc46e08c8	-952.1372
73	0xc4724f13	-969.23553
74	0xc46ea15b	-954.5212
75	0xc46bdca3	-943.44745
76	0xc46d0f40	-948.2383
77	0xc46c4eb5	-945.2298
78	0xc46e84fb	-954.0778
79	0xc46e4e48	-953.22314
80	0xc46ab82d	-938.87775
81	0xc471d5f3	-967.34296
82	0xc478172b	-992.362
83	0xc4728b1f	-970.17377
84	0xc46fbc44	-958.94165
85	0xc4692fac	-932.7449
86	0xc468e990	-931.6494
87	0xc46e2edf	-952.73236
88	0xc46e4c33	-953.1906
89	0xc46b936e	-942.3036
90	0xc46aa23b	-938.53485
91	0xc4695c0c	-933.43823
92	0xc4697282	-933.7892
93	0xc46beb07	-943.6723
94	0xc46d1ac5	-948.4183
95	0xc46fea5b	-959.6618
96	0xc470d363	-963.3029
97	0xc46fd949	-959.3951
98	0xc46de042	-951.504
99	0xc46cace3	-946.70135
100	0xc46da0d1	-950.51276
101	0xc46f276a	-956.61584
102	0xc46e2d0b	-952.7038
103	0xc46ba87d	-942.6326
104	0xc468cda2	-931.213
105	0xc469e759	-935.6148
106	0xc4700f23	-960.2365
107	0xc473e0cb	-975.5124
108	0xc46f2fcd	-956.7469
109	0xc469e302	-935.547
110	0xc46c0786	-944.11755
111	0xc46ffc08	-959.938
112	0xc47031f4	-960.7805
113	0xc47088d9	-962.13824
114	0xc46dc88c	-951.13354
115	0xc46d8c28	-950.18994
116	0xc46fe733	-959.6125
117	0xc471cd60	-967.209
118	0xc46dcb2d	-951.1746
119	0xc46be236	-943.53455
120	0xc46db8f2	-950.8898
121	0xc46d4b0a	-949.1725
122	0xc46b7398	-941.80615
123	0xc46d81bb	-950.02704
124	0xc46e2b25	-952.67413
125	0xc479fa8b	-999.91473
126	0x00000000	0.0
127	0x41a36382	20.423588
128	0x420d7058	35.35971
129	0x420e9eec	35.655197
130	0x4225bb97	41.433193
131	0x425d53c0	55.331787
132	0x427021a5	60.032856
133	0x425c17ae	55.023125
134	0x424aa836	50.66427
135	0x42303be2	44.05848
136	0x422c8460	43.129272
137	0x42260b16	41.510826
138	0x42401862	48.02381
139	0x4258b236	54.174034
140	0x425d5a04	55.337906
141	0x424b4cb4	50.824905
142	0x42619ba6	56.402
143	0x4265d908	57.461945
144	0x4247aef5	49.920856
145	0x423bd866	46.961327
146	0x424677b4	49.616898
147	0x424d736b	51.362713
148	0x426969a1	58.353153
149	0x426649cf	57.57208
150	0x4269f3b4	58.48799
151	0x4257cc8e	53.94976
152	0x4248799c	50.11876
153	0x4263841a	56.879005
154	0x4263ef81	56.98389
155	0x425075d8	52.11508
156	0x424c9af8	51.151337
157	0x4251c1ee	52.439384
158	0x424a2cee	50.543877
159	0x423eeaf8	47.72946
160	0x426dd7b5	59.46065
161	0x426bf2ca	58.9871
162	0x424f4163	51.813854
163	0x42478eb2	49.88935
164	0x4245f1a8	49.485992
165	0x4229bcba	42.434303
166	0x423c508d	47.078663
167	0x4264c6c6	57.194115
168	0x427adbc5	62.71462
169	0x427636c8	61.553497
170	0x42531f48	52.78055
171	0x42447e08	49.123077
172	0x423bce87	46.951687
173	0x4223ee07	40.98245
174	0x423a49f4	46.57222
175	0x4252cdf3	52.701122
176	0x42542c0b	53.04301
177	0x42395dfc	46.34178
178	0x423cafbe	47.171623
179	0x4257d7c2	53.9607
180	0x4251cc2e	52.449394
181	0x424e0cc8	51.51248
182	0x4238584a	46.08622
183	0x421fbb34	39.932816
184	0x422a1612	42.521553
185	0x4242df7e	48.718254
186	0x422de91b	43.477642
187	0x423a5594	46.583572
188	0x424915d2	50.27131
189	0x42589071	54.141056
190	0x425f5438	55.832245
191	0x424d2ddf	51.294796
192	0x4244d480	49.20752
193	0x4248598e	50.087456
194	0x424155d2	48.33381
195	0x422a6a1c	42.603622
196	0x421cf9c8	39.243927
197	0x423b67da	46.851418
198	0x42510fdd	52.26549
199	0x42397ad0	46.369934
200	0x421e2ce2	39.54383
201	0x422a822c	42.62712
202	0x42376dac	45.8571
203	0x42338b8f	44.886288
204	0x42357032	45.359566
205	0x4222d9bc	40.71263
206	0x4232263e	44.537346
207	0x42441927	49.024563
208	0x422815e0	42.021362
209	0x422eb772	43.679146
210	0x42351a0e	45.275444
211	0x42414b30	48.323425
212	0x422a8296	42.627525
213	0x42270316	41.753014
214	0x422241f2	40.5644
215	0x4243aace	48.9168
216	0x425be7ea	54.97648
217	0x426a152a	58.520668
218	0x426cdde4	59.21669
219	0x42457666	49.365623
220	0x42312152	44.28254
221	0x420daf0d	35.420948
222	0x41e69c17	28.826216
223	0x41e49aa2	28.575504
224	0x4207ad2c	33.919113
225	0x42360bd2	45.511543
226	0x425d9c13	55.402416
227	0x42477c0e	49.871147
228	0x42493db2	50.31025
229	0x424b170e	50.772514
230	0x423ce9e8	47.228424
231	0x422c4b8b	43.073772
232	0x421ccfd5	39.20296
233	0x41ed117a	29.633533
234	0x423206b2	44.50654
235	0x4260a7c8	56.16385
236	0x423f67d2	47.851387
237	0x4228948a	42.145058
238	0x424432f4	49.04976
239	0x422a76c6	42.61599
240	0x4218b37a	38.17527
241	0x41ef639d	29.92364
242	0x41c97ee0	25.18695
243	0x41ef9551	29.947908
244	0x422a9706	42.647484
245	0x423bb716	46.928795
246	0x4220ca74	40.19771
247	0x422cdcb9	43.21555
248	0x4236cfda	45.70298
249	0x424432e3	49.049694
250	0x422c5e0d	43.091846
251	0x420a1d30	34.528503
252	0x00000000	0.0
253	0x3fd0e089	1.6318523
254	0xc0f66c7a	-7.700742
255	0xbf4d056a	-0.80086386
